save/AdamTL.pt (torch_old, 100926 bytes, 18 tensors)

fc1.weight f4 [105, 11]
00000000: 6d02 64bd cf52 3ebe 3ab7 38be 84f8 003f
00000010: e4b2 813d abe3 37be 4739 75bd d272 643e
00000020: 0d6b 003d 5dee b0bd a88c 04be 5ce4 f83d
00000030: 8b7d 8abe c5e4 8b3e 5848 013e 42b4 893e
00000040: 2f4a 6e3d ac62 0bbd eea8 e6bd 1088 00be
00000050: e21a 86be 5594 463e 4e3f de3d 9061 85be
00000060: f78f ab3d 125f adbd e89f 783c 80b0 fabc
00000070: 030d 683d da5b 303e 3aa3 47be 0f91 70be
00000080: 8938 2d3d 64eb 5c3e 25d1 62bd 3034 223e
00000090: 6f03 013f 18bb 2d3f 352e b6be 57e7 633e
000000a0: 38ea a0bd 1929 3fbe 253d 91bc a32c 9abc
000000b0: 7e10 83bc 3732 03bc 0643 013d 18df babc
000000c0: c4f0 48bd b425 493c 6bec 7e3e 1fe3 f3be
000000d0: f6de a93d 254a 27bb 5c35 593c 8ce9 ab3d
000000e0: a274 c7be f47a e73e d5ab 1b3e 47dc 423d
000000f0: 3159 043c 5d29 823e 47da 01be e529 51bd
00000100: 5722 4f3d 565d a4bd 9eb3 403e 6c7e 8f3e
00000110: dd29 adbe cbd3 07bf 9443 743d fd33 063d
00000120: 46e2 3e3e b71b 4abe 7afb 1d3e 06b7 54be
00000130: 9364 7abe b7e9 81be fae5 eb3d f931 ffbd
00000140: de30 e03e 1117 89be 5cfd 4c3e 61a8 ecbc
00000150: 4d89 0e3e b153 7a3d 8567 053e 592f 85be
00000160: 865d 5f3a 83ab a03d b733 7dbe 95bd 913e
00000170: 9de0 f9bc 64fa 5a3e 5336 8b3c 9228 ddbe
00000180: 421c 06be eecf c7bd b8a8 a53d 203c 5d3e
00000190: 49bc 97bd f0e2 d43e 4c82 313e ce48 853d
000001a0: 9984 5dbd 4912 f63c 751f 11be 01ee 2f3e
000001b0: d907 0dbd 4196 cbbe 7352 5fbc 0fa7 7b3e
000001c0: 2fdd 07bd 6380 05be 30b9 213e a8fd 523e
000001d0: 5b22 de3d 0f29 42be 734d 4abe 4b4c de3c
000001e0: 2744 4dbd eac8 a3be 597f 6f3e 5c42 003f
000001f0: 5329 b03d 241f 64be 89b5 383d 8a02 49bc
00000200: 7b57 0fbe e8dc 8cbc 5556 26bc e3b8 51bb
00000210: c1b6 743d 25a0 e2bb 5f72 0cbe f000 cd3e
00000220: cf0f d13e 1b1d 343c 1bda 1ebe 809b 5d3d
00000230: b3a8 39be 15f8 fd3c bdfd 57bd ef78 4a3c
00000240: ae39 8fbd 586c 3c3e 8457 063f 8e67 3abe
00000250: 5168 213e 36cc bb3d eef6 3f3d 3922 623e
00000260: 58f6 d7be f5d3 023d e565 783e 0fb4 763e
00000270: 9412 8d3e 9795 d6bd 04e8 0a3f b20d 85be
00000280: 520a 683e 57bd 81bc 5e99 39be 487d 34be
00000290: 09e5 0cbe 8728 2d3d bf4d f1bd b2ae 653e
000002a0: bcc1 243d c6f4 42bc a19d afbd 68ff 103e
000002b0: 5297 213e 4e24 b0bd 351c 7a3e 2012 27bd
000002c0: 7e1c afbe 6247 8f3e 2e4a afbe 8e00 ec3e
000002d0: d530 283c bddb 273e 39f2 86be c82a 4c3d
000002e0: 3777 07bc 5221 27be 0c0f 413e 5ac1 36be
000002f0: d80c 8c3e 49c2 8b3e 92bb 843e b774 d93e
00000300: a29a 2ebe 4b4c 943e 2560 a5bb ac9c 51be
00000310: 0f56 05bd 1ed9 03be acd9 48be 7213 86be
00000320: 746a 303e 2c55 eabd 20eb 8f3c 8ce1 603e
00000330: 1bc0 86be a048 e3bd d04d d73c 80bd 10bb
00000340: 70bf 4fbe c574 58be 0ecf 9fbe 8cbc 923e
00000350: 3662 183f 79d3 aa3e ba09 9f3e 458c 4a3e
00000360: 8026 96bd 18d8 0bbb a42d be3d 5a15 8f3d
00000370: 5588 bb3d 0d92 5f3d 321d a5be a411 e3be
00000380: d5c3 b13c 092e 1c3e 1a1c 95be 261c 37be
00000390: 8011 713e 53b4 b0be c69d 6c3d e47b 6f3e
000003a0: e19c d8bd b548 64be 218b 513d 82f2 123e
000003b0: da35 b73e 6813 1d3e 197f 323e ffda 5cbd
000003c0: baf8 7dbe 4ff4 3b3e a3fe 833e beee 8bbd
000003d0: 7526 c0be 93a5 1f3e eb88 17be f607 e23e
000003e0: bbdd 51be 4939 a23d bba8 113d ad91 c1bd
000003f0: 099c 11bf 3ce4 ebbd 1513 713b 80b9 4dbd
-0.055666376 -0.18586276 -0.18038645 0.50379205 0.06332949 -0.17957942 -0.059869077 0.22309425
0.03135209 -0.08639214 -0.12944281 0.12152931 -0.27048907 0.27322975 0.12625253 0.26895338
0.058176216 -0.034029648 -0.112626895 -0.12551904 -0.26192385 0.19392522 0.10851918 -0.26050997
0.083770685 -0.08465399 0.015174843 -0.03060174 0.056653034 0.17222539 -0.1949586 -0.23492835
0.042290244 0.2157417 -0.055375237 0.1584022 0.50395864 0.6786361 -0.35582128 0.22256218
-0.07857174 -0.18668021 -0.017729351 -0.018820113 -0.015999075 -0.008007578 0.03155806 -0.022811458
-0.049057737 0.0122770555 0.24894874 -0.47634217 0.082944795 -0.0025526371 0.013257351 0.08394155
-0.3895617 0.45210993 0.15202267 0.047573354 0.0080779055 0.25422183 -0.12680922 -0.051065344
0.05056986 -0.08025615 0.18818519 0.2802614 -0.33821002 -0.53057545 0.05963476 0.032764424
0.18641004 -0.19737135 0.15427962 -0.20772943 -0.24452429 -0.25373623 0.11518474 -0.124607034
0.43787283 -0.2677541 0.20018524 -0.028888883 0.13919564 0.06111497 0.13027771 -0.26012686
0.0008520711 0.07845213 -0.24726759 0.28464952 -0.030502612 0.21384579 0.016993677 -0.43195015
-0.13096717 -0.09756456 0.08088821 0.21604967 -0.074089594 0.4157939 0.1733486 0.06508027
-0.054081533 0.030038016 -0.14172156 0.17180635 -0.034431312 -0.39763072 -0.013630497 0.24575447
-0.03316992 -0.13037257 0.157933 0.20604575 0.108463965 -0.18960975 -0.19756107 0.027135989
-0.050113823 -0.31989223 0.23388423 0.50101256 0.08601632 -0.22277504 0.045095 -0.012268672
-0.13998215 -0.01719518 -0.010152419 -0.003200107 0.0597446 -0.0069160634 -0.13715504 0.40039778
0.40832373 0.010993267 -0.15512888 0.054103374 -0.1813076 0.031002084 -0.052732218 0.012357934
-0.069934234 0.18400705 0.5247729 -0.18203565 0.1576245 0.091698095 0.04686635 0.22083367
-0.42180133 0.03194042 0.2425762 0.24092124 0.27553236 -0.10477751 0.5426028 -0.2598701
0.22660187 -0.015837355 -0.18124911 -0.17625916 -0.13759245 0.042274978 -0.11782407 0.22429922
0.040223822 -0.011899179 -0.08574987 0.1415993 0.1578038 -0.086006746 0.24424823 -0.04078877
-0.34201425 0.27984148 -0.34236282 0.46094173 0.010265549 0.16392417 -0.26356676 0.049845487
-0.008268169 -0.16321304 0.18853396 -0.17847195 0.2735355 0.27296665 0.25924355 0.4247186
-0.17051175 0.28964457 -0.0050468617 -0.20469922 -0.032552775 -0.12875792 -0.19614285 -0.2618671
0.17228109 -0.114420265 0.017568171 0.2196104 -0.2631844 -0.110978365 0.026282221 -0.0022085607
-0.20287871 -0.21138294 -0.31212658 0.28659475 0.5952486 0.33364466 0.31062108 0.19780071
-0.07331562 -0.0021338519 0.09286049 0.06986494 0.09156863 0.054582644 -0.32248837 -0.44349396
0.021699825 0.15251936 -0.29123002 -0.17881832 0.23541832 -0.34512576 0.057767652 0.23387104
-0.10576797 -0.2229336 0.051158074 0.14350322 0.35783273 0.15339434 0.17431296 -0.05391979
-0.24801913 0.18354915 0.2578021 -0.06832646 -0.3752934 0.15590505 -0.14798324 0.441467
-0.2049474 0.079210825 0.035561305 -0.094516136 -0.56878716 -0.115181416 0.0036785055 -0.050225735

fc1.bias f4 [105]
00000000: 0d35 7dbe 6a20 f9bd 758f 4b3e b1e1 263e
00000010: 7c41 783d 5685 1dbe 5367 663e 5b50 973e
00000020: 0ae3 a83d 7cdb 943d a073 cf3e bfa8 81be
00000030: 8750 ac3e 8049 a33e 45cb 2abd 297d 40be
00000040: 8b16 25be ffdc 66be 6992 21be 6b8b 19be
00000050: 48ce df3d 4cd2 9ebe 06d9 c63d 0013 e93e
00000060: 4c9b a83e f2f5 023f 02b5 883e cfe7 b43e
00000070: 95a3 973e 950f 08be 1903 0b3d a6e7 143d
00000080: 51b7 063f b411 c53e bb2e f33e 90ea 70be
00000090: 864b 453c 4b48 c0bc 3b57 cfbe 051a f83c
000000a0: be8c 1ebd 2ce8 db3e fa10 85bd 91c2 17be
000000b0: 1e2e 02bf 5a91 a4be c1b8 6abe c056 34be
000000c0: 29d7 943e ba8c d9bd dd14 53be c59e 05bf
000000d0: 1669 b13d 3dd2 06bf 06be 60bd 10f0 b0be
000000e0: 0ce4 dd3e b83b c33e 1c14 70bd 5c83 f43e
000000f0: 8458 8ebd 707c 623d 9875 6dbe d9f7 0bbe
00000100: 08ed 863e 00d6 4e3e ba38 413e a045 923e
00000110: 8ab3 f23e ffc2 fdbe 7183 983e db29 f5be
00000120: ae69 8bbe 7292 f9be 3a48 a0be 6f0b 943e
00000130: e91f 4dbe e08b dbbe 2af5 953d 0bbf 88bc
00000140: 1624 babd d20c 9b3e 246a 5c3d 5685 f7be
00000150: 7b1b 183e ec5f 62be 99e2 89be 9225 3dbe
00000160: 50e4 14be 5b01 babe 1d6a 58be a27c 27be
00000170: a6b0 2b3e 19b2 96be 1137 c73e ffc3 87be
00000180: 824d c1be 7de8 d7be 17c8 933e d6cf 39be
00000190: 66d0 bcbe 6027 6dbe bfce 0e3e 3104 323c
000001a0: 2332 ad3e
-0.24727269 -0.121643856 0.19878943 0.16297032 0.060609326 -0.15382895 0.22500353 0.29553494
0.08246429 0.07268426 0.40517902 -0.25324056 0.33655187 0.31892014 -0.04169776 -0.18797745
-0.1612188 -0.22545241 -0.15778507 -0.1499459 0.10928017 -0.3101982 0.09709363 0.45522308
0.32930982 0.5115653 0.26700598 0.35333106 0.2961699 -0.13287194 0.0339385 0.03635373
0.5262347 0.3849007 0.4749659 -0.23526978 0.012041932 -0.023471972 -0.4049624 0.030285845
-0.03870844 0.4295057 -0.06497379 -0.14820315 -0.5085162 -0.32142144 -0.2292204 -0.17611217
0.29070404 -0.106225446 -0.20613427 -0.5219539 0.08662622 -0.5266455 -0.05486872 -0.34558153
0.43338048 0.381315 -0.058612928 0.4775647 -0.06950477 0.055294454 -0.2318939 -0.13668765
0.26352715 0.20198822 0.18869296 0.28568745 0.47402602 -0.49562833 0.29787782 -0.47883496
-0.27229065 -0.4874454 -0.31305104 0.28914973 -0.20031704 -0.42880154 0.07322152 -0.016692659
-0.09088914 0.3028322 0.05381216 -0.48343915 0.14854233 -0.22106904 -0.26930693 -0.18471363
-0.1454022 -0.3632916 -0.21134229 -0.16356137 0.16766605 -0.29432753 0.389092 -0.2651672
-0.37754446 -0.42169562 0.28863594 -0.1814569 -0.36877745 -0.23159552 0.13946055 0.010865257
0.33827314

fc2.weight f4 [64, 105]
00000000: dd47 1a3f 56be 253d c9a2 8c3e 0fca abbc
00000010: f45b fa3d 6202 0c3e 7a2b 393d 6a46 f1bd
00000020: cc93 7c3e 9377 acbc 9aaa 6dbd 05f0 a83e
00000030: 831c b03d 7307 cebd b302 ee3d bf06 b33d
00000040: 2cee 1d3e 3354 853e 8c12 c2bd 4895 223e
00000050: 3df1 cf3b 2936 3ebe ff52 cfbd f86c b4bd
00000060: 1c0b 323e e60c 953c aaad e63c 6ac4 ab3d
00000070: 49d1 2d3d d82d 1cbd d73e 583e b422 c23d
00000080: cccd 84bd 1175 353c 5725 ccbd 5906 24be
00000090: d159 80bd 53b4 ba3d e375 083d 2bd0 723c
000000a0: 72fe a0bc 8db9 a9bd cab5 093e bdff c63d
000000b0: a795 26bc 6d6b 083d 4c75 273e fb45 a3bc
000000c0: 15d9 893e 822e 7a3e a970 203d 51e0 003e
000000d0: fe05 ea3c 4565 a83d b101 cb3d afc5 13be
000000e0: 634b eb3d a2de 0ebe 2937 7d3d 37e3 10be
000000f0: ce4b 8bbd f352 ba3d c026 b13a 7abc 513d
00000100: 8876 8abd 3336 af3b 3766 443e 8630 1ebd
00000110: 68a9 2bbe 7502 f4bd e503 03bd b2fd 9c3d
00000120: e179 193e e44d 063d 9a57 d4bd 348c a1bd
00000130: 33ba e93d 0df1 213e 1e4b 333e 7b4e 95bd
00000140: 70e8 cb3d e496 91bd b7f6 d0bc 8989 243d
00000150: 860d 2abd 46e4 083d 8a2a 853a fc99 e238
00000160: 123e 603d eda4 0b3d 2f00 043e 07b9 103e
00000170: b594 813d 17a7 c23c 4dee cfbd 2a7d 6f3e
00000180: a693 26be 5c0a 23be 2afa b8bd 99ae 9b3e
00000190: d85f b03c b29c 243e 084f 03bd 1f00 173e
000001a0: 90d8 bdbd da09 023f ee74 43bd f804 5f3e
000001b0: 0996 a7bd 4747 8c3e 03bb 353d 86ba 803d
000001c0: dfab efbd e688 553e fa42 6f3c 0d93 e83d
000001d0: 4888 a73d 38a2 6e3d 05ac 133d e2b5 c93d
000001e0: 6633 21be 1d39 e3bd 6ddd d73e 00e5 e5bc
000001f0: a57c c0bd 9a13 8a3d 98f1 b8bc b844 c73d
00000200: 1459 9c3c 1048 303e c9e7 bbbd 870d debc
00000210: 22ee 62bd deb6 0f3c f9a0 8f3d 722e 1c3e
00000220: e010 0c3e d237 443e 9271 8f3d 78c1 023e
00000230: a959 ab3d acb0 f53d 49a6 98bd 4dc0 583d
00000240: 9442 97bc 98c8 a2bc eaa9 a23d be78 eebd
00000250: 1ffb 363e 5a68 a4bd c66a 2abe 3c68 23bd
00000260: e48d 0bbd 7a0a 833e cbda 2f3e ac4d c3bc
00000270: 003c c9bd 5133 103d a6dc 303d 06e8 d3bd
00000280: 7d64 b63d 1247 67bc 7aeb b43d 9d0b 263d
00000290: 2199 243e 182b 3cbd f01a ed3b 3039 823c
000002a0: 9196 d73d ff50 4c3d f714 343d 42a2 673e
000002b0: 3e04 203b cf1a 323d 599a e63d 4a9d f1bb
000002c0: e3b2 16bd db45 47be 51f5 8d3d 1925 babb
000002d0: 637c 213d fcec 033c 56f6 afbd 4033 1d3e
000002e0: ec39 8ebd e4ee ab3c f215 5fbd 5895 8cbc
000002f0: a9dd 92bb c26e 7ebd 79d1 af3d 920f 63bd
00000300: d40e 513c 90c4 abbd 8140 e43b e49e 663e
00000310: 7c4e 07be bf42 833d a6c8 853c 2477 9b3b
00000320: c7d3 af3e 66f6 1c3e af46 2cbd 4c58 673d
00000330: a734 9e3e 6288 05be 1a64 e23d c2da 2abd
00000340: a15e 453e dc5d 1f3e a43a 8a3e af76 03bd
00000350: ae1f 0f3e 76c5 253e f7f8 183d fea6 273d
00000360: 0dd4 15bd 9f63 cdbd c27c 033e 4083 853c
00000370: 1ff8 48be 5940 2f3e 300e 98bd ee42 963d
00000380: cde2 86bd 630f febc 0340 9fbc 24e1 c73e
00000390: 0068 5c3a e6b7 cb3d 2b28 4e3d 0cbf c73d
000003a0: 43ad a4bd 2dba c5ba d59c 723e af3b b13d
000003b0: f881 64bd 7746 793d aad7 19bd 305c 5a3c
000003c0: bc0d fa3d adce 3abd 0ed4 2a3d 6786 313d
000003d0: d670 f03d 24f4 1cbd bd25 19be c627 533d
000003e0: ea05 48bd 8555 373d 55c4 313b fe06 09be
000003f0: d222 2f3d 8886 dfbc ea39 b9bd 4138 e43c
0.60265905 0.04046472 0.27467945 -0.020970372 0.1222457 0.13672784 0.045207478 -0.117810085
0.24665755 -0.021053111 -0.058024026 0.3299562 0.08599188 -0.100600146 0.116216086 0.08741521
0.15422887 0.260408 -0.09476194 0.15877259 0.0063458965 -0.18575348 -0.10123252 -0.08809847
0.1738705 0.018194627 0.028158981 0.083870724 0.042435918 -0.038129658 0.21117721 0.09479275
-0.06484565 0.011075274 -0.099680595 -0.16018046 -0.06267131 0.09116425 0.03331555 0.014820139
-0.019652579 -0.08287344 0.13448253 0.09716747 -0.010167516 0.033305574 0.16353339 -0.01993083
0.26923433 0.24431804 0.03916994 0.1258557 0.02856731 0.08222441 0.09912432 -0.14430879
0.11488988 -0.13952115 0.061820183 -0.14149176 -0.06801568 0.090978526 0.0013515577 0.051205136
-0.06760889 0.005347037 0.19179617 -0.038620494 -0.16763842 -0.11914531 -0.031986136 0.07665576
0.149879 0.032789126 -0.10368271 -0.0788807 0.11412468 0.1581461 0.17509124 -0.072903596
0.09956443 -0.07108858 -0.025508268 0.040170226 -0.041516803 0.033420824 0.0010159772 0.000108052016
0.054746695 0.034092832 0.12890695 0.14133082 0.06327192 0.023761315 -0.10152874 0.2338759
-0.16267261 -0.1592192 -0.0903209 0.30406645 0.021530077 0.160754 -0.032057792 0.1474614
-0.09269822 0.5079628 -0.047718935 0.21779239 -0.08182914 0.2739813 0.0443678 0.062855765
-0.11702704 0.20853004 0.014603371 0.11356173 0.081802905 0.058260173 0.036052722 0.098491445
-0.15742263 -0.11094878 0.42161122 -0.028063297 -0.09398774 0.0674202 -0.022576138 0.09729904
0.019085445 0.1721499 -0.09175069 -0.02710606 -0.055402882 0.008771626 0.07013125 0.15252092
0.13678312 0.19161919 0.07004084 0.12769115 0.08366711 0.11996588 -0.074535914 0.052917767
-0.018464364 -0.019871041 0.07942565 -0.116441235 0.17869233 -0.08027716 -0.16642293 -0.039894328
-0.034070864 0.2559393 0.17173307 -0.023840748 -0.09825897 0.03520519 0.043179177 -0.10346989
0.08905885 -0.014116066 0.08833976 0.04053842 0.16074039 -0.045939535 0.007235877 0.01589641
0.10526765 0.04988193 0.043965306 0.2262049 0.002441659 0.043482598 0.11259908 -0.0073734866
-0.036791693 -0.19460241 0.06931556 -0.005680692 0.039425265 0.008052107 -0.08591907 0.15351582
-0.069446415 0.020987935 -0.054464288 -0.017161056 -0.0044819904 -0.062117346 0.085848756 -0.05543477
0.012759883 -0.08387101 0.0069656973 0.2252155 -0.13213533 0.06409215 0.016331028 0.0047444273
0.3434126 0.15328369 -0.042059597 0.05648069 0.30899546 -0.13040307 0.11054249 -0.04171253
0.1927438 0.15563148 0.26997864 -0.032095607 0.13976929 0.16188607 0.037346806 0.04093074
-0.03657918 -0.10028767 0.1284056 0.016297936 -0.196259 0.1711439 -0.07424581 0.073369846
-0.065862276 -0.031013196 -0.019439703 0.39038956 0.0008407831 0.09947185 0.050331276 0.09753236
-0.080408596 -0.0015085392 0.23692639 0.08653962 -0.05578801 0.060858216 -0.03755919 0.013327643
0.12209651 -0.045607258 0.041706137 0.043341067 0.11740272 -0.03831877 -0.14955802 0.051551603
-0.048833765 0.044759292 0.002712508 -0.13381574 0.042757817 -0.02728583 -0.09044249 0.027858855

fc2.bias f4 [64]
00000000: 546f 8abc ac3b 05be a890 f23c 6cbb 653e
00000010: a7d9 8d3e f295 813e d2dc 0b3e 41fd 6cbe
00000020: 07fa 683e 056f 003e a4b1 1abe 4b0d 553e
00000030: 5ac4 223e 2ea4 013e 7023 953e 9850 89bc
00000040: fd05 d4bd 0025 d4bc b57d 72bd d88b 2fbd
00000050: 7b63 8cbd c68f dbbd 5045 0f3e 7586 67be
00000060: 57e9 e83d 3151 823e cf54 cabc df08 2abd
00000070: 640a 653e c876 36bd 71e0 043e 8702 5e3e
00000080: 2932 06bd 5610 34be 3ab8 923e 7895 68bc
00000090: 44a5 6f3e a967 713e 1cdd cc3b 1ad0 6e3e
000000a0: b1cd 5f3e fb37 2f3e 5de9 c9bd f366 713e
000000b0: ed89 4ebd faa0 743e ce7b 8e3e 63a1 64be
000000c0: 3026 663e a00b 9f3d f8f4 fb3d 9d90 c73c
000000d0: 5d95 29be 847a a53d a081 1d3e 7ba3 4e3e
000000e0: 2dad 973e 22f4 953e 04ec 2d3e 02b7 2a3e
000000f0: 16a2 843e e7b7 923e 9db6 753e 8e11 5f3e
-0.016898789 -0.13011044 0.029609993 0.22434777 0.27705118 0.25309712 0.13658455 -0.23143484
0.22751628 0.1254235 -0.15106827 0.20805852 0.15895215 0.12660286 0.291286 -0.016762063
-0.10352705 -0.02589655 -0.059201915 -0.042857975 -0.06854912 -0.10720782 0.13991284 -0.22609885
0.11372631 0.2545257 -0.024698643 -0.041512366 0.22367245 -0.044546872 0.12976243 0.21680652
-0.03276268 -0.17584357 0.2865618 -0.014195792 0.23402888 0.235747 0.006251944 0.23321572
0.21855809 0.17111199 -0.09858964 0.23574428 -0.050424505 0.23889533 0.2782883 -0.22327189
0.22475505 0.07765889 0.123025835 0.02436095 -0.16560884 0.080800086 0.1538148 0.2017955
0.2962431 0.2928782 0.16984564 0.16671374 0.25904912 0.2865593 0.23995443 0.2178404

fc3.weight f4 [2, 64]
00000000: 5d36 0e3d 3644 983d 103f 933d 5a16 513d
00000010: 0d05 463e 92cb 773d 96e7 04bd 789e 08be
00000020: 45d1 263e 04d7 453e 2cda 46be 103a 7e3e
00000030: 910a 343d b3da f83c b6af 4f3d c362 97be
00000040: a5bd 23be 0774 8cbe dd7a 7bbe a33e 8abe
00000050: 4461 2abe 92a6 533d 6010 80bd dc9a e1bd
00000060: 4e0c be3b 182d 2a3d aa0b 6bbd 2145 6fbe
00000070: 527f 113e 9304 94be 5c74 bd3d a2b6 b8bb
00000080: 4f35 92be 51ed f7bd 0aef b83b cb0b 8abe
00000090: baf1 473b cdd4 5d3c cde0 40be 3ed7 1c3d
000000a0: 8b65 3cbd 0dda 5abd 512a 50be 17c9 633d
000000b0: 215c 16bd 4bcf 143c 85db 5d3d 1237 41be
000000c0: c524 eb3d 79c1 cb3d a544 043e 754b 32be
000000d0: 35be 73be d61a 083e 6b79 b53d ba9d ca3d
000000e0: 5dad 953d 5f6c 2f3e ae2b 44bd e45f 153e
000000f0: cd3a 4e3d 2eca ea3d c3d8 053e 0cc0 fe3c
00000100: 14ee 2bbe dd6e 88be 1e76 8fbd 9e20 72bd
00000110: eb09 60be b885 c4bc 3531 c6bd bfed 783e
00000120: 5ec1 85ba 933e 70bd a959 fe3d a13e 5dbe
00000130: 8009 793b 5a77 9abd d575 8ebd 1b3c 883e
00000140: b3ed 703e a538 503e b861 ae3e c847 5e3e
00000150: 5bfb 853e 34d1 8d3d 1034 f2bd 6daa 763e
00000160: db95 51bd 34eb 98bd 72c0 66bd be5c d63d
00000170: a415 9e3d 5473 913e 11f0 ab3b 80ef c2bd
00000180: 3d17 473e 3b79 823e 733e 49be 7fa5 783e
00000190: 27fe b0bd a960 f9bd fc2e 583e eab5 fdbd
000001a0: 102c f1bd f5c5 11be 18f6 633e 073a 95bd
000001b0: 87a4 343d 107f f8bd ff13 9cbc 9992 893d
000001c0: 73c9 cebb a159 0f3d 9492 a83c 98d4 6a3e
000001d0: ae76 0e3e ce3b 593d fb70 c3bc c235 26bd
000001e0: 9c9f 0abd 38f9 5c3b e71d e6bd 3b84 383d
000001f0: c87e f6bd 987f 27bc aa7e c63c f267 4ebd
0.034719814 0.07434885 0.071897626 0.051046707 0.19337864 0.060496874 -0.03244742 -0.13341701
0.16290767 0.19320303 -0.19419163 0.24826837 0.04395539 0.030377721 0.05070468 -0.29567537
-0.15990312 -0.27432272 -0.24558587 -0.27000913 -0.16638666 0.051672526 -0.06253123 -0.11015865
0.0057998067 0.04154691 -0.05738417 -0.23366214 0.14208725 -0.2890974 0.092507094 -0.005637006
-0.28556296 -0.121058114 0.00564373 -0.26962122 0.003050907 0.013539505 -0.18835755 0.03829121
-0.045995276 -0.053430606 -0.20328642 0.055611696 -0.036708955 0.009082626 0.05416443 -0.18868664
0.114816226 0.09949011 0.12916811 -0.17411597 -0.23803027 0.13291487 0.08861049 0.09893365
0.07308457 0.17131184 -0.04789322 0.1458736 0.050349046 0.11464344 0.1307097 0.031097434
-0.16790038 -0.26647082 -0.07004951 -0.059113137 -0.21878783 -0.023989543 -0.09677354 0.24309443
-0.0010204723 -0.058653425 0.12419445 -0.21605922 0.0038000047 -0.07542296 -0.069560684 0.26608357
0.23528175 0.20334108 0.34058928 0.2170707 0.26168332 0.06924668 -0.118263364 0.2408845
-0.051168304 -0.074667364 -0.056335874 0.10466908 0.07718971 0.284083 0.005247124 -0.09518337
0.19442458 0.25483117 -0.19652729 0.24281882 -0.08642226 -0.121766396 0.21111673 -0.12388213
-0.117759824 -0.14235671 0.22261846 -0.072864585 0.044102218 -0.1213361 -0.019052504 0.067174144
-0.0063106357 0.034997586 0.020577706 0.2293266 0.1391246 0.05303555 -0.023857584 -0.04057861
-0.03384362 0.0033717882 -0.11236172 0.04504798 -0.120359 -0.010223292 0.02423032 -0.0503921

fc3.bias f4 [2]
00000000: 9bf8 d13e 3d44 8abe
0.41009983 -0.27005187

exp_avg f4 [105, 11]
00000000: 5f30 30bc f520 87b9 06b2 80bb dc3e fcb9
00000010: 5ffc 9eba df9a 02bb ef30 a5bb 8528 96bc
00000020: e490 8cbc 4f7b 09bc f0c5 5bbb d941 e0bb
00000030: e89c 69b9 18ef 6ebb e8c2 4c37 8d02 8cba
00000040: d9f7 13ba a80e 8c38 0064 f0bb 3a14 e4bb
00000050: 3c44 3dbc d43d 9dbc b587 14bc 84a3 e1b8
00000060: effd 39bb a4a9 e4b8 0dfc 58ba 147f f9ba
00000070: c1f0 12bb c507 38bc 0fc8 55bc 1354 e5bb
00000080: 6de5 3bbc 29a7 1abd 821d 81bc bdc0 453a
00000090: 7e88 d4b9 ee31 1438 4bf7 0dbb d47c 89bc
000000a0: c63c b7bc 02ba 33bc 6da0 8dbd 2a02 16be
000000b0: 69f8 50bd 7895 d3bc 739b 23bc 06c8 dbba
000000c0: ad1d e1ba 330d 23bc 965a 62bc 17e9 9cbc
000000d0: 7dda 5ebd de16 92bd 1a65 00be 8b00 96bc
000000e0: ac58 93b7 1804 15bc 2c45 6636 8cc5 f8ba
000000f0: 8526 91bb e6fe 46bb 59e6 46bc 7553 05bd
00000100: ccfc a3bc c4ba 4dbc 439a f5bb 4819 c8bb
00000110: 585c 053b 057c 9838 b61b 8cb9 1268 42ba
00000120: 3e51 40ba b25c 20bb eda9 48bc 289a f6bb
00000130: 0738 b4bb cd31 d03c 62c3 883c bc90 4b39
00000140: 9e3a b739 68fa 4b3b 9fd1 8f3b ab44 23b9
00000150: bb4a fb3b 9897 0d3d 7596 c83c ba1b 153c
00000160: 46a1 c1ba 1529 95ba 7211 24b5 14ec 14ba
00000170: e6a4 a4b8 5369 dbb9 e290 e2b9 f3a3 dfb9
00000180: 7c7a ccba 916e 09bb e159 b1bb 686f 193c
00000190: eea9 eb3b a4c8 873b 8fcc 0eb8 3f3f ba3a
000001a0: fee0 933a 9f66 5939 5e27 653b 3b8e 433c
000001b0: fa6a 323c 455a 203b c155 d1bc 38fd 85bc
000001c0: 5041 d83a 92f1 033a c202 51b8 da9b d0ba
000001d0: 3372 3ebc 4ab6 c1bb c277 20bc 51ba 35bd
000001e0: 07eb 8cbd 7532 84b7 7a5a 85bc df3b e2bb
000001f0: f38c 42b8 daba 5cba 4a37 5cbb 08fc e0ba
00000200: 8f96 04bc db09 83bc 316c 9fbc 3bd7 31bd
00000210: bcc7 683d 535f 353d 4670 4d3a 6eea efb9
00000220: c8e8 ae3b c1e7 503c 585b 343b 238a 023d
00000230: 5403 b23d 91b1 d53d e70b 853d a9af cf3c
00000240: a6d8 b53c 9fe1 103c d632 5839 b731 733b
00000250: c8a4 8e3a 0a82 183a 899f 123c 9fda ec3c
00000260: b888 bd3c c1b1 fbbc f547 2e3d 56da e73c
00000270: b75d 683c d3fa 0dba 9499 783b cfd3 9c3b
00000280: 2236 303b 4756 813c 728b 473d e3a5 443d
00000290: 6bf0 7c3c d841 593c 3eca d23b 86a3 203b
000002a0: f331 ae38 733d aa3a f192 493b 3d12 1eb9
000002b0: 8a12 c23b 94a1 8a3c 5102 aa3c d42d 063d
000002c0: 739a d83a be63 403b c13d 9d3a 4637 243a
000002d0: affb 8239 ef38 033a 56e2 7d3a 900f 813b
000002e0: 139e 3e3b a7ec 5c3b ca16 263c 23eb 15b1
000002f0: 5111 bcb7 e9a9 3bb7 f5d1 39b7 de4e 0fb6
00000300: 5853 f1b6 5111 3cb7 d581 3bb7 2058 0cb8
00000310: 147d 3eb7 a50a 0db8 0000 0000 0000 0000
00000320: 0000 0000 0000 0000 0000 0000 0000 0000
00000330: 0000 0000 0000 0000 0000 0000 0000 0000
00000340: 0000 0000 3435 733c 4dae 893b 7fa1 0c3c
00000350: 668f 1cb9 632e ed3a afc6 953b a97c 303b
00000360: ed4e 9c3c 3da2 c23c 580f ee3c 3f8e 713d
00000370: 0a43 22bc b516 3dbc e92d bc3b e274 0738
00000380: dd0a 11bb 8a90 a239 5609 3f39 35d7 00bb
00000390: 15db 0ebc 94a6 48bc 3297 ea3c ad12 243d
000003a0: a5a0 db3c ff61 043b e6cd 093a 4ff7 ce3a
000003b0: fd97 a23b 0f38 4c3c bbe5 d43c 3787 3d3d
000003c0: 9ff9 323d 083c 693d cfee 7fbb 677e 5ebb
000003d0: e056 683b b425 23ba bc82 07ba 4cba 9fba
000003e0: dde8 673b f6e2 4a3b 1b06 bbbb dd8f 20bc
000003f0: ce42 84bb 0248 e53c 0050 b13c 8a51 d9bb
-0.01075372 -0.0002577376 -0.003927472 -0.0004811202 -0.0012129656 -0.0019928736 -0.0050412337 -0.018329868
-0.017158933 -0.0083912155 -0.0033534728 -0.006843787 -0.00022279064 -0.003645843 1.2204728e-05 -0.0010681913
-0.0005644537 6.67845e-05 -0.0073361397 -0.006960419 -0.011551913 -0.019194521 -0.009065558 -0.00010759293
-0.0028380116 -0.00010903485 -0.00082773046 -0.0019035065 -0.0022421333 -0.011232321 -0.013048186 -0.006998548
-0.011468274 -0.037757073 -0.01576114 0.0007543674 -0.00040537486 3.533245e-05 -0.002166229 -0.016783156
-0.022367846 -0.010969641 -0.069153644 -0.14649263 -0.051018152 -0.025828108 -0.009985792 -0.0016767986
-0.0017174982 -0.009951877 -0.013815543 -0.019154115 -0.054407585 -0.07133268 -0.12538567 -0.018310806
-1.7565057e-05 -0.009095214 3.4312934e-06 -0.0018979772 -0.0044296407 -0.0030364334 -0.01213988 -0.032550294
-0.020018004 -0.012556735 -0.007495196 -0.0061065294 0.002034923 7.271025e-05 -0.00026723527 -0.00074160204
-0.0007336325 -0.0024469313 -0.012247545 -0.007525701 -0.005499843 0.025414372 0.016694728 0.00019413506
0.00034948153 0.0031124596 0.0043890025 -0.00015570472 0.0076688207 0.0345684 0.024485806 0.009100849
-0.0014772795 -0.0011380041 -6.112015e-07 -0.00056809303 -7.850844e-05 -0.00041849408 -0.00043214025 -0.00042656026
-0.0015600468 -0.0020970444 -0.0054123257 0.00936494 0.007191888 0.0041437913 -3.404595e-05 0.0014209523
0.0011282263 0.00020732962 0.0034966092 0.011935766 0.010889763 0.0024467867 -0.025553586 -0.016356096
0.0016498957 0.000503325 -4.983205e-05 -0.0015915588 -0.011623907 -0.005911623 -0.0097941775 -0.04436714
-0.068807654 -1.5759122e-05 -0.016278494 -0.00690411 -4.6384474e-05 -0.0008420177 -0.003360229 -0.0017164955
-0.008092537 -0.01599591 -0.01946077 -0.04341815 0.056831107 0.04428036 0.00078368594 -0.00045760296
0.0053378083 0.012750567 0.0027520265 0.03187002 0.08692041 0.10434259 0.06496411 0.025352316
0.022198033 0.008842855 0.00020618303 0.003710849 0.0010882849 0.0005817717 0.008949169 0.02891284
0.023136482 -0.030724408 0.042549092 0.028302353 0.0141825 -0.0005416099 0.0037933337 0.0047859917
0.0026887734 0.01578821 0.04871697 0.048009764 0.0154381795 0.013260327 0.0064328006 0.002451153
8.30627e-05 0.0012988284 0.003075775 -0.00015074848 0.00592262 0.01692275 0.020753058 0.03275855
0.0016525522 0.0029356326 0.0011996554 0.000626434 0.0002498305 0.0005005737 0.0009684911 0.003938623
0.0029085919 0.0033710392 0.010137269 -2.1816013e-09 -2.241941e-05 -1.1185629e-05 -1.1075744e-05 -2.1354567e-06
-7.192062e-06 -1.1209705e-05 -1.1176297e-05 -3.3460674e-05 -1.13540045e-05 -3.3626933e-05 0.0 0.0
0.0 0.0 0.0 0.0 0.0 0.0 0.0 0.0
0.0 0.014844228 0.0042016865 0.008583426 -0.0001493074 0.0018095489 0.004570804 0.0026929772
0.019080603 0.023759002 0.02906005 0.058973547 -0.009903679 -0.011541058 0.0057427776 3.2295364e-05
-0.002213172 0.00031006738 0.00018218657 -0.0019659523 -0.008719225 -0.012246747 0.028636549 0.040056873
0.02681 0.0020200012 0.00052568165 0.0015790256 0.004961966 0.012464537 0.02598845 0.04627153
0.04369509 0.056942016 -0.0039052253 -0.0033949853 0.0035452172 -0.0006223575 -0.0005169322 -0.0012186258
0.00353866 0.0030958033 -0.005707515 -0.009799925 -0.004036284 0.027988438 0.021644592 -0.0066320347

exp_avg_sq f4 [105, 11]
00000000: 3bdc a43b 7efb 823a 2c21 803a 0b80 2b39
00000010: 8df5 9238 14fe 9039 fc4c 9d3a ede3 c73c
00000020: 14fa a33c 8970 1a3c afd3 1d3b a3ac 813a
00000030: 78c1 7e39 751b 7239 a21f a235 5140 5b37
00000040: f9f3 5638 8f53 0239 fad7 123a 03ab 283b
00000050: 2a01 7b3b 7911 793c 3b6e dc3b 6795 2d3a
00000060: 4eba 6e3a 82c1 2838 7c2f 8538 da23 a039
00000070: 61bf b43a 46b6 513c a1a6 333c 3da2 013c
00000080: 0385 fe3c 6136 693c a25e b83b 629d b93a
00000090: dcd6 5b38 3d20 f038 1f48 9b39 5886 d63a
000000a0: b8b1 de3b 0248 883c 2be1 033d 98f1 573d
000000b0: 8a31 0f3c bf61 9d3b 7f34 623a 36e3 ac38
000000c0: c3fd 8738 a934 ca39 7cf2 f23a 04e6 e63a
000000d0: f058 9b3c 69f9 a73c 70b1 573d 6042 3d3c
000000e0: d32a 9739 5e77 343b 3e4d 9938 358b 2639
000000f0: f8b6 003a 805a d43a 5b49 1b3c e7ed 0b3d
00000100: 1b57 db3c ede2 623c 68b6 d93a 955f 273a
00000110: e553 9a38 5ac2 a036 0dee 0c37 5182 2b38
00000120: d245 f238 45af 1b3a fa2f 333b df52 203b
00000130: d8f7 813a c0b0 a03a 60ab 133a bf2a bf38
00000140: 34e6 0336 1e78 2237 f3bf 3138 4337 cc38
00000150: 6e30 7c3a 03aa 443b 3e59 493b db30 0d3b
00000160: 12d7 153b 29e4 543b 6138 e739 fb1b b138
00000170: f120 a638 7997 2539 024b 8439 6ad7 7839
00000180: 649f 963b c930 843c ac75 843d 201a f43a
00000190: ab84 153a b12d 7339 da73 4d36 3049 9b37
000001a0: 709e 5238 598b c238 05da 593a 5992 8a3b
000001b0: b915 783b d30e cb3a f9de 8e3b b2a2 373b
000001c0: d201 003a 15c8 6437 b348 ff37 4c80 2039
000001d0: 288e ff39 90ae 933a 345e bf3b a618 853c
000001e0: 21be d43c d1f0 f839 471b 003c 8c8e c03a
000001f0: 7aa1 8439 7d4e 0f39 5c59 9739 1fc0 a43a
00000200: 14c9 b93b 5b4e 953c eafc e93c 9b24 843d
00000210: 3f6f af3b dc4a 253b 461b 1c3a acb5 1239
00000220: 90ec 6a38 8016 5739 f15d dd39 996c aa3b
00000230: 1a7a e43b 8804 763c d921 853c 2c09 d83b
00000240: f834 2a3b 15fe 6b3a 6b51 2f39 96db 7638
00000250: c2d9 9539 c5c7 6e3a 7a18 cb3b 8849 833c
00000260: c231 7e3c 15c9 f63c 68af 993b 039d 003b
00000270: 4d5b e939 e7b2 1137 855f dc37 546e c338
00000280: 7b18 c839 e583 f33a 76f5 993b eb27 d43b
00000290: c2da e83a 6302 cf3a 33df 373a f570 3139
000002a0: 2be4 9e36 03d0 5137 e901 4d38 be50 3f39
000002b0: 1237 a93a 4144 3f3b d2f5 9a3b 6fcb e23b
000002c0: c10d 043a edf5 253a 0e1a 9c38 d827 dc37
000002d0: f218 1e37 a26a 1838 c8d2 b938 e12c 2b3a
000002e0: b4b4 e33a 273c a53a d35a da3b f0bb 1d38
000002f0: a7c8 c039 97eb bf38 61ef 5236 7e08 ea35
00000300: 1765 5637 8ea6 b938 459a da38 8159 df38
00000310: 75e0 4b3a 0645 503a 0000 0000 0000 0000
00000320: 0000 0000 0000 0000 0000 0000 0000 0000
00000330: 0000 0000 0000 0000 0000 0000 0000 0000
00000340: 0000 0000 b29f 023b 7fd3 dd3a f659 5d3a
00000350: c9b5 0c38 2b4a 2738 a0fb 2e39 1d5d 263a
00000360: 1e01 893b 5847 033c 49df 933c 4a8a 073d
00000370: 1a24 3e3b 33a3 9c3a 55a8 1339 d169 cb36
00000380: 9895 a037 6c17 b238 3729 f638 83be 4f3a
00000390: b578 c53b cfb9 233b f73a 193c 1f5b 243b
000003a0: 17f5 723a 7872 4a39 86b1 9637 6211 8237
000003b0: 21ef 8f38 8cb5 9239 ef00 063b 5915 913b
000003c0: 3186 523b b964 d53b 33d7 433c 7451 393b
000003d0: edce e33a 8a8f 5539 e038 0039 f3c7 ee39
000003e0: 39db 8d3a f185 f63b dbe5 cd3c e7bb 6c3c
000003f0: b7eb ab39 c7f0 b33b ea87 7c3b a64c 9d3a
0.0050311363 0.0009993163 0.0009775511 0.0001635553 7.00756e-05 0.00027655123 0.0012001093 0.024400676
0.020016707 0.009426245 0.0024082472 0.0009893369 0.000242954 0.00023089147 1.2079147e-06 1.3068392e-05
5.1248793e-05 0.00012428894 0.0005601641 0.0025736697 0.0038300254 0.01520192 0.0067270077 0.0006621689
0.0009106741 4.023454e-05 6.350779e-05 0.0003054429 0.0013789946 0.012799805 0.01096502 0.007912216
0.031069284 0.014234156 0.0056265155 0.0014161284 5.2413772e-05 0.00011450097 0.00029617638 0.0016366942
0.006796088 0.016635899 0.03219716 0.052720636 0.008739838 0.004802912 0.00086290383 8.2439205e-05
6.4845684e-05 0.00038567677 0.0018535401 0.0017616157 0.018963307 0.02050467 0.052659452 0.01155147
0.0002883287 0.0027536969 7.309996e-05 0.00015882852 0.0004910077 0.0016201288 0.0094779385 0.03416243
0.026774934 0.013848049 0.0016610147 0.0006384787 7.358919e-05 4.790997e-06 8.400076e-06 4.0890944e-05
0.00011552464 0.0005938898 0.0027341829 0.0024463458 0.0009915782 0.0012259707 0.0005633142 9.115552e-05
1.9654517e-06 9.683919e-06 4.2378855e-05 9.737771e-05 0.00096202537 0.0030008561 0.0030723359 0.0021544013
0.0022863788 0.0032484627 0.0004410176 8.4452295e-05 7.921633e-05 0.00015792054 0.00025232887 0.00023731371
0.0045966376 0.016136544 0.06467757 0.0018623509 0.0005703668 0.00023191307 3.0614815e-06 1.851152e-05
5.0215458e-05 9.2765964e-05 0.00083103805 0.004228872 0.0037854745 0.0015492089 0.0043600765 0.0028020558
0.0004883084 1.3636444e-05 3.0432222e-05 0.00015306583 0.00048743305 0.0011267234 0.0058400873 0.016247105
0.025969567 0.00047481668 0.007819003 0.001469092 0.0002529731 0.00013666782 0.00028867542 0.0012569464
0.0056697223 0.01822584 0.028562982 0.064522944 0.0053538377 0.0025221622 0.0005954992 0.00013991323
5.6010264e-05 0.0002051238 0.00042222397 0.005200934 0.0069725635 0.015015729 0.016251491 0.0065928902
0.0025971513 0.00090024 0.00016719631 5.8855476e-05 0.00028581737 0.00091087475 0.006197986 0.016026273
0.015514793 0.03012518 0.0046900995 0.0019624836 0.00044509248 8.684327e-06 2.6270523e-05 9.318875e-05
0.00038165212 0.0018578736 0.0046984507 0.006474485 0.001776539 0.0015793558 0.0007014155 0.00016922115
4.735329e-06 1.2505802e-05 4.8877588e-05 0.00018245258 0.0012910089 0.002918497 0.004729011 0.006921224
0.000503745 0.0006330896 7.443513e-05 2.6244597e-05 9.423342e-06 3.6338934e-05 8.8607485e-05 0.000652982
0.0017372579 0.0012606428 0.006663659 3.7606747e-05 0.0003677059 9.151472e-05 3.1431775e-06 1.743683e-06
1.2778931e-05 8.852511e-05 0.00010423785 0.0001065014 0.0007777282 0.00079448556 0.0 0.0
0.0 0.0 0.0 0.0 0.0 0.0 0.0 0.0
0.0 0.0019931612 0.0016923993 0.0008443886 3.35479e-05 3.9884977e-05 0.0001668767 0.00063462724
0.0041810414 0.008012615 0.018050807 0.033090867 0.0029013217 0.0011950493 0.00014081721 6.06219e-06
1.9143146e-05 8.492064e-05 0.00011737871 0.0007924812 0.0060263523 0.0024982577 0.009352437 0.0025078726
0.00092680886 0.00019306864 1.796406e-05 1.5505302e-05 6.8633126e-05 0.00027982553 0.0020447334 0.0044275937
0.0032123441 0.006512251 0.011953163 0.002827731 0.0017380394 0.00020366735 0.00012228219 0.0004554387
0.001082278 0.0075232913 0.025134018 0.014449096 0.00032791283 0.0054913494 0.003853316 0.0012000992

exp_avg f4 [105]
00000000: 9c3f b4bb b76e 6ebb f449 96bb 5d18 5fbc
00000010: 6053 a6bc d124 16bc 756b 11bb 61a7 113c
00000020: 4188 46ba 2cbd 3c3b b3dd bdbb 887b 05bc
00000030: c734 023d 0321 ee3b c0a2 683c 4ac0 c53b
00000040: 8d6f f43a 5111 3cb7 0000 0000 d835 213c
00000050: a10a 03bb e479 673c 99af 90ba 2180 5e3c
00000060: ed74 25b9 79d6 a3bb f7b5 10ba 3299 313c
00000070: 76a2 5d3b 0000 0000 23d5 51bb 95de eb3b
00000080: ff18 cd3c c70d 35bb 42b0 3eba 4c60 12bb
00000090: ee32 e53a b2c1 7bbc 6976 9f3b e1a1 e93b
000000a0: 9514 64bc 56e4 ae3b 3b31 0c38 5659 a5bb
000000b0: f0d6 833b 70f0 973b 4c56 fa3b 8179 2abc
000000c0: 8022 89bb 13c7 9dbc 9f2f 523c 2d62 4cbc
000000d0: 9ef3 053c ee0b 25ba 0bd4 4ebb c7a2 813b
000000e0: d482 6a3c 24bc 753b 8e45 203c 57f2 db3c
000000f0: c12f 973b 0000 0000 0000 0000 fdd4 9103
00000100: e6cd 7a3b 64c7 7dbb 453e 91bc 97fd 863c
00000110: 93b8 66b9 1c90 6abb 6067 a13c 577d 523a
00000120: bcf3 e23b 82ee c03c 8c84 513b 161e c13a
00000130: b15f 61ba 0742 d23b 500a 1bbb 0a26 7b3b
00000140: bb72 dbbc 0d5c f8bb 2579 3d3c d6a6 373c
00000150: 7cf6 58ba 0000 0000 4356 1b3c 6561 a33b
00000160: 0000 0000 c17a 073c 621b c8b8 9dd3 043c
00000170: 0000 0000 b230 d63b d549 e7bc c35c 7dbc
00000180: 630a 42bb 58a3 9d3a 312f 253b 1759 b7ba
00000190: b345 333c 2e0b 6dbb e0d2 233b 5a14 c3bc
000001a0: 172f b7bb
-0.005500747 -0.003638191 -0.0045864526 -0.0136166485 -0.020303428 -0.009164051 -0.0022189294 0.008890004
-0.0007573404 0.0028799279 -0.005794251 -0.008147128 0.031788614 0.007267119 0.014198959 0.0060348855
0.0018648967 -1.1209705e-05 0.0 0.0098394975 -0.001999535 0.014128182 -0.001103866 0.013580353
-0.00015779184 -0.0049999324 -0.0005520279 0.010839747 0.0033818758 0.0 -0.0032017909 0.0071981647
0.025036333 -0.002762662 -0.0007274189 -0.002233523 0.0017486492 -0.015366005 0.0048664105 0.007129893
-0.013920923 0.0053372784 3.342445e-05 -0.00504605 0.0040234253 0.0046368167 0.007639682 -0.010404945
-0.004185021 -0.019259965 0.012828737 -0.012474579 0.008175759 -0.0006296028 -0.0031559493 0.003956172
0.014313418 0.0037496174 0.009782208 0.026848955 0.004613847 0.0 0.0 8.571234e-37
0.0038269698 -0.0038723582 -0.017729888 0.016478343 -0.00022003269 -0.0035791462 0.019702613 0.00080295413
0.006926028 0.02355123 0.0031969873 0.0014733698 -0.0008597328 0.0064165625 -0.002365727 0.0038322234
-0.026788106 -0.0075793327 0.011564528 0.01120921 -0.0008276475 0.0 0.009481016 0.0049859756
0.0 0.008269013 -9.5418436e-05 0.008107093 0.0 0.0065365667 -0.028233448 -0.015464011
-0.0029608242 0.001202683 0.002520513 -0.0013988343 0.010941911 -0.0036169994 0.0024997517 -0.023813415
-0.0055903303

exp_avg_sq f4 [105]
00000000: cf57 df3a 24b0 b539 e6c2 e23a 5a93 203b
00000010: 0ab3 053b 2ec0 413b d15f 7039 4a0d 8839
00000020: 81ac a13a 165b a939 ba7e 8a3a edf4 173b
00000030: 8e43 b23a adb5 b13a 7687 133a 6e9b b039
00000040: 5b51 5739 dd59 c138 0000 0000 0dd3 9d3a
00000050: cfa6 e039 da0f d339 557f 073b b949 203b
00000060: 4ce5 dd3b 0922 523b 26d4 fb38 8cc2 1b3a
00000070: 7a3e df3a 0000 0000 bf12 d83a 8635 d539
00000080: b89a 6d3a a6c1 553a a34a 143b 491a ab3a
00000090: ca4f 383a 977a dc3a a9f2 fc39 aa06 3639
000000a0: 2017 c03a 594c b339 73aa 8039 32ae 043a
000000b0: 5fe2 743a 561f 8839 3a95 333a e48e 3139
000000c0: e433 b43a 596b f63a e37d 8c3a 709b a33a
000000d0: ff7d b839 39bb 863a d28f 3d3a 1de1 6a3a
000000e0: 596c 813a e1c8 8639 7094 1a3a bc3a e03b
000000f0: 1f9e 343a 0000 0000 0000 0000 273c 9336
00000100: d44a d239 9ca6 cf39 dd2d 673b 4994 883a
00000110: 391e 993a c4e1 733a a8d7 eb39 085f d739
00000120: 9fb8 f53a 409d f63a da60 bd3a a67b a339
00000130: df86 0c3a ca09 023b 7462 7a3a b2fd 2f3a
00000140: b8b6 113b 3484 3739 521c c539 2034 993a
00000150: 0bfc 3b3a 0000 0000 ceaf 833a a306 223a
00000160: 0000 0000 74a0 c53a 3393 eb38 5990 5b39
00000170: 0000 0000 ef03 cf39 6c2d 5e3b 48cf 193b
00000180: 6e84 2b3b a634 0b3a 2c55 a53a 9f13 493b
00000190: 6069 f239 46ea bc3a 72e9 8539 fdeb 843b
000001a0: 24bc 7a3a
0.0017039719 0.00034654245 0.0017300516 0.002450189 0.0020400905 0.002956401 0.00022923878 0.00025949843
0.0012334735 0.00032302056 0.0010566332 0.0023186759 0.0013600455 0.0013558172 0.000562779 0.0003368514
0.00020534305 9.2196955e-05 0.0 0.0012041047 0.00042848891 0.00040256866 0.002067526 0.0024458005
0.006771719 0.0032063744 0.000120081284 0.00059417705 0.0017032169 0.0 0.0016485079 0.00040666404
0.00090638874 0.0008154161 0.0022627495 0.0013054098 0.00070309325 0.0016821203 0.0004824598 0.00017359355
0.0014655329 0.00034198424 0.00024541057 0.00050613575 0.0009341593 0.00025963288 0.00068505446 0.00016933266
0.0013748375 0.0018800303 0.001071867 0.0012482237 0.0003518909 0.0010279185 0.0007231209 0.0008959936
0.0009874209 0.00025708138 0.00058967527 0.006842939 0.0006890017 0.0 0.0 4.387944e-06
0.00040110073 0.0003960625 0.003527514 0.0010420169 0.0011681981 0.0009303356 0.0004498337 0.000410788
0.0018747038 0.0018815175 0.001444842 0.00031181908 0.00053606735 0.001984226 0.0009551414 0.0006713524
0.0022234153 0.0001750149 0.00037595868 0.0011688508 0.0007171041 0.0 0.0010046901 0.00061807985
0.0 0.0015077726 0.00011233091 0.00020939241 0.0 0.00039485047 0.0033901585 0.0023469497
0.0026171464 0.00053102744 0.0012613884 0.003068186 0.00046236347 0.0014413081 0.00025541667 0.0040564523
0.00095647783

exp_avg f4 [64, 105]
00000000: 02da 4fb8 1992 8eb9 e64e 33b4 be82 2fba
00000010: 8aac c2b8 a3e3 5cba 69d6 d43b 1837 503b
00000020: 88d3 e9b7 8d6e dfbb fb1c 3139 40e5 1cba
00000030: 790e 623a 1a56 38bb 29a3 54ba 0d39 9bbb
00000040: ae87 93ba 043e 03b0 0000 0000 347f b1ba
00000050: a399 9b3b e3ae 94bb 067c 5e3b 6a8a ddb9
00000060: b343 31b3 2bcf c7b9 86a2 713b c743 98b9
00000070: 714b 41b5 0000 0000 e3f6 4eba 9778 2bba
00000080: ac99 913a f4a4 19bb e95e d837 c9de 88b9
00000090: 93c6 afba a877 9bb9 45cb 2c3b 9d20 753a
000000a0: eb43 36ba 1a7d 9f3a 2a2a c839 ddfd 00bb
000000b0: bfe8 faba 6cf6 d1ba 7fe0 77ba c6f3 3dbb
000000c0: dedf 0f38 e371 11ba 614d 7b3b b588 ee3b
000000d0: 0fe8 6cbb 5af8 2239 45f0 aeb9 9927 90b8
000000e0: a9a8 b1ba 26f5 82b8 db19 d23b 7be9 b038
000000f0: 5dc9 1d3b 0000 0000 0000 0000 0400 0080
00000100: d636 7639 b87e 22bb 08db 0bba aeba 5439
00000110: 7ab8 c3ba 970e a1b9 b56d 323b 73fd 523c
00000120: cf32 ebb9 4e4f 103b 3e60 f4ba 47f9 af3a
00000130: 9d91 c53b 4759 4bba c7f6 1db7 593b 9d39
00000140: 9c2f 16bb 075b aeba a57a e4ba 45de a03b
00000150: fa40 0fba 0000 0000 ef08 5839 1722 a5ba
00000160: 0000 0000 836f 973a d412 f1b5 8440 1eba
00000170: 0000 0000 052b 8b3a 9740 96bb 5d58 0fb7
00000180: 4cc2 ef37 b049 5cb9 89b5 d8b7 f4a0 27b7
00000190: 9eb0 a0bb 157a 4bb9 6d37 52bb 3152 b6b9
000001a0: d23d 61b9 8cd4 dbb7 07e4 34ba 1fc4 0db9
000001b0: 3658 c7ba 0807 ebb9 268a e837 5644 9bbb
000001c0: 5f1e d5ba d860 30b7 b52f 7cbb dc6b 35ba
000001d0: 56e0 8bb9 bc0c e1b9 3551 adbb 0b77 68ba
000001e0: 6356 2eba 8410 53b7 09b3 69b2 0000 0000
000001f0: 9125 cdb9 3e3e e3bb bb9c fcbb 9216 01bb
00000200: b8b9 a2b9 a293 5037 0b84 cdb9 775d 10ba
00000210: 1712 57bb 4391 84b9 0000 0000 9562 32b7
00000220: 7a4e a336 bb03 1aba 0892 69bb fca3 23b9
00000230: 43bf 34b9 9bbf d7ba 5334 95b8 9061 3fbb
00000240: 7962 00bb 8b1a 14bb 98ed 65ba b3c5 b2ba
00000250: dad5 aeba 1849 00b9 19e9 cfb6 8728 18b9
00000260: a4ca 35bb 904d a4b8 b1d6 fdb9 23a1 dbbb
00000270: 3d02 ccb7 ca8b 74bb 7655 ceb5 7274 cab9
00000280: dc79 abb9 4f45 3ebb 0114 fdb9 250f a5bb
00000290: ffa8 3cb8 0a9f fcb9 0000 0000 0000 0000
000002a0: 0400 0080 f92e c0bb afe0 8bbb 6b70 02bb
000002b0: a4f7 ccba ee79 cfba 0333 19ba e8f6 f2ba
000002c0: e129 f5ba 6679 80b9 f372 3fb9 c671 d8ba
000002d0: bc5b 9dba 33ad afba a545 8eb9 45a0 88b9
000002e0: 2d89 83ba 2139 d3ba 379d 8dba dc87 e5ba
000002f0: 2dc6 14bb ea4b 2bb9 0000 0000 cc49 12bb
00000300: 6ba6 38ba 0000 0000 5857 02bb 0187 9db5
00000310: 7feb 1bba 0000 0000 5590 c2bb e29a a6bb
00000320: ccab 66ba 8e53 6833 d142 cc36 fd68 97b9
00000330: 6a80 a1b9 4565 3fb8 70b0 c0b8 01ad ebba
00000340: 8b98 afba 0af5 28b8 7c60 e2b7 525b 11ba
00000350: 90f8 8fb8 a789 89ba 6505 31b9 7fc1 9ab9
00000360: 3204 f0ba 1e5c 6cb9 bd2b 01b4 7f5c 38bb
00000370: e711 2b39 2f0b f8b9 621b b1b9 616e 6fbb
00000380: c154 01ba 42bc 45bb 9c13 75ba 3fcf cdb1
00000390: 0000 0000 3165 69bb 09bc 74bb ef05 8abb
000003a0: 520e 0cba cc0d edb9 33f0 1937 fd32 57ba
000003b0: 3320 62b9 4663 baba 85b3 eab9 0000 0000
000003c0: f988 2cba 1e2c 04bb 169c b739 2587 27bb
000003d0: 3df7 e0b7 0f4f fbba 3b62 7bba 6b93 30ba
000003e0: 0160 dbba c8d2 81ba 38ce a9ba a6bc 2bba
000003f0: 564e d9b8 5182 6bba 9a98 ff38 16ac 4eba
-4.955568e-05 -0.00027193202 -1.6699377e-07 -0.00066952023 -9.282779e-05 -0.00084262545 0.0064952862 0.003177112
-2.7874266e-05 -0.0068185986 0.00016890831 -0.00059850886 0.00086233724 -0.0028127492 -0.0008111471 -0.0047370256
-0.0011255646 -4.774565e-10 0.0 -0.0013541938 0.0047485395 -0.0045374497 0.0033948435 -0.0004225553
-4.1272596e-08 -0.0003811059 0.0036870553 -0.00029042197 -7.2007884e-07 0.0 -0.00078950654 -0.00065411016
0.001110842 -0.0023444267 2.5793403e-05 -0.0002610593 -0.001341062 -0.00029653055 0.0026366275 0.0009350868
-0.00069528696 0.001216802 0.00038178387 -0.0019682564 -0.001914285 -0.0016018874 -0.0009455755 -0.0028984412
3.430235e-05 -0.00055482815 0.0038345682 0.0072794803 -0.003614906 0.00015542042 -0.0003336688 -6.873831e-05
-0.0013554293 -6.2445455e-05 0.0064117736 8.435823e-05 0.002407632 0.0 0.0 -6e-45
0.00023480816 -0.0024794769 -0.00053350674 0.00020287439 -0.0014932298 -0.00030719183 0.0027226035 0.01287781
-0.00044860548 0.0022019926 -0.0018644405 0.0013425731 0.0060293213 -0.0007757139 -9.415387e-06 0.0002998959
-0.002291656 -0.0013302275 -0.001743157 0.004909309 -0.00054646994 0.0 0.00020602693 -0.001259866
0.0 0.0011553619 -1.7961379e-06 -0.0006036835 0.0 0.0010617679 -0.0045853364 -8.544038e-06
2.8581497e-05 -0.00021008286 -2.583374e-05 -9.9914505e-06 -0.004903867 -0.00019405068 -0.0032076493 -0.00034774982
-0.00021480702 -2.620581e-05 -0.0006900434 -0.00013519869 -0.0015208784 -0.00044827932 2.7720886e-05 -0.004738371
-0.0016259662 -1.0512966e-05 -0.0038480584 -0.00069206744 -0.0002667929 -0.00042924832 -0.0052892216 -0.00088678364
-0.0006650446 -1.2580425e-05 -1.3603093e-08 0.0 -0.00039128636 -0.00693491 -0.0077091134 -0.001969729
-0.0003103742 1.243214e-05 -0.00039199027 -0.00055070914 -0.003281718 -0.0002528523 0.0 -1.063258e-05
4.8669144e-06 -0.00058751897 -0.003564002 -0.0001560598 -0.00017237388 -0.0016460301 -7.11462e-05 -0.002920244
-0.0019589944 -0.0022598829 -0.0008771061 -0.0013639241 -0.0013338879 -0.00012234261 -6.196217e-06 -0.00014510947
-0.0027739191 -7.8345765e-05 -0.00048415878 -0.0067025586 -2.4319737e-05 -0.0037314766 -1.5373068e-06 -0.000386152
-0.00032706454 -0.002903301 -0.00048270824 -0.0050372058 -4.4980083e-05 -0.0004818368 0.0 0.0
-6e-45 -0.0058649746 -0.0042687277 -0.0019903432 -0.0015637768 -0.0015829185 -0.0005844088 -0.0018536719
-0.0018704497 -0.0002450451 -0.00018258001 -0.0016513399 -0.0012005488 -0.0013403058 -0.0002713624 -0.00026059352
-0.0010035388 -0.0016115048 -0.00108043 -0.0017511803 -0.002270113 -0.00016336111 0.0 -0.0022321818
-0.0007043841 0.0 -0.0019888487 -1.1736703e-06 -0.00059478724 0.0 -0.005937616 -0.0050843814
-0.00087994034 5.4092702e-08 6.087452e-06 -0.00028879187 -0.0003080399 -4.5632263e-05 -9.1881375e-05 -0.0017980636
-0.0013396902 -4.028253e-05 -2.6986228e-05 -0.0005544919 -6.86507e-05 -0.0010493294 -0.00016882045 -0.00029517335
-0.0018311797 -0.0002254103 -1.2029973e-07 -0.0028131304 0.000163145 -0.00047310579 -0.00033780473 -0.0036534297
-0.0004933589 -0.0030172025 -0.00093489303 -5.9898464e-09 0.0 -0.0035613293 -0.0037343523 -0.004212133
-0.000534271 -0.00045214442 9.175436e-06 -0.0008209197 -0.00021565035 -0.001422026 -0.0004476571 0.0
-0.000658169 -0.0020167897 0.00035020773 -0.002556273 -2.681801e-05 -0.0019173342 -0.00095895276 -0.0006735834
-0.0016736985 -0.0009904737 -0.0012955135 -0.0006551243 -0.000103619575 -0.0008983957 0.00012187772 -0.0007883919
