save/ASGDTL2.pt (torch_old, 100926 bytes, 18 tensors)

fc1.weight f4 [105, 11]
00000000: 21e7 16be 16ed 0bbe 51c1 0dbd 3a2c 563e
00000010: 4048 1fbf 6c95 963e 57c7 7f3d dfa3 99be
00000020: d583 723d 0ca5 c83c 358e 16bb 1767 9fbe
00000030: 3f08 e63d 9846 9a3e 200d 2b3e 4b0b bc3c
00000040: 3ef4 113e c9e6 46be 6994 403e ba18 b7bb
00000050: c8de b8bd c6c3 febd 33ec a8be 6a42 263e
00000060: c4d4 99bc 01e8 5a3f 4833 3eba 59c0 1d3e
00000070: 3769 0bbd dcc7 a73c 0016 94bc 3416 dabb
00000080: fb2d 843e fc86 eb3d 7dfe a7bd 8b14 0c3f
00000090: 11c2 9e3e 7459 273e ee21 49be d8d2 ad3d
000000a0: 9ae7 053e 3678 32be a574 30bd a445 38bd
000000b0: ea5e 683c 090f 23bd b82d 2a3e a1df 383e
000000c0: b582 1bbe 8cda 0b3e 1229 873d 4258 643c
000000d0: 9883 f8bd ff0d 493e 5f3f a23b 5256 ef3d
000000e0: 1d29 dd3d 7edc a13d c125 be3e 9af6 09be
000000f0: cd5a 15bf 74a7 333c 4007 33bf fea7 1dbe
00000100: afb9 f83d 4aa7 883c f689 78bd debc 3cbe
00000110: 52a0 d6bd 9941 0c3f ba44 e2be 85a8 47be
00000120: 8940 ae3e 9647 b2bc 0ca9 3cbe cd8f 70be
00000130: bd90 f33d f538 5bbd 4f72 423e d0ab 9abe
00000140: 9fd6 83bc 62c7 05bf 4bae c53e a577 483c
00000150: 13ac d33d 9d6e 7dbc a90f a33d 6e84 77be
00000160: 1a07 81be 2ae4 86be be18 3abe 740b 59bd
00000170: db81 97be f0fa 1c3d e07d 50bd 1fa8 92be
00000180: c07a 7f3c e8b6 c03d a3b9 19be 50ea 15bd
00000190: 7c5d d83d 1ed0 05be 80f5 85bc 7c2e 643e
000001a0: 9550 90be f0db fbbc e0a7 3a3c f00a 52bd
000001b0: fe7e 30be 905c 3cbd bd57 4fbe e7e0 8abd
000001c0: dbfb c73d 4063 0b3f 9f60 47be 5bc6 b9be
000001d0: 011a 783e e5c1 85bd f243 313d 0d5f 623d
000001e0: 1789 2dbb f1d6 30bb 93fb 643c 8994 18bd
000001f0: 9c04 38be 4b4d bf3d 529e 36be 8651 d2bd
00000200: 562c 983c 2905 44bd aa8a debe 7f36 843e
00000210: b0b4 71be 76de 0a3e 888c 403d 4032 d8bb
00000220: 341d 8a3d 182b 7c3d 768e 7abe b812 173d
00000230: 5d61 4abe 4d03 79be ba38 87be 41a5 df3e
00000240: 6d40 fc3b f79f c9be 36fc 50be 0be8 f9be
00000250: a3e7 513e 718f 873d 42cf 0bbe f40b e9bd
00000260: 2d7a 71bd 3d77 07bd 3437 64be c614 833d
00000270: 2d79 003d 4afa a0be 47f5 21be 5144 09be
00000280: b3a6 503d e922 8c3d 6655 42be d9b0 3a3e
00000290: 9a7b 6e3e 73b3 00be 145d ae3d e105 2a3e
000002a0: 7bad 543f 9d32 bb3e 18c3 90be aed9 973e
000002b0: 48c0 efbd 0daf 21be c6d7 a03d 28c3 1f3e
000002c0: ebe7 ebbd efde 8f3d 5837 7a3d f739 e33e
000002d0: 1e47 3c3e 436d e1be c0c4 b33d e54e fd3d
000002e0: eba6 aebd e213 a7bd 884a 08bb 8872 b5be
000002f0: 2f01 b6be bf64 f5bc 53ae 0abd 3f7b 3e3e
00000300: 6dff 9a3d 0295 073d cd2d bebc 4adc 8fbb
00000310: fc61 a33e f045 9c39 e1e4 f73d cc09 783d
00000320: c29f b73e 7a68 18bd 20d6 d83d b2e1 373d
00000330: 76b0 5e3c 91d2 0cbd 265d 20bd 3daa 13bc
00000340: ef66 74be aaf3 30be 8113 08be 7452 df3e
00000350: 32b2 d13d 1359 ac3e 312a 8abe 7c1d b2bd
00000360: 0124 273e b56f 0e3e 5962 40be 307f 3e3b
00000370: 23a4 513e d511 673e ce92 f5bc ff41 ee3e
00000380: 84c0 c43e d5d7 08bf 8a72 9f3d 2e37 683b
00000390: ca99 36bd 5e15 12be b693 91bd 81af 873d
000003a0: 47c9 ad3c c106 9e3e 4e22 8f3d b824 003f
000003b0: faa0 4cbf 81e8 433d 9c3d aebb 7f69 a7bd
000003c0: 2eca e9bc b276 6dbc 8840 323e 6b09 42be
000003d0: 071e 8dbe 06b9 aa3e 7de5 9abd ddcc c43e
000003e0: 0d47 8b3e 72dc bf3b 88a0 593d eac8 91be
000003f0: a2a5 b4bc 9fba 81be 1718 343e 00f7 ec3e
-0.14736606 -0.1366466 -0.03460819 0.20915309 -0.6221962 0.29410875 0.062445965 -0.30007836
0.059207756 0.024492763 -0.0022972946 -0.3113334 0.112320416 0.30131984 0.16704226 0.022954604
0.14253327 -0.19423975 0.18806614 -0.0055876644 -0.09026867 -0.124396846 -0.32992706 0.16236272
-0.018778212 0.8551026 -0.00072555663 0.15405406 -0.034035888 0.020481043 -0.018076897 -0.006655479
0.2581633 0.115003556 -0.08202837 0.54718846 0.31007436 0.16342717 -0.1964185 0.08487481
0.1307663 -0.1742867 -0.04307999 -0.04498829 0.0141827855 -0.03980926 0.16619003 0.18054058
-0.1518658 0.13657588 0.065996304 0.013937058 -0.121344745 0.19634245 0.004951402 0.11686386
0.10798857 0.07903384 0.3713818 -0.13472977 -0.58341676 0.010965217 -0.6993294 -0.15396115
0.12144791 0.016681332 -0.060678445 -0.18431422 -0.104797974 0.54787594 -0.4419306 -0.19497879
0.3403361 -0.02176265 -0.18423861 -0.23492356 0.11892841 -0.053521115 0.18988918 -0.30209208
-0.01609355 -0.5225736 0.38609537 0.012235557 0.10335555 -0.015468267 0.07961971 -0.24171612
-0.2520073 -0.2634595 -0.18173501 -0.05298944 -0.2959126 0.03832525 -0.050901294 -0.2864389
0.015593231 0.094098866 -0.15012221 -0.03660041 0.10564706 -0.13067672 -0.016352415 0.22283357
-0.2818648 -0.030744523 0.011392564 -0.051279962 -0.17235944 -0.045986712 -0.20248313 -0.06781178
0.097648345 0.5444832 -0.19470452 -0.36284146 0.2422867 -0.06531123 0.04327769 0.05526643
-0.0026479417 -0.0026983584 0.013975996 -0.03725103 -0.17970508 0.09340914 -0.17833832 -0.102694556
0.018575829 -0.047856484 -0.43465167 0.25822827 -0.23604083 0.13561425 0.04700902 -0.006597787
0.06743851 0.061564535 -0.24468407 0.036883086 -0.19763704 -0.24317665 -0.26410466 0.43680766
0.00769811 -0.39379856 -0.20408711 -0.48809847 0.20498519 0.06619156 -0.13653281 -0.11379233
-0.058954407 -0.0330727 -0.22286683 0.064004466 0.031365562 -0.31440955 -0.15816222 -0.13404967
0.050940227 0.06842596 -0.1897789 0.18231525 0.23289338 -0.12568454 0.08513847 0.16603805
0.8307721 0.36562052 -0.28273845 0.29658264 -0.117065966 -0.15789433 0.078536555 0.1560179
-0.11518844 0.07024943 0.061087936 0.4438016 0.18386504 -0.44028673 0.087777615 0.123685636
-0.08527931 -0.08158089 -0.0020796377 -0.35438943 -0.35547778 -0.029955266 -0.033857655 0.18601702
0.0756825 0.03310109 -0.023215199 -0.004390274 0.31910694 0.00029806746 0.12104202 0.060556218
0.35864073 -0.03720901 0.10587716 0.044892974 0.013591876 -0.0343805 -0.039151333 -0.009012756
-0.23867391 -0.1728045 -0.1328869 0.43617594 0.10239066 0.33661708 -0.26985314 -0.0869703
0.16322328 0.139098 -0.18787517 0.002906751 0.2047277 0.22565396 -0.029977228 0.46534726
0.38428128 -0.53454334 0.077855185 0.003543328 -0.04458026 -0.14265963 -0.07108252 0.066252716
0.02121414 0.30864528 0.06988965 0.5005603 -0.7993313 0.047829155 -0.005317403 -0.08174419
-0.02853879 -0.014493631 0.17407429 -0.18948905 -0.27561972 0.33344287 -0.07563303 0.38437548
0.27202645 0.0058551366 0.05313161 -0.28473598 -0.022051636 -0.25337693 0.17587315 0.46282196

fc1.bias f4 [105]
00000000: 5078 d73e 8140 fc3e 68c2 b4be 0538 b03d
00000010: 7fd2 a6bd e26d dfbd 237f 9d3d ff54 bfbd
00000020: 06a8 3cbe fe58 89be 45c7 6d3e 082a 33bd
00000030: 98cf 61be 2b87 8bbd cb80 f6be e753 72bd
00000040: f5c6 cb3e 13b3 a7be be2d 213d fd69 6bbd
00000050: 98dc fbbd 148c 433d b10d 203e ee5b 583d
00000060: 7a3b 82bc 6fdc 183f 8001 99be 252e 9a3d
00000070: 5084 4cbe b29f be3d 8ac0 18be 3d8f 433e
00000080: 1a6a ba3e d0ef fcbd c749 f4be 1e80 f6bc
00000090: 1eec 123e 21d0 b7bb 6652 83be 5772 d83c
000000a0: 6901 a23e 7668 453d babb 8c3e a2de e9be
000000b0: 64c0 913e e38c 58be 7a05 da3e e483 39be
000000c0: c06f ad3e 4a49 b13e de58 cb3e d048 12be
000000d0: 33a1 5e3d bdc8 4ebe b317 0fbf 17c5 82be
000000e0: 28cb 69bd c9a5 07be 01f8 5fbe 4f76 b33e
000000f0: c39f cdbe 80d1 40bb 3d1e 47bf 470a 95be
00000100: 37e0 963d d752 ce3e eb6e 65bd a49d 9b3d
00000110: 53dc 79bd 74bc cebe af89 003d 1c01 3bbe
00000120: 1194 eebc 1329 f2bd 10b3 023f 3c62 e53e
00000130: 632b 8e3e 562a 96be a8e4 023f d3b5 24bf
00000140: 2a3c 973e 5189 5f3e ed60 db3e 2591 cb3e
00000150: 9535 1dbe e963 fcbe e68b 3e3d a7f8 8fbe
00000160: 5ae7 983e af45 32bf 880d 943e 2970 a7be
00000170: 3716 b1be 7420 d83c c088 1fbf abcb bfbe
00000180: 1d2f c4bc 37ab fcbd d5d0 6cbe 1934 51bd
00000190: ff64 eb3d c43c 143e d5aa 5e3e e26c debe
000001a0: 5baf 543e
0.4208398 0.49267963 -0.3530457 0.08604435 -0.08145618 -0.1090963 0.07690265 -0.093423836
-0.18423471 -0.26825708 0.23220547 -0.043741256 -0.22051847 -0.068128906 -0.48145136 -0.059162047
0.3980023 -0.3275381 0.039350264 -0.057474125 -0.12297934 0.04774101 0.15630223 0.052822046
-0.015897501 0.59711355 -0.29883957 0.075283326 -0.19972348 0.09307803 -0.14917198 0.1909761
0.36409074 -0.12350428 -0.47712538 -0.030090388 0.14347884 -0.0056095277 -0.25648803 0.026421709
0.316417 0.048195325 0.27486974 -0.45677668 0.28467095 -0.21147494 0.42582303 -0.18116719
0.3387432 0.34626228 0.39716238 -0.14285588 0.05435295 -0.20193763 -0.5589554 -0.25540993
-0.05707851 -0.13246836 -0.2187195 0.350512 -0.4016095 -0.0029421747 -0.77780515 -0.29109403
0.07366984 0.40297577 -0.056013983 0.07598427 -0.061001133 -0.40378153 0.031381305 -0.18262142
-0.029123338 -0.118242405 0.5105448 0.4480151 0.27767476 -0.29329175 0.5113015 -0.6433994
0.2953809 0.21829726 0.42847386 0.39759174 -0.15352471 -0.49294975 0.046520136 -0.28119394
0.29864007 -0.6963758 0.28916574 -0.3270276 -0.3458726 0.026382662 -0.6231804 -0.37460074
-0.023948247 -0.12337344 -0.23126538 -0.051075075 0.11493873 0.14476305 0.21744855 -0.43442446
0.20770018

fc2.weight f4 [64, 105]
00000000: b886 32bd d1bc e9be 6b45 5bbd 6c09 27bd
00000010: 9df2 ecbc 5c4f 4abe 6d5b 19bf ab58 e8bd
00000020: a781 b13d cd15 be3d 0420 8ebd 02a2 cebd
00000030: c2ff 4e3d 545f e03c 3fc0 a3bc 70f6 eb3c
00000040: 1363 27be 4fa4 823e aeee 21bf ceb9 413e
00000050: 3acb b3be 4183 40be 2119 993d fe03 51bd
00000060: 3904 db3c 1c54 19bf f099 a1bd d96c 77bd
00000070: 0dbb 8e3d a738 0dbe 48e1 c63b 9a8d 66be
00000080: c4ae aa3c 28a2 5a3d 7a19 13be bf88 7f3b
00000090: 7e36 1a3d a1eb aebe 1da7 9c3c 45a0 933c
000000a0: 9aba 7cbd e212 1dbe cc40 14be c1ca c33d
000000b0: d31e 2ebd 8c3e 203d ee0e 0fbf 53b8 823d
000000c0: ebc4 a2be 00b3 d53d 397b 8d3d cfce b2be
000000d0: 7496 72bf fc3c 733c 00d1 003e 0d1c 573d
000000e0: ebdc 8f3c 8cf0 e33d 7888 ad3d a8e5 0f3d
000000f0: b937 4e3b 1aa4 273d b4d5 563d cbb3 a038
00000100: accb 863d f407 7abe bfa8 2b3e 5e42 14be
00000110: 49ef 6ebe 305e 1e3d 6eb9 0b3e c9f2 dbbd
00000120: 1051 c3be a365 cf3d d31e fabe 6f43 8dbe
00000130: 2313 80be 18ca e13d dd21 843c fccb 95bd
00000140: 9491 5bbe ac07 bcbe a920 e3bd 3ab5 c5be
00000150: 6eb3 0ebe d826 dbbb bc7b 863d acb1 473d
00000160: 406c 80be 9b29 143e f29b 4a3d 8239 683d
00000170: ed4a d93c 1b69 66be f545 7d3d da16 743d
00000180: 4a44 883c 40bd 00bf 46c4 1f3e 118f aa3d
00000190: a0a6 20bf 16e4 2ebe 73e2 963c 8b7a f93c
000001a0: a056 0d3d a80f 293e 91dd a2be e0db 943d
000001b0: 55a1 2cbe b15f 933c 3b17 a6be c7e8 1abf
000001c0: 9084 9f3d 00a0 d739 2fb0 a93d b111 a63d
000001d0: 491d c7be d27a a0bd 59da 3dbd aa06 893d
000001e0: ad4e 3b3d efdc abbe 927d 373d 7812 bbbe
000001f0: ecab 14bf ea1c 18bf 500d 7bbe 3c04 87be
00000200: 6375 efbe 3cff 833d d149 07bf 4c61 da3c
00000210: c594 d2bc edf5 64bd 0daf 00be c4ff aabb
00000220: a8d0 15bf b5af 103d 0182 91bc 0ba6 ad3c
00000230: 4a58 1ebb f377 a83d fd0d cebd df41 cdbe
00000240: a6e8 7fbb 708a 903d e672 2d3d 7b2f c03d
00000250: a978 10bd 50c2 f7be 6a29 bb3c fa38 a9bd
00000260: 70a0 a7bc a435 62bd 1055 7dbe 1594 1bbd
00000270: adf6 b2be ae36 8cbe 04dc 253b a7a4 fb3c
00000280: 25ac df3d b383 3a3d f92a 9c3d 95f1 f9bc
00000290: 4cd2 ca3d e444 fd3d f7b4 963d 4124 a03d
000002a0: a53a 673d 4773 943d 2a3c 22be 3c23 09bf
000002b0: b5b8 a1be 8912 92be 70ea 3b3d 16f4 f63d
000002c0: f499 873c de48 243d 9599 d9be 0131 2cbe
000002d0: cae8 36bc 428f c3be 142f fd3c 91d5 f9be
000002e0: 1016 893d 30bd eabd 424e a9be 8a5d abbd
000002f0: d8d9 c6be 7fd1 d3be e626 243e 1dff afbe
00000300: c198 9c3c e132 29be f932 48bd 2b8f d6be
00000310: c90e 2b3e e7ec 193d 4da5 90be b871 023e
00000320: ab1e 46be c1fc d63b ff0a 66be 4829 2b3c
00000330: b79d 4c3d 6cbb 0ebf 0bbe 21be e254 8abd
00000340: b226 af3b 3c4b e6bd 0f12 ac3d 6c5a 6cbd
00000350: 189c fe3c 018b a9bc 459c 413c c694 fa3e
00000360: 5094 d63e e9db eebd a0ea e2bb 0052 ee39
00000370: 06c5 693d 17e5 0b3b 30df c0bb 2d49 d1bd
00000380: d6d5 58bc 9ab8 113d 10af 793d 30ce 22be
00000390: 9986 1c3d 4754 f6bc f72b ed3d 84d6 c03e
000003a0: 725b d7bd 6180 b73c 72b7 423d b6a4 5f3d
000003b0: 895c 183d 0075 0ebe 0076 633a 9e5b e03e
000003c0: 6718 a53d 12fa 803d cf92 7cbd aaa6 a2be
000003d0: aada 98bd 422d f63c b61e 043d f357 273d
000003e0: c6e0 62be 5824 313f 1f1b 563d eb62 a1be
000003f0: 871a c53d 2732 32be b2ec ddbc 50ab 173e
-0.04358551 -0.45651868 -0.053533 -0.04078047 -0.02892428 -0.19756836 -0.5990513 -0.11345037
0.08667307 0.09281502 -0.069397 -0.10089494 0.05053688 0.027389206 -0.019989131 0.028804034
-0.16346388 0.25515983 -0.6325482 0.18918535 -0.35115987 -0.1880007 0.07475496 -0.051029198
0.026735412 -0.59893966 -0.078906894 -0.06040654 0.06969271 -0.13791142 0.006069336 -0.22514954
0.020835288 0.0533773 -0.14365187 0.003899142 0.037649624 -0.34164146 0.019122655 0.018020758
-0.061701395 -0.15339234 -0.14477843 0.095601566 -0.042509865 0.03912215 -0.55882156 0.06382813
-0.3179086 0.10434532 0.069082685 -0.34923407 -0.94760823 0.014846083 0.12579727 0.052516986
0.017561397 0.11129865 0.08473295 0.035131127 0.0031466319 0.040927984 0.052449897 7.6628836e-05
0.06581816 -0.24417096 0.1676359 -0.14478442 -0.23333468 0.038664043 0.13644955 -0.10739667
-0.38147783 0.101268075 -0.48851642 -0.2759051 -0.250146 0.110248744 0.016129429 -0.073142976
-0.21442252 -0.36724603 -0.11090214 -0.38614827 -0.13935634 -0.00668798 0.06566569 0.048753425
-0.25082588 0.14468996 0.049465127 0.05669547 0.026524985 -0.22501032 0.061834294 0.059592105
0.016634125 -0.5028877 0.15602216 0.08328069 -0.6275425 -0.17079195 0.018418526 0.03045394
0.03450644 0.16509879 -0.31809667 0.072685 -0.16858418 0.017989965 -0.32439598 -0.6051144
0.07788956 0.00041127205 0.082855575 0.08108843 -0.3888953 -0.07835926 -0.04635081 0.06690724
0.045729328 -0.33566996 0.044797488 -0.36537528 -0.5807483 -0.5941912 -0.24516797 -0.26370418
-0.46769246 0.064451665 -0.5284701 0.026657723 -0.025705704 -0.055898596 -0.12566777 -0.005218478
-0.5852151 0.035323817 -0.017762186 0.02119734 -0.002416151 0.082260035 -0.10061262 -0.40089318
-0.0039048581 0.07057655 0.042345904 0.09384056 -0.03527132 -0.48390436 0.022846896 -0.082628205
-0.020462245 -0.055226937 -0.2473948 -0.03798302 -0.34953824 -0.27385467 0.0025308141 0.03071816
0.10921506 0.045535754 0.07625384 -0.030510703 0.09903392 0.123666555 0.07358735 0.07819415
0.056452412 0.0724855 -0.15843263 -0.5356939 -0.31586233 -0.28529766 0.045877874 0.120582744
0.016552903 0.040108554 -0.42499986 -0.16815569 -0.0111639 -0.38195235 0.030906238 -0.4879575
0.06693661 -0.11461866 -0.33067518 -0.083674505 -0.38838077 -0.4137077 0.16030464 -0.34374323
0.019115807 -0.16523315 -0.048876736 -0.41906103 0.16704859 0.037579443 -0.28251114 0.12738693
-0.19347636 0.0065608923 -0.22465132 0.010446854 0.049955096 -0.55754733 -0.15795152 -0.06754471
0.005345189 -0.112448186 0.08401882 -0.05770342 0.03108029 -0.020696165 0.011817043 0.4894163
0.41910028 -0.11663038 -0.006924942 0.00045455992 0.05707266 0.0021346265 -0.005885981 -0.10219035
-0.013234576 0.03557644 0.06095797 -0.15898967 0.0382143 -0.030069483 0.11580651 0.37663662
-0.10515489 0.022400083 0.04753823 0.05460044 0.037197623 -0.1391182 0.0008676946 0.43819898
0.08061295 0.06297697 -0.061663445 -0.3176778 -0.07463582 0.030050877 0.03225585 0.04085536
-0.22156057 0.6919608 0.05227196 -0.3152078 0.096242 -0.17401944 -0.027090404 0.14811444

fc2.bias f4 [64]
00000000: 98cb ec3c 1f6c f0bc a50e d03d f0b1 083e
00000010: 7ff9 283e eba8 063e 48fd 1a3e db11 89bd
00000020: 17d0 6a3e e5c2 033e e0b0 53bd 7931 843d
00000030: 3862 123e f3b1 823e 9fb2 6b3e d58a 173e
00000040: 3247 b43d e483 3e3e d4ad 4d3e d754 733e
00000050: 83b4 293e 413f 7a3e 28c0 843e 05bd 783e
00000060: 0177 383e 44b4 b43d 20f1 3c3e 8c6a c93d
00000070: 20d8 6e3e c022 0abe ee15 473e 8a93 9a3d
00000080: fdd2 6e3d 65e5 91bc 4165 733e c2fb af3c
00000090: c9eb 11be 8c2d 5c3e a389 10bd 9225 0bbe
000000a0: 3239 a43d 7637 8c3e e5df 963d de9b 183d
000000b0: 3145 213d 75df 353d 5d16 0bbe eb9c 393e
000000c0: fa48 7b3d c9f1 163e 6feb f5bd 040c 13bd
000000d0: d78b 273e 0b3d 703e dde4 06be 26ef 82bd
000000e0: 6445 fcbd de83 8cbb 7dd1 093e 817d 8ebd
000000f0: eefb 623e 1945 473d 4c72 263e 17a5 813e
0.028905675 -0.029348431 0.10159043 0.13349128 0.16501425 0.13150375 0.15135682 -0.06692859
0.22930942 0.12867315 -0.051682353 0.06454749 0.1429528 0.2552639 0.23017357 0.14799054
0.08802642 0.18605 0.20085841 0.23762833 0.16572766 0.24438192 0.25927854 0.24290855
0.18014146 0.088234454 0.18451357 0.09834775 0.23324633 -0.13489819 0.1944196 0.07547672
0.058306683 -0.01780958 0.23769094 0.021482352 -0.14250101 0.2150175 -0.03528751 -0.1358855
0.08018722 0.27386063 0.07366923 0.03725802 0.039372627 0.04440256 -0.1358275 0.18126266
0.061348893 0.14740671 -0.12007796 -0.03590013 0.16361938 0.23460786 -0.13173242 -0.0639327
-0.12317923 -0.0042881807 0.1345882 -0.06957532 0.22166416 0.04864988 0.16254538 0.25321266

fc3.weight f4 [2, 64]
00000000: 5c6b c5bd d470 61be ae18 643e 547b 14be
00000010: a226 7dbd 5f7e bb3e e989 a1bd b870 90be
00000020: 35a4 d7be 6fe6 3a3d 7f8a 7ebe 010d 543d
00000030: c9b2 c53c a96e e1be cddf 6c3e 48ca f53d
00000040: 7ae8 823e abba dbbe 57bd cabe 95b6 ee3d
00000050: 67c7 aa3e 5060 133e 2ac1 c43d f4fa 6c3d
00000060: a5d2 8f3e 3960 43be 99c9 833e 4ba5 92be
00000070: 0916 17be af49 28bd c398 893d 13ea aabd
00000080: 4f70 abbe 4b3b 4bbe f44c 62be 7edc d2bb
00000090: 5ff8 503e bbfe 193d b5a3 93be aa02 77be
000000a0: c585 56be 0bd7 fa3d 1b75 9cbe 6227 0e3d
000000b0: 4172 5cbe 592d 3a3d 5e5a 803e 2dfb 463d
000000c0: fa23 dc3d d882 7e3e 8d1d 403e e810 52be
000000d0: 5fc3 993d b9e1 ac3d bdd1 b9bd ff6f 633c
000000e0: e707 903c 954f b6be 0d5d ca3d b4e1 c6bc
000000f0: f04a b73d 648a 6fbe 55a1 aa3c b689 fd3c
00000100: 9c57 703e a604 993e 7db1 ecbd 9e51 843e
00000110: 248e 393e 627a a9be fdd2 0fbe 1e2c 883e
00000120: ed76 ec3e 7ed1 1cbe 7b7f 273e f7a5 5bbd
00000130: b059 17be 7ec1 b13e bd5b afbd 9b7a ea3c
00000140: f0d0 81be 5ed9 973e c3c3 ae3e e63c 20be
00000150: 4092 9cbe 7514 a6bd 40f1 6dbe bf32 21bd
00000160: 25b5 87be f584 843e d5cf fbbc e389 0d3e
00000170: 5d85 5b3e e64a adbb 7d88 14be db12 f3bd
00000180: cc02 b33e c746 863e ef1f a13e 0632 2bbe
00000190: 49a1 86be 8223 8abd c366 623e aba2 563e
000001a0: 1aed 4e3e c3f8 62bc 71a5 963e 6c6b 30bd
000001b0: 4b5d a63e 92b0 a8bd 52ff 84bd ccb2 70be
000001c0: cff0 9c3d da60 74be a5c0 77be e3c9 423e
000001d0: f7ca f43c 1282 23be da7a d7bb 98aa 903d
000001e0: 5cff dabd 9a75 b23e 8c5e f7bd e8c4 0abe
000001f0: b5d3 b8bd f0da a43e 5359 5ebd aa91 e0bd
-0.09639618 -0.22015697 0.2227504 -0.14500171 -0.06180442 0.3661985 -0.078876324 -0.28210998
-0.42117468 0.045629915 -0.2485752 0.051770214 0.024133103 -0.4402974 0.23132248 0.12001473
0.2556799 -0.42915854 -0.3959758 0.116559185 0.33355257 0.14392209 0.096071556 0.057856515
0.28090397 -0.19079675 0.25739744 -0.28641734 -0.147545 -0.041085895 0.0671859 -0.08345427
-0.33484122 -0.19846837 -0.22099668 -0.006434976 0.20407246 0.037596446 -0.28835836 -0.2412211
-0.20949467 0.122480474 -0.30558094 0.034705527 -0.2152796 0.045453403 0.25068945 0.048579384
0.107490495 0.248546 0.18761273 -0.20514262 0.07507967 0.08441491 -0.090732075 0.013881682
0.017581893 -0.3560759 0.09881029 -0.024277546 0.0894984 -0.23392636 0.020828882 0.030949455
0.2347092 0.2988636 -0.11557291 0.2584352 0.18120629 -0.33101183 -0.1404533 0.2659616
0.46184483 -0.1531429 0.16357224 -0.053625073 -0.14780307 0.34717935 -0.085624196 0.028622916
-0.2535472 0.29658026 0.3413373 -0.15648231 -0.3058033 -0.081093706 -0.23236561 -0.039355036
-0.2650539 0.25882688 -0.03073875 0.13822131 0.21437593 -0.0052884696 -0.14505191 -0.11868831
0.3496307 0.26225874 0.31469676 -0.16718301 -0.26294926 -0.06745054 0.22109513 0.2096049
0.20207635 -0.013853255 0.29423097 -0.043071195 0.32493052 -0.08236803 -0.06494011 -0.23505706
0.07663118 -0.23865071 -0.24194582 0.19022326 0.029881937 -0.15967587 -0.0065759243 0.07063788
-0.10693237 0.34855348 -0.1207858 -0.13551676 -0.09024755 0.32198286 -0.054284405 -0.10965283

fc3.bias f4 [2]
00000000: d48c 0a3f 7a77 dfbe
0.54121137 -0.4364584

exp_avg f4 [105, 11]
00000000: b09c bebc efce 83bb 77e6 3bbc bc4e d1b9
00000010: 5fb6 33bb 66f3 b1bb 76ca 70bb 7abe 5abc
00000020: 465b 44bd 64d7 12bd 41ea 5fbc 0a39 b0bb
00000030: af72 4cba 30bb 82ba d94b 11ba 83ec 02ba
00000040: 7edd 74ba f43d 24bb d46c 09bc f4c8 1bbc
00000050: 42fc b0bb 653b d0ba 255f c03b e950 603b
00000060: 8abe 383b 1852 8039 5373 223a c6fa e33a
00000070: bcbe f13a fa0e 0b3c 67dc 353c a954 633c
00000080: 3e84 863c 7908 93bc e71c 73bc 8d8d 72bc
00000090: 45b9 9d38 523a 7aba b01c b2bb 618b 193b
000000a0: 75f6 5ebc aca4 dfbc ed3f 66bd 29b8 5cbd
000000b0: 5609 f53a da44 10ba f2e6 693b 8edb 7039
000000c0: 2a9a 74b9 c3dc 4e3a 1547 46ba 22b5 dbb9
000000d0: 20e1 073b 3cd9 aa3b 64cf c9ba a2a0 1d3c
000000e0: d05f 0b3c d443 823a d9c0 96b7 2c85 913a
000000f0: dd02 0d3b e71e b23a 9bc5 853a 8a04 173c
00000100: 8747 913c 8d7c 6c3c 0257 eeb9 ed99 f1b9
00000110: 0247 b5b9 c894 eab9 145e f4b7 67e9 97b9
00000120: 9b9e e7b9 3fed 25ba b239 acba ea0d 9aba
00000130: c2b2 68bb 8c0e 27ba d33f 83ba 52b0 7c3a
00000140: fc59 84ba e644 2239 df0d ebb8 4bb7 713a
00000150: 4b1d 303a e249 d23a 7d7d 863a fde5 8cb9
00000160: 0000 0000 0000 0000 0000 0000 0000 0000
00000170: 0000 0000 0000 0000 0000 0000 0000 0000
00000180: 0000 0000 0000 0000 0000 0000 0000 0000
00000190: 0000 0000 0000 0000 0000 0000 0000 0000
000001a0: 0000 0000 0000 0000 0000 0000 0000 0000
000001b0: 0000 0000 0000 0000 298c 20ba d2f7 3d3b
000001c0: 4a0e 1f3b f920 02ba 0a5b 41ba bb4d 663a
000001d0: 34a5 57bb f303 65bb 9471 c3bb c10d 723c
000001e0: e8de b83b ef05 71bc d976 d7b9 737e f9bb
000001f0: 6d46 0138 9e2b 66ba 06b9 72ba 67b8 a03a
00000200: faed 2abc 62f1 2abc d27d a9bc 491b 16bd
00000210: 0000 0000 0000 0000 0000 0000 0000 0000
00000220: 0000 0000 0000 0000 0000 0000 0000 0000
00000230: 0000 0000 0000 0000 0000 0000 4e0d f9bb
00000240: 4581 c9bb b145 833a 58fd 15bb a593 a9b9
00000250: cde5 9fba 39b8 6a3a 8ace 3cbb 04d4 aebb
00000260: 87b9 10bc b0fe 94bb 8b7a 543b 6b55 723b
00000270: a297 8e3b 892e 02b7 1beb 4b39 cc7f 9e3a
00000280: de39 17ba 1532 6c3b ba8a bd3b a38e 783c
00000290: 99c7 2d3c 3817 363c 29af bf3b b57f 5bb8
000002a0: a700 71b8 33b5 063a ff62 b83a 566e 533b
000002b0: 679d 113b 7be1 293c 9cb0 1c3c e5c3 1c3c
000002c0: 0414 003d bcbc 923c 0dc0 bd3c 271b 143a
000002d0: 2f3b 443b 7ce3 f63b e485 6f3b 1878 043d
000002e0: 8a73 753d 342b 933d 1b0d ec3c ab5c bc3b
000002f0: acf2 e83b f1e2 963b d85f 7f3a 812b 833a
00000300: 1edd 013b 72cd af3b 5874 083c 1cbd 193c
00000310: 2bd8 c83c 614d 6d3c afc4 dcbc 5929 91bc
00000320: 3e18 0cba 8a02 e4b8 96f1 b0ba 874b 8abb
00000330: 3b54 e1b9 1c9a fdbb fde9 d9bc f874 17bd
00000340: 174c cbbb bb22 92bb 7d19 8aba cd0f acbb
00000350: 82d1 f4b7 f0ab 64b9 d7de ebb9 c4ef f43a
00000360: 7191 ac3a 6c5c 1abc b181 1ebc 80c4 1ebc
00000370: e61b 513d 2b80 0b3d 8570 1abb a8e7 bb3a
00000380: 16b8 303b 206e 993b 3103 a83b b131 883c
00000390: f40c 8a3d f49b 043d fc7b 903d f9a6 95bd
000003a0: c8cb 4cbd b008 f7bc d51d 6cba 5cc8 a6bb
000003b0: 795f e0bb 3016 4fbc bd33 81bd 5328 7ebd
000003c0: 92e6 a7bd e080 f9bd cf9a 25bc b61f 9cbb
000003d0: b78f 92ba 095f 9bba ba87 22ba e545 b4ba
000003e0: fd86 daba 84fe b9bb 20dc 4abc 6c50 debb
000003f0: b19c 1bbc 8c36 37bb e4cc afbb 7d88 2cbb
-0.023268074 -0.004022471 -0.011468521 -0.00039922248 -0.0027421934 -0.0054306267 -0.003674177 -0.013351077
-0.047938608 -0.035849944 -0.01366669 -0.0053778933 -0.00077990716 -0.0009973999 -0.0005542613 -0.00049943494
-0.0009340866 -0.002506134 -0.008387763 -0.00950836 -0.005401165 -0.0015886842 0.005870717 0.0034227914
0.0028189742 0.00024475227 0.0006196994 0.0017393462 0.0018443684 0.008487457 0.011099911 0.013875165
0.01642048 -0.017948376 -0.014838434 -0.014804256 7.5208525e-05 -0.00095454336 -0.0054355487 0.0023429024
-0.013608565 -0.027300201 -0.056213308 -0.053886566 0.0018694799 -0.0005503424 0.0035690633 0.00022969974
-0.00023327084 0.00078911724 -0.00075636926 -0.0004190589 0.002073355 0.0052138846 -0.001539689 0.009620817
0.00850673 0.0009938427 -1.7971195e-05 0.001110231 0.00215166 0.0013589532 0.0010205986 0.009217391
0.017734302 0.014433992 -0.00045459723 -0.00046081786 -0.00034575915 -0.0004474281 -2.9130875e-05 -0.00028974863
-0.00044177924 -0.0006329603 -0.0013139753 -0.0011753414 -0.0035506939 -0.0006372712 -0.0010013528 0.0009639311
-0.0010097618 0.0001547519 -0.00011208257 0.0009220733 0.0006718232 0.0016043747 0.0010260787 -0.00026874235
0.0 0.0 0.0 0.0 0.0 0.0 0.0 0.0
0.0 0.0 0.0 0.0 0.0 0.0 0.0 0.0
0.0 0.0 0.0 0.0 0.0 0.0 -0.0006124401 0.0028986824
0.0024269992 -0.000496402 -0.00073759316 0.00087853865 -0.0032904865 -0.003494498 -0.0059644673 0.014773787
0.005641807 -0.014710887 -0.00041096544 -0.007613951 3.0821586e-05 -0.0008780303 -0.0009259138 0.0012261987
-0.010432715 -0.010433527 -0.020689879 -0.036647115 0.0 0.0 0.0 0.0
0.0 0.0 0.0 0.0 0.0 0.0 0.0 -0.007600463
-0.0061494433 0.0010015276 -0.00228866 -0.00032344196 -0.0012199223 0.0008953843 -0.002880963 -0.005335333
-0.008833296 -0.0045469627 0.0032421674 0.0036977183 0.004351572 -7.759439e-06 0.00019447172 0.001209253
-0.0005768816 0.0036040593 0.0057843598 0.015170726 0.01060667 0.011113934 0.005849738 -5.2332605e-05
-5.7459485e-05 0.0005138695 0.0014067589 0.003226181 0.0022219063 0.0103687 0.009563591 0.009568189
0.03126909 0.017912261 0.023162866 0.0005649798 0.0029942503 0.0075344425 0.003654831 0.032341093
0.05992464 0.07185975 0.028814843 0.0057483516 0.007109007 0.0046046902 0.000974176 0.0010007472
0.0019815634 0.005365067 0.00832852 0.009383466 0.02451714 0.014483781 -0.026949255 -0.017719911
-0.00053441885 -0.0001087236 -0.0013499733 -0.0042204293 -0.000429781 -0.0077393185 -0.026600832 -0.036976784
-0.006204139 -0.0044597066 -0.001053616 -0.005250907 -2.9184626e-05 -0.00021807826 -0.00044988721 0.0018687178
0.0013165904 -0.009421449 -0.0096744755 -0.009690404 0.051051997 0.034057777 -0.0023565602 0.0014336007
0.0026965193 0.0046823174 0.0051273336 0.016625257 0.06740752 0.03237529 0.07054898 -0.07307238
-0.04999903 -0.03015551 -0.0009007131 -0.0050898027 -0.0068473187 -0.012639567 -0.063086964 -0.062050175
-0.08198275 -0.12182784 -0.01010771 -0.0047645224 -0.0011181746 -0.0011853884 -0.00062000344 -0.001375374
-0.001667231 -0.0056760926 -0.012381583 -0.0067844894 -0.009497807 -0.0027956096 -0.005365001 -0.002632647

exp_avg_sq f4 [105, 11]
00000000: 5180 703c fbcf 443b 0565 2b3b 640b 8a39
00000010: 7dcf 3039 082b 893a b49f a83a 8100 9c3b
00000020: 6ac4 613d 622b 0c3d 9139 763d 01b9 d43b
00000030: f48d 913a b029 923a 70a6 9537 c08a ad38
00000040: e7d2 7c39 a04a a13a c5e9 5c3c bdb2 a03c
00000050: 224e 413c 9d62 453c 95e2 0f3c c91b 353b
00000060: aae7 f139 be7e 0336 7c1b a338 9615 8039
00000070: 9f00 5d3a 2b25 e73b 7243 973c c5ca 863c
00000080: 850f fa3c 9dda 253b 82c6 7c3a 5756 0a3a
00000090: 02cd 9c37 e18e a337 0695 bd38 3bef 8539
000000a0: 580a 023b 9fb1 863b cc8b da3b 003e 323c
000000b0: cc20 233b 584d 773a df88 5939 2570 8236
000000c0: 84f3 9237 11e6 9238 9259 6239 fcc2 c03a
000000d0: fc53 953b bf0b 9e3b f378 e63b 4f98 223c
000000e0: 7d46 da3b 0254 9c3a 3aec d338 525e 5439
000000f0: c52a 9539 3daa c33a de12 013a 4d46 113c
00000100: 03ad 053d d0a0 a93d 6e25 113c 24c5 f83b
00000110: 363b 1c3a cbea e93a a14a b538 6ad5 2d3a
00000120: 725c 323b 2848 993b 81df ba3c a60a 023c
00000130: 76af 1f3e 3641 b63b d4df 183b c588 0f3a
00000140: 9018 6638 b377 0138 4820 2939 90ee 093a
00000150: 5f95 7e3b 06fa 0a3c 706b de3b 3a9d c439
00000160: 0000 0000 0000 0000 0000 0000 0000 0000
00000170: 0000 0000 0000 0000 0000 0000 0000 0000
00000180: 0000 0000 0000 0000 0000 0000 0000 0000
00000190: 0000 0000 0000 0000 0000 0000 0000 0000
000001a0: 0000 0000 0000 0000 0000 0000 0000 0000
000001b0: 0000 0000 0000 0000 9316 6e3b a7c6 543a
000001c0: 5f85 433a f0da 9438 76d8 6038 d03c 1c39
000001d0: 20aa 513a 3261 b93b d771 533c c12b 203c
000001e0: 201a 613c a49b 803b c494 c33a 4b08 473a
000001f0: 2371 4637 d871 3138 0f47 2f39 187c f339
00000200: 05b4 4e3b 7563 223c 89f9 143c fd9a 3e3d
00000210: 0000 0000 0000 0000 0000 0000 0000 0000
00000220: 0000 0000 0000 0000 0000 0000 0000 0000
00000230: 0000 0000 0000 0000 0000 0000 0ecb 003c
00000240: 909b 383b c3e2 ab39 f2d1 ed38 61bd 4238
00000250: 71c6 8139 ade2 483a f7b3 7c3b 4dd7 413c
00000260: 517f d33b 24f0 7f3c aa91 dc3a c104 293a
00000270: 0a4d 0a39 b132 8136 ff7a 2c37 214a 4c38
00000280: f239 5439 fefd ba3a 704e 3a3b ec3a 883b
00000290: 572a f43b c47b 393b 2be5 8f3a b27a 7339
000002a0: c70b 2a37 feec 9b37 c74e 9238 0628 a439
000002b0: 02ea d13a 6956 863b b1c0 a83b 9945 0b3c
000002c0: b182 253c 7e6e 9c3b ab2a fb3a bff8 6838
000002d0: d9ed f638 b777 9439 0639 0d3b 01ef 853c
000002e0: c5d5 a23c 0d1b 0f3d 779d b63d 2d28 ac3c
000002f0: f43a b43b bf02 243b f9d5 6838 7d9d f939
00000300: da8b f23a 1cb2 c73b 9ec1 c33c be75 993d
00000310: 8f49 c13d 0435 4d3e b3aa 223d c342 863c
00000320: 2127 813b 60ad 4d36 0256 7e39 f338 603a
00000330: e433 823a 4eb5 3b3c bafb 893d f5b4 313d
00000340: 109a 103d ef5c 583b 1d99 943a 67e5 7c3a
00000350: f4b7 f236 ac36 3038 6a8a 1f39 4f59 363a
00000360: a4b6 f43b 15aa 373c 13a5 383c 0442 c43c
00000370: 5831 0d3d 59f3 7b3c bbfc c53a 65c0 6439
00000380: bc20 2839 e62b 1e3a ad67 003b f8ae 773c
00000390: 813a 343d a483 053d cbba 553d 5e25 9c3d
000003a0: d8ea ea3c 2149 533c f65a 193a f2d4 673a
000003b0: 3c68 913a e32b ed3b 2588 613d 6759 e03d
000003c0: 0754 f23d ec55 3e3e e42a 843b 4b4c 923a
000003d0: a4c0 3f39 94a5 e037 80c8 0038 95a7 0139
000003e0: 9c09 003a 6f94 5e3b 88b7 fd3b aac9 5e3b
000003f0: fa44 f03b 0e4a 983a f0eb fa3a 7421 463a
0.0146790305 0.0030031193 0.0026152742 0.00026329898 0.00016861963 0.0010465095 0.0012864978 0.0047608023
0.055118956 0.03422106 0.060113493 0.0064917807 0.0011104927 0.001115134 1.7839688e-05 8.275127e-05
0.0002411116 0.0012305565 0.013483469 0.019616479 0.0117984135 0.012047437 0.008782049 0.002763497
0.00046139705 1.9594295e-06 7.777565e-05 0.00024430145 0.00084305735 0.0070539913 0.018464778 0.01645411
0.030524978 0.0025307306 0.0009642617 0.0005277148 1.8692113e-05 1.9497647e-05 9.03998e-05 0.00025545977
0.001984259 0.0041105296 0.006669497 0.01087904 0.0024891375 0.00094338274 0.00020745721 3.8873573e-06
1.7517952e-05 7.004676e-05 0.00021586407 0.0014706547 0.004557131 0.0048231776 0.0070334612 0.0099240085
0.006661235 0.0011926892 0.00010105265 0.00020253033 0.0002845136 0.0014928054 0.0004923771 0.008866859
0.0326357 0.08282626 0.008859022 0.0075918604 0.0005959751 0.0017846463 8.644653e-05 0.00066312274
0.0027215746 0.004677791 0.022811653 0.007937109 0.15594277 0.005561973 0.0023326771 0.00054753973
5.485915e-05 3.0867475e-05 0.00016129122 0.0005261684 0.0038846356 0.008482462 0.00678771 0.00037501176
0.0 0.0 0.0 0.0 0.0 0.0 0.0 0.0
0.0 0.0 0.0 0.0 0.0 0.0 0.0 0.0
0.0 0.0 0.0 0.0 0.0 0.0 0.0036329373 0.000811676
0.00074585335 7.09797e-05 5.3607357e-05 0.00014899974 0.0007998068 0.0056573385 0.0129055595 0.009776057
0.013739139 0.003924804 0.0014921655 0.00075924833 1.1828061e-05 4.2306114e-05 0.00016715772 0.0004644103
0.0031540405 0.009911408 0.009092697 0.046534527 0.0 0.0 0.0 0.0
0.0 0.0 0.0 0.0 0.0 0.0 0.0 0.007860912
0.0028168894 0.00032784612 0.00011340146 4.6429577e-05 0.00024752648 0.0007663172 0.0038559416 0.011831117
0.0064543863 0.015621219 0.0016828079 0.0006447547 0.00013189405 3.850401e-06 1.0280636e-05 4.8706428e-05
0.00020239482 0.0014266369 0.00284281 0.0041574147 0.0074513364 0.002830253 0.0010978332 0.00023219993
1.0135532e-05 1.8587798e-05 6.976496e-05 0.00031310337 0.0016015174 0.0040996564 0.0051499237 0.00850048
0.01010196 0.004773914 0.0019162496 5.5544773e-05 0.00011774497 0.00028317954 0.0021548881 0.016349318
0.019877324 0.034937907 0.08916753 0.021015251 0.005500192 0.002502605 5.5512388e-05 0.0004761032
0.0018504814 0.0060942303 0.023896035 0.07493161 0.09437858 0.20039755 0.039713573 0.016389256
0.003941432 3.0648298e-06 0.00024255368 0.0008553408 0.0009933678 0.011456801 0.06737466 0.043385465
0.035303175 0.0033014377 0.0011337135 0.0009647221 7.233577e-06 4.2012587e-05 0.00015214985 0.0006956057
0.0074680615 0.011209984 0.0112698255 0.02395726 0.034470886 0.015377843 0.0015105227 0.00021815447
0.00016033923 0.0006033763 0.0019593046 0.015117399 0.044001106 0.032596245 0.052180093 0.07624315
0.028676435 0.012895853 0.0005850041 0.0008843682 0.0011093686 0.0072378977 0.05506148 0.10954552
0.11832433 0.18587464 0.0040334333 0.0011161653 0.00018286944 2.6779984e-05 3.070431e-05 0.00012364828
0.00048842444 0.0033962985 0.007742826 0.0033994713 0.0073324414 0.001161875 0.0019143801 0.00075580855

exp_avg f4 [105]
00000000: 7cb1 5ebc 39fe 20bb a56d 8e3b 2ab1 74bc
00000010: 06f6 053b 56d6 f63b c493 eab9 53fc e2b8
00000020: 0000 0000 0000 0000 4061 c63a da18 c4bb
00000030: 0000 0000 3636 93bb 541e 733b 6a85 663b
00000040: 240d c93c aca7 d23b e102 fdbb a3a8 36bb
00000050: 924a 8b3c 5e12 f7bc f0ed 7cbb 3109 6cbb
00000060: e21d 43bb ae59 f8bb 05dc 063b 2e26 89bb
00000070: 0000 0000 cd4e 0d3c a4fa a8bb c837 02bc
00000080: 7e82 dcbb c951 fbbb 9e26 253c 5c19 ef3a
00000090: 0000 0000 3fbf 573a 3363 d439 04d2 aeb8
000000a0: 6d62 d0ba 810a 143a 6af4 9c3a cbc7 313a
000000b0: 8d09 4bbc 7824 643c e5be 4abc 9522 423a
000000c0: 604f 803a 740c 643a 2d03 293a 000c 0e3b
000000d0: 4cde bdbb 8307 013c de8b 9f3b f5e0 c939
000000e0: ae17 1f3a 5e57 853b 28b2 80ba 0f5d e0b9
000000f0: cd12 013c 0000 0000 c0f8 65bc 0d12 63ba
00000100: d39d 053b b8b3 853b 41ed 47bc d37d b63b
00000110: dae0 68ba 03bc c83a e92b a63b af19 0dbb
00000120: 61c7 8f39 ebbb 663b ca28 bebb 7024 3cbc
00000130: 64f5 5f3b c6cf acba a961 82ba f435 373b
00000140: 6339 27bb 236d 0c3c 3e1e 7d3c f973 9d3b
00000150: bff2 943c a136 1f3b 2a26 ab3b a20a af39
00000160: 3557 6838 53c9 413a 905d 95bb 9d83 9c3b
00000170: 1f48 003c 4f0c bfbb bc46 593b d998 2c3b
00000180: 510a b138 410e 1938 3733 08bc 86ef 31ba
00000190: 6700 45bb 13d2 e239 b5fa 82ba 9a9a 063c
000001a0: 877d 1fbc
-0.01359212 -0.002456559 0.0043465667 -0.014934817 0.002044083 0.007532875 -0.00044742052 -0.00010823519
0.0 0.0 0.0015135184 -0.005984408 0.0 -0.0044925464 0.0037096934 0.0035174736
0.024542399 0.0064286795 -0.0077212905 -0.0027871511 0.017003331 -0.030160125 -0.003859397 -0.003601622
-0.002977245 -0.00757905 0.002057792 -0.0041854596 0.0 0.008624745 -0.005156832 -0.00794787
-0.006729423 -0.0076696617 0.010080008 0.0018241811 0.0 0.0008230097 0.000405097 -8.336085e-05
-0.0015898474 0.0005647317 0.0011974697 0.00067817856 -0.012392414 0.01392471 -0.012374614 0.0007405666
0.0009789281 0.00086993654 0.00064473116 0.0021674633 -0.005794322 0.007875326 0.0048689684 0.00038505314
0.0006068897 0.004069253 -0.000981872 -0.00042793943 0.007878018 0.0 -0.014036357 -0.00086620526
0.002038826 0.004080262 -0.012202562 0.0055691986 -0.0008883603 0.0015314821 0.0050711525 -0.0021530201
0.00027423634 0.0035207223 -0.0058032023 -0.011483297 0.0034173364 -0.001318448 -0.0009947318 0.0027955743
-0.0025516383 0.008570942 0.015449105 0.004805085 0.018182157 0.0024294036 0.0052230554 0.00033386523
5.539433e-05 0.00073923654 -0.0045582727 0.0047764317 0.007829695 -0.0058303247 0.0033153733 0.0026336221
8.441939e-05 3.6491318e-05 -0.008312992 -0.0006787706 -0.0030060054 0.00043262597 -0.0009992929 0.008215571
-0.009734518

exp_avg_sq f4 [105]
00000000: b82a a43b bee4 d83a db55 cd3a 49aa 143a
00000010: 7891 db39 5667 713b a7e0 6c3b 2767 3b3a
00000020: 0000 0000 0000 0000 e939 933a deae 893a
00000030: 0000 0000 a915 ab3a 45e8 a239 2196 f239
00000040: 6ad8 3f3b e5bd 033c 687d 9e3b 959f 873a
00000050: 353f 7c3b 3876 563c 2159 2f3a ef8d 6a3a
00000060: 6a97 e039 708b cf3b 1776 013a 76d4 0a3a
00000070: 0000 0000 146d d53b 47a3 a339 73bf 123b
00000080: 693b c93a 1c93 283b ab6a 2d3a 7892 bd39
00000090: 0000 0000 6aaf 713a 667f 143b 89f2 5e3b
000000a0: c077 ea3a 569c 1139 0883 c73b f8af 083a
000000b0: cc86 003b e13e 9c3a 1a78 aa3b f6ea da39
000000c0: 0bf1 383a d240 9a3a ffd0 323a 7e7a f239
000000d0: 4f73 543c 4732 933a 3f0e 453a a495 e939
000000e0: 1807 2939 ff04 393a 0086 143a 6ed3 673c
000000f0: 1736 493a 0000 0000 2c28 a83c f5db 5c39
00000100: b0a5 db39 e640 b23b ae5b 013b b70e aa3a
00000110: 5c0b 843a 3978 3e3a 1828 de39 b567 293a
00000120: 0667 1a3a 67a3 1f3a 5a1c c33b 134c 133b
00000130: db5c 0b3c 802b c839 f655 a13b a9e4 9e3a
00000140: 165f 6e3a c476 593b 0b91 bf3b 613f 983b
00000150: cc15 1f3b c3d3 3d3a 0353 5a3b 9960 b63a
00000160: d2d9 773a 0eb6 803c 6584 b53a d147 ba39
00000170: eeaf fd39 e884 c33b 0568 9f39 365d 133a
00000180: d242 a039 85a2 523a f3ef c03a d8f4 283a
00000190: 23d7 933b a544 ea38 7ba8 9439 153d e839
000001a0: 9d19 883b
0.0050099753 0.0016547663 0.0015665846 0.00056711264 0.00041879318 0.0036835275 0.0036144645 0.0007148855
0.0 0.0 0.0011232469 0.0010504385 0.0 0.001305272 0.00031072102 0.00046269692
0.002927328 0.00804088 0.004836727 0.0010347242 0.0038489823 0.013089709 0.00066890015 0.00089475414
0.00042837422 0.006333761 0.0004938556 0.00052959414 0.0 0.0065132473 0.00031211434 0.0022391945
0.0015352789 0.002572245 0.0006615321 0.00036158017 0.0 0.0009219559 0.0022658943 0.0034019074
0.0017888471 0.00013886517 0.006088618 0.00052142097 0.0019611595 0.0011920595 0.0052023055 0.0004175526
0.0007054961 0.0011768586 0.0006821304 0.000462491 0.012966945 0.0011230194 0.00075170764 0.00044552714
0.00016119739 0.00070579344 0.00056657195 0.01414953 0.00076756015 0.0 0.020526968 0.00021062775
0.00041894382 0.0054398654 0.0019738483 0.0012974356 0.0010074186 0.00072658394 0.00042373012 0.0006462292
0.00058899855 0.00060897175 0.0059543075 0.0022475764 0.008506025 0.00038179383 0.0049235774 0.0012122589
0.00090931484 0.0033182362 0.005846148 0.004646227 0.0024274467 0.0007241333 0.003331364 0.0013914286
0.000945476 0.01571181 0.0013848661 0.00035530192 0.00048386998 0.0059667714 0.00030404344 0.00056214945
0.00030567363 0.00080350816 0.0014719948 0.0006445176 0.0045117303 0.000111707755 0.00028354287 0.00044295998
0.004153444

exp_avg f4 [64, 105]
00000000: 0616 a238 45a7 a433 9be4 1a3a 010c 773a
00000010: ea08 e839 fcb1 08b8 f430 67a9 b359 30ac
00000020: 0000 0000 0000 0000 ccaa 82b8 0e67 9e3a
00000030: 0000 0000 06b5 43bb c7b5 c83a c35a 68ba
00000040: 5922 e6b7 e5e7 a3b6 fa74 c935 16a9 8d39
00000050: ac39 a6ba b9a1 14b7 348f f0b9 1dab 4833
00000060: 7990 a9ba f316 a039 f510 313a 2d85 6ab9
00000070: 0000 0000 f29b f338 c813 51ba 6c6b a638
00000080: 823d f1b9 512c 0e3a 9c01 99bb 68c3 16ba
00000090: 0000 0000 d55f 8eb8 8d37 27ba e13e f535
000000a0: 8b9b 243a 3cd8 b438 ef0a 8f38 0b89 7bb9
000000b0: 710c 413a 36d9 853a c502 da32 94d8 21bb
000000c0: f82c 6239 4b41 913a 4054 8039 0400 0080
000000d0: b271 9d33 8dd3 ff3a aaaf 9ab8 4e22 3238
000000e0: 1d5e 343a aad4 a338 006b c739 ef38 c9b7
000000f0: 842a 83ba 0000 0000 50b3 93ba 72aa 7dbb
00000100: 0dcd af3a c9d7 72ba 462e e6ba 1833 d4b8
00000110: 9400 0080 4cfe 4cbb 9f8c 513b 08a1 08ba
00000120: 0c3e 2e39 5e2f e438 fc05 d439 f289 e437
00000130: 049b 6a38 31d4 3bbb bc39 0abb a3c6 d1ba
00000140: fb23 93a2 e541 831c efea ba39 e7bb 9d39
00000150: bd53 d7b9 8a51 6ab8 4b34 3abb 2f31 8e39
00000160: 0400 0000 1f3c adba 86c4 c439 7be5 383a
00000170: 6f2c 2438 1eaa 40a2 dd61 64ba eddc f8b9
00000180: 1355 d6b5 d719 ca36 71e3 afbb 014c 253a
00000190: b0a2 b6b7 0400 0000 2508 003a e374 3739
000001a0: 80d1 0338 fb66 6d36 8a2d ebad 5d3e 453b
000001b0: c0fc 543b 9c7a 393c 0047 b6b7 0400 0000
000001c0: 9fce 2b34 0000 0000 0000 0000 3983 ec3a
000001d0: c8eb bf3a 0000 0000 bc35 e6b7 f134 3f3c
000001e0: 0ac5 4c3b 31dc 3530 1eb5 72b8 c0ee 7137
000001f0: d213 832f ed80 7528 ea25 b339 131e ed21
00000200: 570a 432d 94dc 49ba d5e1 08b5 1db3 193b
00000210: be4e a53b 0000 0000 0400 0000 666e 40b8
00000220: 08e8 f42e cd98 db39 8014 df3b 9dcd 473a
00000230: 57a4 5a3a 0000 0000 fada c2b6 14da b431
00000240: 0400 0080 c51b 1239 ea78 acb1 607b 473a
00000250: dd8a d7b9 a09f 4038 fd69 013c 1f14 683b
00000260: b988 3dba 21fe 9536 5b5f 13b7 a612 3b3b
00000270: 08e5 db31 6bc4 fd11 323f be3b 144d 1e3b
00000280: 1be3 90b8 d4b5 aeb9 b72f 0eb9 654e 7bba
00000290: 905f 5535 eeca 7e3b 0000 0000 f3b1 6d3b
000002a0: a35f 743b 75c8 683b 4d1f 13ba 6222 2c2d
000002b0: 4db1 75b7 6bf9 1937 451b 0fba 2fbe d43a
000002c0: dee9 fc3a 2a82 4c3b c38e 0a33 5237 a5b7
000002d0: 8929 933b e4f7 fab1 0acf e6ba 9224 1039
000002e0: c42e 6e3b 0400 0000 b290 40b3 81ac 0838
000002f0: ec45 f9a7 c16d 5629 1ff9 64b9 b5bb 89b7
00000300: e856 073c 0400 0080 630b e53a 0400 0000
00000310: 3c44 d839 6ea7 253b 3ad4 85b7 7425 0b3b
00000320: 40a0 01b9 1e4d a23a d6d7 2534 2f35 a8ba
00000330: 522b c2b8 6dd4 c7b6 0400 0000 f3a7 07b8
00000340: 2c32 eb3b 0400 0000 9bd8 afb9 2282 3f3a
00000350: a45c 46bb 521a ce3a b6de 06bb 1c3c fdb5
00000360: 898d aab5 5d7c a5b7 0000 0000 0000 0000
00000370: 39e7 b8ba debc a3ba 0000 0000 4ec7 ceb8
00000380: d673 54bb 7269 87bb 761a cdba b2fe 3b38
00000390: 84a0 8c3b e560 5a3a 9be0 1bba 2546 88ba
000003a0: 4816 deb8 679a b4b9 87cc 62ba 5514 1dba
000003b0: 8108 9cba 1f9a 0e3a 0000 0000 6982 76b8
000003c0: afd3 8fb7 8830 86ba d5be 5eb8 7e0d 763a
000003d0: 6ecd eaba af38 b4ba 0000 0000 85cd d5b9
000003e0: 0f12 d3b7 f259 e4aa d44a ce39 b721 02b9
000003f0: 62b6 00ba 24ff 83b6 7053 a7ba 41a4 7a3a
7.728864e-05 7.667271e-08 0.00059086987 0.0009424091 0.0004425713 -3.2590688e-05 -5.1334764e-14 -2.5060897e-12
0.0 0.0 -6.2306965e-05 0.0012085156 0.0 -0.0029862537 0.0015312963 -0.0008863622
-2.7434131e-05 -4.8847746e-06 1.5009712e-06 0.00027019595 -0.0012681982 -8.859141e-06 -0.00045883062 4.6721755e-08
-0.0012936733 0.00030534677 0.0006754541 -0.00022365591 0.0 0.0001161619 -0.0007975665 7.935506e-05
-0.0004601293 0.0005423474 -0.0046693813 -0.00057511637 0.0 -6.788938e-05 -0.0006378822 1.8272223e-06
0.0006279281 8.623346e-05 6.820808e-05 -0.00023988278 0.00073642196 0.0010211829 2.53798e-08 -0.002469574
0.00021569792 0.0011082081 0.00024476834 -6e-45 7.331563e-08 0.0019518003 -7.376012e-05 4.2470456e-05
0.0006880479 7.8120574e-05 0.0003803596 -2.3987579e-05 -0.0010007177 0.0 -0.0011268649 -0.003870633
0.001341255 -0.0009263722 -0.0017561398 -0.00010118465 -2.07e-43 -0.0031279502 0.0031974686 -0.0005211984
0.00016617047 0.0001088071 0.0004044025 2.7243954e-05 5.5934317e-05 -0.0028660411 -0.0021091541 -0.0016004633
-3.9882526e-18 8.685886e-22 0.00035651724 0.00030085372 -0.00041070385 -5.5865887e-05 -0.0028412517 0.00027120995
6e-45 -0.001321677 0.00037530455 0.0007053238 3.914203e-05 -2.6110911e-18 -0.00087120925 -0.0004746685
-1.5969002e-06 6.0230773e-06 -0.0053676893 0.0006305576 -2.1771848e-05 6e-45 0.0004884026 0.00017495784
3.1427946e-05 3.5375695e-06 -2.673663e-11 0.0030096986 0.0032499284 0.011320736 -2.1729153e-05 6e-45
1.6000784e-07 0.0 0.0 0.0018044478 0.0014642412 0.0 -2.7443159e-05 0.011670337
0.0031245374 6.6160327e-10 -5.7865975e-05 1.4420308e-05 2.3842844e-10 1.3628188e-14 0.0003416979 1.6067705e-18
1.1086763e-11 -0.000770041 -5.0992577e-07 0.0023452707 0.005044787 0.0 6e-45 -4.5879184e-05
1.11370524e-10 0.0004188478 0.0068078637 0.00076218863 0.00083405286 0.0 -5.8071428e-06 5.263482e-09
-6e-45 0.0001393399 -5.019605e-09 0.0007609632 -0.00041111457 4.592503e-05 0.007898805 0.0035412384
-0.0007230151 4.4701305e-06 -8.7840845e-06 0.002854505 6.3997767e-09 4.0037414e-28 0.0058058733 0.002415483
-6.908757e-05 -0.0003332334 -0.0001355995 -0.0009586572 7.9487745e-07 0.003887828 0.0 0.0036269396
0.003728845 0.0035519872 -0.0005612269 9.7847026e-12 -1.4644419e-05 9.177583e-06 -0.00054590806 0.0016230996
0.0019295772 0.0031205514 3.226047e-08 -1.9695293e-05 0.0044910354 -7.3041395e-09 -0.001760931 0.00013746534
0.0036343792 6e-45 -4.4835083e-08 3.2585584e-05 -6.9187193e-15 4.7612742e-14 -0.00021836579 -1.641908e-05
0.008260466 -6e-45 0.0017474707 6e-45 0.0004124957 0.0025276798 -1.5953661e-05 0.002123204
-0.00012362096 0.0012382602 1.5445343e-07 -0.0012833233 -9.25871e-05 -5.9553918e-06 6e-45 -3.2342923e-05
0.007177612 6e-45 -0.00033539985 0.0007305463 -0.003026762 0.0015724397 -0.0020579523 -1.8867463e-06
-1.2707179e-06 -1.9727444e-05 0.0 0.0 -0.0014106996 -0.00124922 0.0 -9.859969e-05
-0.0032417676 -0.004132443 -0.0015648145 4.4821478e-05 0.004291596 0.00083304784 -0.00059462496 -0.0010396881
-0.00010589935 -0.00034447314 -0.0008651693 -0.00059921044 -0.001190439 0.0005439836 0.0 -5.8772424e-05
-1.7145501e-05 -0.0010237852 -5.310665e-05 0.0009386166 -0.0017914006 -0.0013749803 0.0 -0.0004077965
-2.516157e-05 -4.0563348e-13 0.00039347133 -0.00012410326 -0.00049099897 -3.9338065e-06 -0.0012765955 0.0009561219
