save/ASGDTL2_test.pt (torch_old, 4321 bytes, 8 tensors)

fc1.weight f4 [25, 10]
0	0xbe886b6d	-0.2664446
1	0xbd55e541	-0.052220587
2	0xbda4b506	-0.0804234
3	0x3d421d79	0.04739139
4	0x3d6a3388	0.05717805
5	0xbdbd38a7	-0.09239321
6	0x3d85e95e	0.06538652
7	0xbe0f2858	-0.13980234
8	0x3d125b9d	0.0357319
9	0x3d9a60bc	0.07537982
10	0xbe94fa42	-0.29097182
11	0xbd2ddfd0	-0.042449772
12	0xbc4776d6	-0.012174329
13	0xbe277724	-0.16354042
14	0xbeb53070	-0.35388517
15	0xbe4e98d9	-0.20175494
16	0xbf09a121	-0.5376149
17	0xbe8cd3db	-0.27505383
18	0x3e1d9472	0.15388659
19	0x3dd6b94c	0.10484561
20	0x3e94ae95	0.29039446
21	0xbcbc6e84	-0.023001917
22	0xbd543748	-0.051810533
23	0xbd1b97a8	-0.037986428
24	0xbe6ecb74	-0.23319799
25	0x3d8e12cf	0.06937181
26	0xbe5c7db8	-0.21532333
27	0x3d802440	0.06256914
28	0xbd5de914	-0.05417736
29	0xbdda9446	-0.10672812
30	0x3e8d887d	0.27643195
31	0xbeccb116	-0.39978856
32	0xbd9879cc	-0.07445106
33	0x3e954e37	0.29161236
34	0xbe7b1bf2	-0.24522379
35	0xbe8635fe	-0.26213068
36	0x3d89432a	0.06702264
37	0x3df3258d	0.118723966
38	0x3cd68c96	0.026190083
39	0xbcd78f96	-0.026313584
40	0x3e4934f8	0.19649112
41	0xbe16927c	-0.14704317
42	0x3e2bebe3	0.16789202
43	0xbe965f78	-0.29369712
44	0x3d87fe07	0.06640249
45	0xbe8cb39b	-0.27480778
46	0x3e4a4405	0.1975251
47	0xbe5d98de	-0.21640345
48	0x3e5c1a91	0.2149451
49	0x3d1d9d4a	0.03848008
50	0xbd638b0c	-0.055552527
51	0x3e0c992a	0.13730302
52	0xbdc8cafb	-0.098043405
53	0x3e4f0e36	0.20220265
54	0xbe9e1300	-0.3087387
55	0xbe67ee30	-0.22649455
56	0x3d34a285	0.044100303
57	0xbc2cbaba	-0.010542566
58	0xbda06dfe	-0.07833479
59	0xbe4ae53c	-0.19814008
60	0x3db2e648	0.08735329
61	0xbebb4c84	-0.36581814
62	0xbf43ed59	-0.7653404
63	0x3e842add	0.25813952
64	0xbe46a4dc	-0.19398826
65	0xbe612dd3	-0.21990137
66	0xbd87b61c	-0.066265315
67	0x3e2dc0ae	0.16968033
68	0xbc23d947	-0.010000533
69	0xbb220abf	-0.0024725643
70	0x3e9dad6f	0.30796382
71	0xbe25c4ed	-0.16188402
72	0xbd2e3d08	-0.042538673
73	0x3cfbe4e4	0.030748792
74	0xbe9f66d9	-0.31133154
75	0x3d274794	0.040839747
76	0xbe444c5c	-0.19169754
77	0xbd3d0564	-0.04614772
78	0xbe2973e5	-0.16548117
79	0xbd745c38	-0.05965826
80	0x3da723e0	0.081611395
81	0xbe89ee89	-0.269398
82	0xbe2280ae	-0.158694
83	0xbe096bcf	-0.13420032
84	0x3e88cfb1	0.26720956
85	0x3e97828f	0.29591796
86	0xbe39d4c0	-0.18147564
87	0xbe99cdbb	-0.30039772
88	0x3e03cd02	0.12871173
89	0xbd05fdd1	-0.03271276
90	0x3c526038	0.012840323
91	0x3db2fc61	0.08739544
92	0x3e4004fe	0.18751904
93	0xbd4234ea	-0.047413744
94	0x3e4adf0b	0.19811647
95	0xbc25f3f4	-0.010128964
96	0x3e3bb7b7	0.183318
97	0x3c12cdba	0.008960182
98	0x3dac8701	0.084241875
99	0xbd8ec63c	-0.06971404
100	0xbda704ca	-0.0815521
101	0xbd10af7c	-0.035323605
102	0xbcaa2ded	-0.020773852
103	0xbd5a7d01	-0.05334187
104	0x3de2f1df	0.110812895
105	0xbe4d0cd5	-0.20024426
106	0xbe4867dd	-0.1957087
107	0xbdd63bdd	-0.10460637
108	0xbe8064f3	-0.25077018
109	0xbe0044f1	-0.12526299
110	0xbdbadac8	-0.091237605
111	0xbdc8f9c6	-0.098132655
112	0x3e78b452	0.24287537
113	0xbe9c8a3a	-0.30574208
114	0xbe1a39c1	-0.15061094
115	0xbe9948d8	-0.29938388
116	0x3e9f4895	0.31110063
117	0xbe9cc84a	-0.30621558
118	0xbe9b144a	-0.30288917
119	0xbe5bc506	-0.21461877
120	0xbe2f1178	-0.17096508
121	0x3de40b36	0.11134951
122	0x3d5bfb5d	0.053706516
123	0xbd98c490	-0.07459366
124	0xbca623d5	-0.020280758
125	0xbce484ca	-0.02789535
126	0xbe52ba12	-0.20578793
127	0x3c7a96f5	0.01529478
128	0xbe5e87bc	-0.21731466
129	0xbde7db91	-0.11321176
130	0x3e871735	0.26384893
131	0xbea9158a	-0.33024246
132	0xbe9163c4	-0.28396428
133	0x3b50dc63	0.0031869642
134	0x3d515c20	0.051113248
135	0xbeb54242	-0.35402113
136	0x3e581575	0.21101935
137	0x3de82aae	0.113362655
138	0xbdb59fab	-0.08868345
139	0x3db8d4c0	0.09024954
140	0x3e1ee696	0.15517649
141	0xbea6bcea	-0.32566005
142	0x3ca0d4d7	0.01963274
143	0x3e83d5c1	0.2574902
144	0xbe6bfcc6	-0.23045644
145	0xbdec4121	-0.1153586
146	0xbe879ead	-0.26488248
147	0x3cab599f	0.020916758
148	0x3d07d7c1	0.033164743
149	0x3d35b290	0.044359744
150	0x3da0df58	0.078550994
151	0x3ee661d2	0.44996506
152	0x3eb5d166	0.3551132
153	0xbecbab3e	-0.39779085
154	0x3da32bdc	0.0796735
155	0x3e470752	0.19436386
156	0xbd202525	-0.039097924
157	0xbd1d6114	-0.03842266
158	0xbe45c5ac	-0.19313687
159	0x3ca38f32	0.019965742
160	0x3cefc920	0.029270709
161	0xbe308dcb	-0.1724159
162	0xbf1ca67d	-0.6119154
163	0xbd58353a	-0.052785136
164	0x3e86ac54	0.2630335
165	0x3e6541ac	0.22388333
166	0x3e8e6472	0.2781101
167	0x3cd78f80	0.026313543
168	0x3b032912	0.0020013493
169	0xbe00e64e	-0.12587854
170	0x3e800e99	0.25011137
171	0x3e644972	0.22293642
172	0x3e06a542	0.13148978
173	0xbe5af290	-0.21381593
174	0x3dad0801	0.08448792
175	0xbdd65dc8	-0.10467106
176	0xbe47e654	-0.19521457
177	0xbe70ecb3	-0.23527794
178	0xbda06134	-0.0783104
179	0xbd92a96a	-0.071612194
180	0xbe833aad	-0.25630704
181	0xbe49da04	-0.19712073
182	0xbe1176e6	-0.14205512
183	0x3ca36d6c	0.019949637
184	0x3e342ebe	0.17595956
185	0xbdbda7c4	-0.092605144
186	0xbd29cfa6	-0.041457795
187	0xbd5abdda	-0.053403713
188	0x3d06848a	0.032841243
189	0xbdac0015	-0.08398453
190	0x3e0926ce	0.13393709
191	0x3e6139bb	0.21994679
192	0xbf2dc24b	-0.6787459
193	0x3eb003c7	0.34377882
194	0x3e499933	0.19687347
195	0x3dde6c69	0.10860521
196	0x3e6b5ba7	0.22984181
197	0xbe759212	-0.23981503
198	0x3d83ca6b	0.064350925
199	0x3da398f5	0.079881586
200	0xbdee1162	-0.11624409
201	0xbe6ee000	-0.23327637
202	0xbe8776d3	-0.26457843
203	0x3de7fcd5	0.11327521
204	0xbe35b604	-0.17745215
205	0xbe61208e	-0.21985075
206	0xbde5a165	-0.11212424
207	0xbe96cb9e	-0.29452223
208	0xbe66d290	-0.2254126
209	0x3e029b22	0.12754491
210	0x3db8afe8	0.090179265
211	0x3d829132	0.0637535
212	0xbdc65397	-0.09683912
213	0xbdafeb3e	-0.08589791
214	0xbe92ea5f	-0.28694436
215	0x3d878e8d	0.06618986
216	0x3d579445	0.052631635
217	0x3d6494de	0.055806033
218	0x3e12116e	0.14264461
219	0xbdae1bbe	-0.08501385
220	0x3e5d4dea	0.21611753
221	0xbee18023	-0.44043073
222	0xbdc9e5b4	-0.098582655
223	0x3e86d10b	0.26331362
224	0xbd847103	-0.06466868
225	0xbde5551a	-0.111978725
226	0x3e381dd4	0.17980129
227	0x3dc9fe45	0.09862951
228	0x3b892520	0.004185334
229	0x3c10330b	0.008801232
230	0xbe6f8b02	-0.23392871
231	0x3dabfb21	0.083975084
232	0xbc86ce02	-0.016455654
233	0xbe0cd4fe	-0.13753125
234	0xbd3e9030	-0.046524227
235	0x3e893d75	0.268047
236	0x3d2fb754	0.042899445
237	0xbdda2ba1	-0.10652853
238	0xbcdcc92f	-0.0269514
239	0xbd44bb85	-0.048030395
240	0xbe58d5b4	-0.21175271
241	0x3e5b1e78	0.21398342
242	0x3e9de883	0.30841455
243	0x3e05f744	0.13082606
244	0x3e8ee2b7	0.27907345
245	0x3e949a4b	0.29023966
246	0xbd437522	-0.04771913
247	0x3d716ff9	0.058944676
248	0x3d0bce9e	0.034132592
249	0xbf328486	-0.69733465

fc1.bias f4 [25]
0	0xbd4c890a	-0.049935378
1	0x3ea2cc71	0.317966
2	0xbe10f3da	-0.14155522
3	0x3e2ea72d	0.1705596
4	0xbe7a6d46	-0.24455747
5	0x3ded3d5b	0.11583968
6	0x3f017d5f	0.50581926
7	0xbe63d288	-0.2224828
8	0xbe767293	-0.24067144
9	0xbda43d89	-0.080195494
10	0x3e967138	0.29383254
11	0xbe4af1f1	-0.19818856
12	0xbe2415c0	-0.16023922
13	0xbe8c341f	-0.27383515
14	0x3e0b5761	0.13607551
15	0x3cbd5e4c	0.023116253
16	0x3db1080b	0.08644112
17	0xbd96aa02	-0.07356645
18	0xbbeabedf	-0.007163867
19	0xbd8acc27	-0.0677722
20	0x3dce79df	0.10081839
21	0xbe65cd2d	-0.2244155
22	0x3d0da40e	0.034580283
23	0x3da593da	0.08084841
24	0xbce90873	-0.028446412

fc2.weight f4 [2, 25]
0	0x3e451b60	0.19248724
1	0x3e99fa0d	0.30073586
2	0x3cea2c70	0.028585643
3	0x3d7bd72e	0.06148451
4	0xbe23f00e	-0.16009542
5	0x3d840c5d	0.064476706
6	0x3f044e1a	0.51681674
7	0xbdb815d7	-0.089885406
8	0xbe218745	-0.15774257
9	0x3c96b23c	0.018395536
10	0xbdf40655	-0.1191527
11	0xbd21bc78	-0.03948638
12	0x3df3cd7d	0.11904428
13	0x3e84b2cd	0.25917664
14	0x3dc569ba	0.09639306
15	0xbdb30a1c	-0.087421626
16	0x3e92f884	0.28705227
17	0xbde489cc	-0.11159095
18	0xbd5e5337	-0.05427858
19	0x3ed42e3d	0.41441527
20	0xbd3e2cf8	-0.046429604
21	0x3bbf9c4e	0.0058474904
22	0xbd4a6cb8	-0.04942009
23	0x3d93964d	0.07206402
24	0xbee13aed	-0.4399027
25	0x3d635e72	0.055509992
26	0xbe187950	-0.14890027
27	0xbe12aaf6	-0.14323029
28	0xbe962fe0	-0.293334
29	0xbd8fcb71	-0.07021225
30	0x3d0720c3	0.03299023
31	0xbe8a490f	-0.27008864
32	0x3c3ec794	0.011644263
33	0xbb95776f	-0.0045613567
34	0x3e1c635e	0.1527228
35	0xbd022814	-0.031776503
36	0x3de93063	0.11386182
37	0xbe3480ed	-0.17627306
38	0x3b8a0e06	0.0042130975
39	0xbe3d934e	-0.18513224
40	0x3eaf0078	0.34180045
41	0xbe9033cf	-0.28164527
42	0x3d47be00	0.048765182
43	0x3e2ac943	0.16678338
44	0xbda9824d	-0.08276806
45	0x3ddde480	0.108345985
46	0x3e4627a2	0.19351056
47	0xbeab6924	-0.33478653
48	0xbd3bc663	-0.045843493
49	0x3e5fa3c1	0.21839811

fc2.bias f4 [2]
0	0x3f163d31	0.5868712
1	0xbebcdc30	-0.3688674

ax f4 [25, 10]
0	0xbe886b6d	-0.2664446
1	0xbd55e541	-0.052220587
2	0xbda4b506	-0.0804234
3	0x3d421d79	0.04739139
4	0x3d6a3388	0.05717805
5	0xbdbd38a7	-0.09239321
6	0x3d85e95e	0.06538652
7	0xbe0f2858	-0.13980234
8	0x3d125b9d	0.0357319
9	0x3d9a60bc	0.07537982
10	0xbe94fa42	-0.29097182
11	0xbd2ddfd0	-0.042449772
12	0xbc4776d6	-0.012174329
13	0xbe277724	-0.16354042
14	0xbeb53070	-0.35388517
15	0xbe4e98d9	-0.20175494
16	0xbf09a121	-0.5376149
17	0xbe8cd3db	-0.27505383
18	0x3e1d9472	0.15388659
19	0x3dd6b94c	0.10484561
20	0x3e94ae95	0.29039446
21	0xbcbc6e84	-0.023001917
22	0xbd543748	-0.051810533
23	0xbd1b97a8	-0.037986428
24	0xbe6ecb74	-0.23319799
25	0x3d8e12cf	0.06937181
26	0xbe5c7db8	-0.21532333
27	0x3d802440	0.06256914
28	0xbd5de914	-0.05417736
29	0xbdda9446	-0.10672812
30	0x3e8d887d	0.27643195
31	0xbeccb116	-0.39978856
32	0xbd9879cc	-0.07445106
33	0x3e954e37	0.29161236
34	0xbe7b1bf2	-0.24522379
35	0xbe8635fe	-0.26213068
36	0x3d89432a	0.06702264
37	0x3df3258d	0.118723966
38	0x3cd68c96	0.026190083
39	0xbcd78f96	-0.026313584
40	0x3e4934f8	0.19649112
41	0xbe16927c	-0.14704317
42	0x3e2bebe3	0.16789202
43	0xbe965f78	-0.29369712
44	0x3d87fe07	0.06640249
45	0xbe8cb39b	-0.27480778
46	0x3e4a4405	0.1975251
47	0xbe5d98de	-0.21640345
48	0x3e5c1a91	0.2149451
49	0x3d1d9d4a	0.03848008
50	0xbd638b0c	-0.055552527
51	0x3e0c992a	0.13730302
52	0xbdc8cafb	-0.098043405
53	0x3e4f0e36	0.20220265
54	0xbe9e1300	-0.3087387
55	0xbe67ee30	-0.22649455
56	0x3d34a285	0.044100303
57	0xbc2cbaba	-0.010542566
58	0xbda06dfe	-0.07833479
59	0xbe4ae53c	-0.19814008
60	0x3db2e648	0.08735329
61	0xbebb4c84	-0.36581814
62	0xbf43ed59	-0.7653404
63	0x3e842add	0.25813952
64	0xbe46a4dc	-0.19398826
65	0xbe612dd3	-0.21990137
66	0xbd87b61c	-0.066265315
67	0x3e2dc0ae	0.16968033
68	0xbc23d947	-0.010000533
69	0xbb220abf	-0.0024725643
70	0x3e9dad6f	0.30796382
71	0xbe25c4ed	-0.16188402
72	0xbd2e3d08	-0.042538673
73	0x3cfbe4e4	0.030748792
74	0xbe9f66d9	-0.31133154
75	0x3d274794	0.040839747
76	0xbe444c5c	-0.19169754
77	0xbd3d0564	-0.04614772
78	0xbe2973e5	-0.16548117
79	0xbd745c38	-0.05965826
80	0x3da723e0	0.081611395
81	0xbe89ee89	-0.269398
82	0xbe2280ae	-0.158694
83	0xbe096bcf	-0.13420032
84	0x3e88cfb1	0.26720956
85	0x3e97828f	0.29591796
86	0xbe39d4c0	-0.18147564
87	0xbe99cdbb	-0.30039772
88	0x3e03cd02	0.12871173
89	0xbd05fdd1	-0.03271276
90	0x3c526038	0.012840323
91	0x3db2fc61	0.08739544
92	0x3e4004fe	0.18751904
93	0xbd4234ea	-0.047413744
94	0x3e4adf0b	0.19811647
95	0xbc25f3f4	-0.010128964
96	0x3e3bb7b7	0.183318
97	0x3c12cdba	0.008960182
98	0x3dac8701	0.084241875
99	0xbd8ec63c	-0.06971404
100	0xbda704ca	-0.0815521
101	0xbd10af7c	-0.035323605
102	0xbcaa2ded	-0.020773852
103	0xbd5a7d01	-0.05334187
104	0x3de2f1df	0.110812895
105	0xbe4d0cd5	-0.20024426
106	0xbe4867dd	-0.1957087
107	0xbdd63bdd	-0.10460637
108	0xbe8064f3	-0.25077018
109	0xbe0044f1	-0.12526299
110	0xbdbadac8	-0.091237605
111	0xbdc8f9c6	-0.098132655
112	0x3e78b452	0.24287537
113	0xbe9c8a3a	-0.30574208
114	0xbe1a39c1	-0.15061094
115	0xbe9948d8	-0.29938388
116	0x3e9f4895	0.31110063
117	0xbe9cc84a	-0.30621558
118	0xbe9b144a	-0.30288917
119	0xbe5bc506	-0.21461877
120	0xbe2f1178	-0.17096508
121	0x3de40b36	0.11134951
122	0x3d5bfb5d	0.053706516
123	0xbd98c490	-0.07459366
124	0xbca623d5	-0.020280758
125	0xbce484ca	-0.02789535
126	0xbe52ba12	-0.20578793
127	0x3c7a96f5	0.01529478
128	0xbe5e87bc	-0.21731466
129	0xbde7db91	-0.11321176
130	0x3e871735	0.26384893
131	0xbea9158a	-0.33024246
132	0xbe9163c4	-0.28396428
133	0x3b50dc63	0.0031869642
134	0x3d515c20	0.051113248
135	0xbeb54242	-0.35402113
136	0x3e581575	0.21101935
137	0x3de82aae	0.113362655
138	0xbdb59fab	-0.08868345
139	0x3db8d4c0	0.09024954
140	0x3e1ee696	0.15517649
141	0xbea6bcea	-0.32566005
142	0x3ca0d4d7	0.01963274
143	0x3e83d5c1	0.2574902
144	0xbe6bfcc6	-0.23045644
145	0xbdec4121	-0.1153586
146	0xbe879ead	-0.26488248
147	0x3cab599f	0.020916758
148	0x3d07d7c1	0.033164743
149	0x3d35b290	0.044359744
150	0x3da0df58	0.078550994
151	0x3ee661d2	0.44996506
152	0x3eb5d166	0.3551132
153	0xbecbab3e	-0.39779085
154	0x3da32bdc	0.0796735
155	0x3e470752	0.19436386
156	0xbd202525	-0.039097924
157	0xbd1d6114	-0.03842266
158	0xbe45c5ac	-0.19313687
159	0x3ca38f32	0.019965742
160	0x3cefc920	0.029270709
161	0xbe308dcb	-0.1724159
162	0xbf1ca67d	-0.6119154
163	0xbd58353a	-0.052785136
164	0x3e86ac54	0.2630335
165	0x3e6541ac	0.22388333
166	0x3e8e6472	0.2781101
167	0x3cd78f80	0.026313543
168	0x3b032912	0.0020013493
169	0xbe00e64e	-0.12587854
170	0x3e800e99	0.25011137
171	0x3e644972	0.22293642
172	0x3e06a542	0.13148978
173	0xbe5af290	-0.21381593
174	0x3dad0801	0.08448792
175	0xbdd65dc8	-0.10467106
176	0xbe47e654	-0.19521457
177	0xbe70ecb3	-0.23527794
178	0xbda06134	-0.0783104
179	0xbd92a96a	-0.071612194
180	0xbe833aad	-0.25630704
181	0xbe49da04	-0.19712073
182	0xbe1176e6	-0.14205512
183	0x3ca36d6c	0.019949637
184	0x3e342ebe	0.17595956
185	0xbdbda7c4	-0.092605144
186	0xbd29cfa6	-0.041457795
187	0xbd5abdda	-0.053403713
188	0x3d06848a	0.032841243
189	0xbdac0015	-0.08398453
190	0x3e0926ce	0.13393709
191	0x3e6139bb	0.21994679
192	0xbf2dc24b	-0.6787459
193	0x3eb003c7	0.34377882
194	0x3e499933	0.19687347
195	0x3dde6c69	0.10860521
196	0x3e6b5ba7	0.22984181
197	0xbe759212	-0.23981503
198	0x3d83ca6b	0.064350925
199	0x3da398f5	0.079881586
200	0xbdee1162	-0.11624409
201	0xbe6ee000	-0.23327637
202	0xbe8776d3	-0.26457843
203	0x3de7fcd5	0.11327521
204	0xbe35b604	-0.17745215
205	0xbe61208e	-0.21985075
206	0xbde5a165	-0.11212424
207	0xbe96cb9e	-0.29452223
208	0xbe66d290	-0.2254126
209	0x3e029b22	0.12754491
210	0x3db8afe8	0.090179265
211	0x3d829132	0.0637535
212	0xbdc65397	-0.09683912
213	0xbdafeb3e	-0.08589791
214	0xbe92ea5f	-0.28694436
215	0x3d878e8d	0.06618986
216	0x3d579445	0.052631635
217	0x3d6494de	0.055806033
218	0x3e12116e	0.14264461
219	0xbdae1bbe	-0.08501385
220	0x3e5d4dea	0.21611753
221	0xbee18023	-0.44043073
222	0xbdc9e5b4	-0.098582655
223	0x3e86d10b	0.26331362
224	0xbd847103	-0.06466868
225	0xbde5551a	-0.111978725
226	0x3e381dd4	0.17980129
227	0x3dc9fe45	0.09862951
228	0x3b892520	0.004185334
229	0x3c10330b	0.008801232
230	0xbe6f8b02	-0.23392871
231	0x3dabfb21	0.083975084
232	0xbc86ce02	-0.016455654
233	0xbe0cd4fe	-0.13753125
234	0xbd3e9030	-0.046524227
235	0x3e893d75	0.268047
236	0x3d2fb754	0.042899445
237	0xbdda2ba1	-0.10652853
238	0xbcdcc92f	-0.0269514
239	0xbd44bb85	-0.048030395
240	0xbe58d5b4	-0.21175271
241	0x3e5b1e78	0.21398342
242	0x3e9de883	0.30841455
243	0x3e05f744	0.13082606
244	0x3e8ee2b7	0.27907345
245	0x3e949a4b	0.29023966
246	0xbd437522	-0.04771913
247	0x3d716ff9	0.058944676
248	0x3d0bce9e	0.034132592
249	0xbf328486	-0.69733465

ax f4 [25]
0	0xbd4c890a	-0.049935378
1	0x3ea2cc71	0.317966
2	0xbe10f3da	-0.14155522
3	0x3e2ea72d	0.1705596
4	0xbe7a6d46	-0.24455747
5	0x3ded3d5b	0.11583968
6	0x3f017d5f	0.50581926
7	0xbe63d288	-0.2224828
8	0xbe767293	-0.24067144
9	0xbda43d89	-0.080195494
10	0x3e967138	0.29383254
11	0xbe4af1f1	-0.19818856
12	0xbe2415c0	-0.16023922
13	0xbe8c341f	-0.27383515
14	0x3e0b5761	0.13607551
15	0x3cbd5e4c	0.023116253
16	0x3db1080b	0.08644112
17	0xbd96aa02	-0.07356645
18	0xbbeabedf	-0.007163867
19	0xbd8acc27	-0.0677722
20	0x3dce79df	0.10081839
21	0xbe65cd2d	-0.2244155
22	0x3d0da40e	0.034580283
23	0x3da593da	0.08084841
24	0xbce90873	-0.028446412

ax f4 [2, 25]
0	0x3e451b60	0.19248724
1	0x3e99fa0d	0.30073586
2	0x3cea2c70	0.028585643
3	0x3d7bd72e	0.06148451
4	0xbe23f00e	-0.16009542
5	0x3d840c5d	0.064476706
6	0x3f044e1a	0.51681674
7	0xbdb815d7	-0.089885406
8	0xbe218745	-0.15774257
9	0x3c96b23c	0.018395536
10	0xbdf40655	-0.1191527
11	0xbd21bc78	-0.03948638
12	0x3df3cd7d	0.11904428
13	0x3e84b2cd	0.25917664
14	0x3dc569ba	0.09639306
15	0xbdb30a1c	-0.087421626
16	0x3e92f884	0.28705227
17	0xbde489cc	-0.11159095
18	0xbd5e5337	-0.05427858
19	0x3ed42e3d	0.41441527
20	0xbd3e2cf8	-0.046429604
21	0x3bbf9c4e	0.0058474904
22	0xbd4a6cb8	-0.04942009
23	0x3d93964d	0.07206402
24	0xbee13aed	-0.4399027
25	0x3d635e72	0.055509992
26	0xbe187950	-0.14890027
27	0xbe12aaf6	-0.14323029
28	0xbe962fe0	-0.293334
29	0xbd8fcb71	-0.07021225
30	0x3d0720c3	0.03299023
31	0xbe8a490f	-0.27008864
32	0x3c3ec794	0.011644263
33	0xbb95776f	-0.0045613567
34	0x3e1c635e	0.1527228
35	0xbd022814	-0.031776503
36	0x3de93063	0.11386182
37	0xbe3480ed	-0.17627306
38	0x3b8a0e06	0.0042130975
39	0xbe3d934e	-0.18513224
40	0x3eaf0078	0.34180045
41	0xbe9033cf	-0.28164527
42	0x3d47be00	0.048765182
43	0x3e2ac943	0.16678338
44	0xbda9824d	-0.08276806
45	0x3ddde480	0.108345985
46	0x3e4627a2	0.19351056
47	0xbeab6924	-0.33478653
48	0xbd3bc663	-0.045843493
49	0x3e5fa3c1	0.21839811

ax f4 [2]
0	0x3f163d31	0.5868712
1	0xbebcdc30	-0.3688674
