save/new.pt (torch_old, 98406 bytes, 18 tensors)

fc1.weight f4 [105, 9]
000000 1f 60 03 3e 2f e9 d8 bd 21 9a 13 3f 25 be 44 3e
       0.12829636 -0.10591351 0.5765706 0.1921316
000010 c7 a5 f1 be cc a6 f3 be a8 68 e9 3e b2 33 4a be
       -0.4719679 -0.47588193 0.4558766 -0.19746283
000020 84 46 a2 3c 90 a5 ff 3a ca 07 38 3d c4 69 9c 3e
       0.019809015 0.0019504298 0.044929303 0.30549443
000030 70 45 6c 3f 69 de ce be 1b ed 09 3e ab f8 50 be
       0.92293453 -0.4040406 0.13469355 -0.2040736
000040 a2 7f f6 3c e0 15 8e 3c d3 c8 aa bd 5f 3f a0 3e
       0.030090157 0.017344415 -0.083390854 0.31298348
000050 e0 47 12 be 50 df 74 3e 37 15 7a 3e 87 cc 57 3d
       -0.1428523 0.23913312 0.24422155 0.052685287
000060 7b fd 41 3e 4a de d8 bc 8d d2 b3 be e3 42 4a be
       0.18944351 -0.026473183 -0.35121575 -0.19752078
000070 70 8a e1 bd 00 74 9d 3b 08 eb 0c be 00 a7 c0 3a
       -0.11012733 0.004805088 -0.13761532 0.0014698207
000080 c8 7d 7f be 82 0c 15 3e 98 80 0a bd fc 50 e0 bd
       -0.24950325 0.14555553 -0.033814043 -0.109529465
000090 cf d6 85 be 2a 80 ba be 68 07 50 bf ae fa 20 3f
       -0.26140448 -0.36425906 -0.812613 0.62882507
0000a0 1f 16 c2 bd c5 1f d3 bc 20 7c 18 be 4a 38 e2 3b
       -0.094768755 -0.025771985 -0.148911 0.006903683
0000b0 10 5e a9 3d 14 9b 16 be 86 e0 b2 be 29 67 23 3e
       0.08269894 -0.14707595 -0.34936923 0.15957321
0000c0 d5 57 31 be 17 74 a6 be 6c 0b 42 3e 40 72 41 3e
       -0.17318662 -0.32510445 0.1894967 0.18891239
0000d0 8a 7a 84 bd d2 b1 e5 be 15 be 6a 3e 06 70 af be
       -0.06468685 -0.4486223 0.22924073 -0.34265155
0000e0 b5 20 8b bf 75 6f 38 3e d5 54 4c be 56 36 4c 3d
       -1.0869356 0.18011267 -0.19954236 0.049856506
0000f0 0a 20 d5 bd 23 8e 33 3e 48 11 1f 3d f8 ae 40 3e
       -0.104065016 0.1753469 0.03883484 0.18816745
000100 d6 9a dd bd 59 98 2c 3f c8 30 bc bd 14 b6 f6 3d
       -0.10820548 0.67419964 -0.09188992 0.120464474
000110 db 92 58 be 82 13 46 be 8a 61 96 3e 59 9d 02 be
       -0.21149771 -0.19343379 0.2937129 -0.12755336
000120 dd 55 d0 3d 54 2b 42 3e a0 a0 c3 3e 24 6a 42 3f
       0.10172627 0.18961841 0.38208485 0.7594321
000130 8a 82 89 be 09 77 ff bd 0c 51 8a bd 0f a3 13 3e
       -0.26857406 -0.12473876 -0.0675374 0.1441767
000140 3c 1e c0 bd c3 71 9b 3e 3a 68 ba be 08 01 57 be
       -0.09380767 0.3036023 -0.36407644 -0.20996487
000150 d9 ac 25 bf ac 9b f2 3c 9c 0b 7c 3e 5e 2c 5d 39
       -0.6471687 0.029615246 0.24613804 0.0002109273
000160 ac 8c f2 be 19 ee a8 3c 52 56 52 3d 0d bd 32 3e
       -0.4737295 0.020621346 0.051351853 0.1745493
000170 e7 42 4f bd b4 99 dd 3e bc c7 e7 be d6 f2 f3 3d
       -0.050600912 0.4328133 -0.45269573 0.11911552
000180 a8 2d 34 bf 92 e2 a2 3d 0c c6 92 bd c8 43 71 3e
       -0.70382166 0.07953371 -0.07166681 0.23561013
000190 e4 9c 5a 3e 2a a1 5e 3e 26 16 73 3f 21 fd 03 bf
       0.21348912 0.21741167 0.9495567 -0.5155812
0001a0 5d 79 db bd 62 d4 1f bd 85 df fc 3b 83 1b 98 3c
       -0.107165076 -0.039020903 0.0077170753 0.018567806
0001b0 41 e9 0a 3d ad f0 b0 3e 24 fc 32 3e 38 3d 0a 3f
       0.033913855 0.3455862 0.17478997 0.5399966
0001c0 23 c1 26 bf eb eb 68 be 15 6c c4 bd 0c 5b b2 3e
       -0.65138453 -0.22746246 -0.095909275 0.34835088
0001d0 b7 57 23 be 3a 77 5c bf 85 39 7c bc 55 f7 b0 3e
       -0.1595143 -0.86119425 -0.015394573 0.345637
0001e0 44 05 72 bf e5 2a 4e 3e 3a 2f 12 3e c8 95 07 3e
       -0.94539285 0.2013355 0.14275828 0.13240731
0001f0 04 bb e2 3d cd 58 43 be b3 7d 85 bb b2 00 0c 3f
       0.11070827 -0.19076844 -0.0040738224 0.5468856
000200 a8 f2 dc 3d c8 bf 20 be cd a6 40 3e 71 d1 e5 be
       0.107884705 -0.15698159 0.1881363 -0.44886354
000210 7a fe 87 3e c8 d8 05 be fd b7 f9 bc 39 14 76 3e
       0.26561338 -0.13070977 -0.03048324 0.24031152
000220 56 b6 c8 be 57 bf 3f bd d1 3b 31 3f 21 a1 53 be
       -0.3920161 -0.046813335 0.692319 -0.20666935
000230 d9 f7 2d be 3d 3a 96 3e 63 f1 87 bd 72 19 51 bd
       -0.16989078 0.29341307 -0.06637838 -0.051049657
000240 09 fe 4e 3e a6 1d ce bd b5 53 b3 3e d3 3a 8a 3f
       0.20214094 -0.10064249 0.350248 1.0799202
000250 4c ce 0f bc a8 8e 92 bc f3 b2 f7 bd c9 cb 60 bd
       -0.008777212 -0.01789029 -0.12094679 -0.054881845
000260 03 be e2 3a a0 ab b9 be fd ff a4 be ab 9f 03 3e
       0.001729906 -0.36263752 -0.32226554 0.12853877
000270 a1 08 94 3e 21 d2 9e 3c 85 fd 4a be 4b a6 1a 3e
       0.28912833 0.019387307 -0.19823273 0.15102498
000280 83 e0 30 3e 36 8b 78 3d fd a5 82 be 73 b8 c2 3c
       0.17273144 0.060679637 -0.25517264 0.023769593
000290 88 58 24 3f a1 7e 0a 3f a9 3a 2b bf 9a 09 c6 be
       0.6419759 0.5409947 -0.66886383 -0.386792
0002a0 c3 1b 18 be bf 17 99 bd 2d d4 45 3e 1b 11 8b 3d
       -0.1485434 -0.07475232 0.1931922 0.06790372
0002b0 b8 73 bf 3e 9b 25 f6 3e 91 6e f4 bb 04 c2 85 3e
       0.37392974 0.48075566 -0.0074594696 0.26124585
0002c0 c0 18 e3 be 1b 14 77 3e c0 48 d9 bd 3f e3 ea bd
       -0.4435482 0.24128763 -0.10609579 -0.11469125
0002d0 99 b9 a2 be 7a 69 a1 3d 7a b4 e0 be 0c da 11 3f
       -0.31782225 0.07881446 -0.43887693 0.5697334
0002e0 d7 29 d9 bd d9 ef 5b be c2 a9 89 bd 30 5b 85 3e
       -0.106036834 -0.21478213 -0.06721832 0.26046133
0002f0 07 86 86 bd 57 9e 15 be ab 4c c0 38 42 da af 3e
       -0.065685324 -0.14611183 9.169554e-05 0.34346205
000300 55 bd 53 bf 50 2e 30 3e 2a 6c 38 3e 0b c5 0d 3e
       -0.8271077 0.17205167 0.18010011 0.13844697
000310 96 50 c4 be 93 f5 21 be e8 4d f4 bd 91 b9 56 3e
       -0.38342732 -0.15816335 -0.11928922 0.20969225
000320 4f 48 d2 3e a6 f0 8a bd ae 77 ab 3e 5b 17 bb bd
       0.41070792 -0.06784181 0.33489746 -0.09135314
000330 d4 1a aa bc a9 08 79 be a9 e1 0b be 18 9f c9 3e
       -0.020764746 -0.2431971 -0.13660301 0.3937919
000340 b6 87 c2 3c 6d 0d 35 bf 32 cc ec bf 91 49 d6 bb
       0.023746353 -0.7072361 -1.8499815 -0.0065395315
000350 b0 94 f1 3c 71 e6 2e be cf 70 1e be 65 c7 0e 3e
       0.029489845 -0.17080094 -0.1547272 0.1394325
000360 b9 27 a9 3e 9f 8a 7b be b9 3f 8c 3e 2a e8 84 be
       0.33038118 -0.24564599 0.27392367 -0.25958377
000370 08 28 39 be ff f8 16 be 2d 24 07 3c 21 af 5a bf
       -0.18081677 -0.14743422 0.008248371 -0.85423476
000380 4a a2 38 3e 6c 6f 7a be 00 0b 64 be ef 6e 59 bd
       0.18030658 -0.24456567 -0.22269821 -0.05308431
000390 c3 94 5e 3f 73 ba 81 3d 5b fc 23 be cf 54 34 be
       0.8694574 0.063343905 -0.16014235 -0.17610477
0003a0 96 c3 db bc 29 2c 40 3e f8 8d 89 be 63 67 37 be
       -0.026826661 0.18766846 -0.26866126 -0.17910533
0003b0 20 87 05 3c 60 5e 33 bd 0e 56 32 be 40 42 80 3b
       0.008149892 -0.043791175 -0.1741564 0.0039141476
0003c0 c0 b9 26 bd cb 4c 4e be 20 2d 6a bc e7 7a cd be
       -0.04070449 -0.20146482 -0.014292985 -0.4013283
0003d0 4c 95 a7 3d 62 c1 4b bd e0 6a 09 3f fa f2 2a be
       0.08182773 -0.04974497 0.53678703 -0.1669425
0003e0 27 dd 66 be 7f 56 25 bd a2 03 37 3e 5f e3 f4 bc
       -0.225453 -0.040365692 0.1787248 -0.029893575
0003f0 40 42 df bc ed dd e3 3e 82 ec e6 be 1d e4 27 3f
       -0.02725327 0.44505253 -0.45102316 0.6558245

fc1.bias f4 [105]
000000 f5 76 c6 bd 3b 70 c6 be 7f 44 76 3e 06 e5 af bd
       -0.09690658 -0.387575 0.24049567 -0.08588605
000010 e9 99 d4 3e 38 79 5c bc a2 f3 3d bd a0 6c 1b be
       0.41523674 -0.013456635 -0.046374924 -0.15178156
000020 3c 20 c4 bb 83 46 bc be 88 ad c5 3d fc 5b cb 3c
       -0.005985288 -0.36772546 0.09652239 0.024824135
000030 b6 37 1a 3e ca 63 ef bd 78 82 07 bd a1 4d bb 3e
       0.15060315 -0.11688955 -0.03308341 0.36582664
000040 14 f2 1e be f2 ae 8d 3d 02 83 f0 be 87 bf 1c 3f
       -0.15522033 0.06918134 -0.4697495 0.6122975
000050 d3 46 7e be 2d cd 85 3d 9c ea 37 bd e1 f1 44 bf
       -0.24831705 0.06533275 -0.044901475 -0.7693158
000060 a0 f7 47 be cb b1 29 3e 73 f0 7d be e0 c5 77 3d
       -0.19528055 0.16571729 -0.24798755 0.060491443
000070 db 23 99 3e 71 41 bd bd c1 9f b1 be 98 1f c0 3c
       0.29910168 -0.092409976 -0.34692195 0.023452565
000080 f3 e7 23 3e ea b5 c1 3d 28 6a 7b 3e a2 fe 5f 3e
       0.1600645 0.094585255 0.24552214 0.21874478
000090 72 de e6 3d f5 ff 06 3e 27 13 c5 be ca 4a 56 be
       0.11272897 0.13183577 -0.38491175 -0.20926967
0000a0 de 44 68 3d 36 ed 5e be 92 d0 fa bc 0b 1c 01 be
       0.056706302 -0.21770176 -0.030617032 -0.12608354
0000b0 cb 0c a5 be 50 0d 9e 3c 98 f0 0b 3e cf 53 41 3e
       -0.32236323 0.019293457 0.13665998 0.18879627
0000c0 9c ef 71 be 75 b7 9a 3e 23 3a d1 3e ef ac 58 bd
       -0.2362656 0.30218092 0.40864667 -0.052899297
0000d0 76 38 0b be f4 2b a4 bd 2a 8b d3 be 54 1c d9 bb
       -0.13595757 -0.08016196 -0.4131711 -0.0066256914
0000e0 31 c3 6c bf 69 20 0c bf f8 52 fd 3d 6f 46 79 3c
       -0.9248534 -0.54736954 0.12369341 0.015214547
0000f0 8b 2d 04 3f cd a3 21 3e 45 1e d6 3e 46 35 f8 3d
       0.51631993 0.15785141 0.4181997 0.12119536
000100 80 3e aa 3e 13 6a 3f be 28 61 14 3e 93 87 88 be
       0.3325081 -0.18692808 0.14490187 -0.26665935
000110 dd 19 88 be 50 79 54 3e 1c 23 19 3f bf 96 87 3d
       -0.26582232 0.20749402 0.598192 0.066205494
000120 39 5c 94 be 14 c5 e6 3d 72 1d 6e 3d 40 00 b1 3d
       -0.2897661 0.112680584 0.05813355 0.08642626
000130 90 fe 59 be ac 81 87 be 8b 16 f8 3d f9 e4 ba 3d
       -0.21288514 -0.2646612 0.12113675 0.09125704
000140 d4 cf 9b 3d 8a 07 88 be dc 71 b4 be 34 d2 96 3e
       0.076079994 -0.26568252 -0.35243118 0.29457247
000150 fb 92 7d be 3e 59 0d bd 3f b2 60 be b4 47 2c bf
       -0.247631 -0.034508936 -0.21942995 -0.6729691
000160 58 31 a0 be a5 a5 ab 3e ce 90 76 be 84 8c fb be
       -0.31287646 0.33524814 -0.24078676 -0.49130642
000170 42 86 a6 be bc d7 3d bf cd 95 18 be 32 95 8f 3e
       -0.32524306 -0.7415731 -0.14900894 0.28043514
000180 33 05 ab be 5d 88 c4 be b7 21 88 be 0f 38 a5 be
       -0.33402404 -0.38385287 -0.26588222 -0.32269332
000190 22 19 76 3e 00 0f 80 3a 02 fc 2f b9 02 09 dd 3c
       0.24033025 0.0009770095 -0.00016783181 0.026981834
0001a0 29 4f 3f 3d
       0.046706352

fc2.weight f4 [64, 105]
000000 80 9c 54 be 7f 1f 0d be 8d 14 69 3d d1 d7 9a 3d
       -0.20762825 -0.13781546 0.056904364 0.07560695
000010 88 cb 92 3e b2 3f 5e bd 54 c4 1e be 31 aa 1b 3e
       0.28670907 -0.054259963 -0.1550458 0.15201642
000020 24 4e 96 3c dd 41 10 3d e3 49 d7 bd c2 86 4f 3d
       0.018347807 0.035219062 -0.1051214 0.050665624
000030 73 10 a4 3d 75 74 f6 bb f5 fb a3 be 96 0e e1 bd
       0.0801095 -0.007521207 -0.32028165 -0.1098911
000040 91 1c a9 3c 60 83 a0 bd 14 72 54 be 49 b8 f5 3b
       0.020643504 -0.07837558 -0.20746642 0.007498775
000050 d5 85 77 3e 17 c3 a1 3d 98 03 11 3f 0d 73 35 bc
       0.24172147 0.078985386 0.5664611 -0.0110747935
000060 38 da 53 3e 8a 8e 87 3d 64 2a a6 bd 69 54 8b 3f
       0.20688713 0.06618984 -0.08113554 1.0885135
000070 c3 29 94 3c e4 9f aa be a1 bb 24 3d 34 d0 f5 bd
       0.01808632 -0.33325112 0.040218 -0.12002602
000080 60 85 20 bd d5 e0 0e bd 92 6d d4 3c 0f c4 cc bd
       -0.039189696 -0.034882385 0.025931153 -0.09998333
000090 75 05 a3 3e df 8a f6 3d c9 4f 19 bd 6c 0b a0 be
       0.318401 0.12038206 -0.037429605 -0.31258714
0000a0 63 67 1b bf cb 58 53 3d fe 81 32 3d 68 ec d9 3d
       -0.6070463 0.05159835 0.043581 0.10640794
0000b0 44 3e 25 3e b5 d1 3c bd 8f 89 3d be 75 a7 8d be
       0.16137034 -0.04609843 -0.18509506 -0.27666822
0000c0 8f eb 1f 3d 85 64 fc bd 60 8a c4 bd 5c 17 4d 3e
       0.039043006 -0.1232386 -0.095967054 0.20028442
0000d0 8f 86 8b bd 4d 61 97 3f 18 62 61 bc ac b6 aa bc
       -0.068127744 1.1826569 -0.0137562975 -0.020839058
0000e0 e8 03 7d be 09 58 ce 3d 4d 34 1a bf c6 1e 0c be
       -0.24708521 0.10075385 -0.60236055 -0.13683614
0000f0 59 73 bd be a3 c7 cc 3d 1f 58 18 bf 54 a4 96 bc
       -0.37002066 0.09999015 -0.5950946 -0.018388905
000100 de b4 91 3c 83 5b 85 bd 77 bd 17 bc d5 6d 4a 3d
       0.01778644 -0.06511595 -0.0092614805 0.04942115
000110 e9 c3 68 be e3 92 dc 3d a1 4f c3 be 6a 40 ea bd
       -0.22730984 0.10770204 -0.3814669 -0.11438067
000120 61 8a 1c 3e 7b 9a c5 3d 12 53 65 3d e8 7f d0 3d
       0.15287162 0.096486054 0.055987425 0.10180646
000130 f0 bf 3a 3d 36 20 af 3e 61 29 29 bf 38 09 83 be
       0.045593202 0.34204262 -0.66078764 -0.2559297
000140 e6 3f 15 3c e3 95 a2 3c cf c9 e7 bc d3 79 96 3b
       0.009109473 0.019846862 -0.028294472 0.0045921593
000150 ca 77 8a 3c dd dc d4 be db 3c c4 3d 02 c2 26 bc
       0.016902823 -0.41574755 0.0958192 -0.010178091
000160 a5 4b 12 3e d7 40 10 bc e4 e2 84 bd 5f d1 c4 be
       0.14286669 -0.0088045215 -0.064885885 -0.38440987
000170 fd d7 ad 3d 20 27 98 bd ed ea 4b 3d 78 03 0a bf
       0.08488462 -0.074293375 0.04978459 -0.5391154
000180 be 2e ab be 87 66 1b 3d 97 6e 38 3d 65 7e d1 be
       -0.334341 0.037939575 0.04502734 -0.40916744
000190 19 27 ea 3d 53 72 fd bb 6c 28 f1 bc 29 bf 75 3c
       0.114332385 -0.007734576 -0.02943822 0.014999189
0001a0 b8 ad f5 bd 4b c8 1f be a8 87 0b be 61 4f 94 3d
       -0.11996025 -0.1560375 -0.13625968 0.07241703
0001b0 57 de 1d bd 55 a9 e6 be fa 87 a8 bd bc e1 a5 3d
       -0.038542118 -0.45051065 -0.082290605 0.08099696
0001c0 f0 3e 06 be 38 c0 d9 bb 0e e5 f7 3d 5e ad d1 bd
       -0.13109946 -0.0066452287 0.121042356 -0.10238145
0001d0 c9 e3 41 3e 2a d8 ba be d1 fa 49 3e 2c 23 32 bd
       0.1893455 -0.36493045 0.19724585 -0.043490574
0001e0 b0 8f ae bd d3 4f 57 bd 8d 20 93 be cc ff de 3d
       -0.085235 -0.05256636 -0.28735772 0.10888633
0001f0 ab 36 9a be 07 13 b4 be 9d 2b 3e 3a 03 fb 2b 3e
       -0.30119833 -0.35170767 0.00072544237 0.16794972
000200 a9 d3 0e be 29 41 03 3e 9c 85 96 3e 07 db bd 3d
       -0.1394793 0.12817825 0.2939881 0.09270292
000210 da 78 98 be d3 51 1d be 6c 2e 53 bd cf 18 36 bf
       -0.29779702 -0.15363245 -0.051557943 -0.71131605
000220 5b 43 b7 bd 12 21 f7 3d a9 3f 60 be e5 70 83 3e
       -0.08948394 0.120668545 -0.21899284 0.2567207
000230 47 9f f6 bc 13 73 18 3e c7 fa d3 bd 94 f6 e6 3d
       -0.030105246 0.14887647 -0.10350566 0.112775
000240 0f ac 67 3e 55 3e 05 bd 26 49 e8 be 73 6d f1 3d
       0.22624229 -0.032530148 -0.45368308 0.11788454
000250 33 7d c9 3d f1 83 24 bd a8 c7 c2 3c 12 05 a3 ba
       0.09838333 -0.04016489 0.023776844 -0.0012437424
000260 fa cb 56 be 64 31 af be 8d 89 4a bf 8d da 0f 3e
       -0.20976248 -0.3421737 -0.79116136 0.14048214
000270 7c f6 88 bb c4 aa 80 bd 9c 1a c6 bd 55 53 1a bd
       -0.004179774 -0.06282571 -0.09673044 -0.037677128
000280 9e 15 f4 be 4e 16 ea 3c fa 80 cf 3d 2b 2d 1e 3d
       -0.47672743 0.028575089 0.10132022 0.038617294
000290 38 fc 54 be 40 35 bc bc 18 93 36 3b 9c 4d 80 3d
       -0.20799339 -0.02297461 0.002785867 0.06264803
0002a0 5f b3 2e bf a5 db 0c bd 5a 16 1b 3d 57 cf 2b be
       -0.6824245 -0.034389157 0.037863113 -0.16778313
0002b0 40 f4 27 3d 0b 35 0b 3c f0 1d 27 bf b4 a2 42 3e
       0.04100442 0.008496533 -0.65280056 0.19007379
0002c0 85 7b e8 3b f4 10 83 be 26 88 86 bd 4c 5e f5 be
       0.007094803 -0.25598872 -0.06568937 -0.47923505
0002d0 51 7f 88 be 08 49 1c 3d 6a 86 44 3d 8f da 09 3d
       -0.26659635 0.038155586 0.04797975 0.0336557
0002e0 0a f1 1f bd c5 c2 3f 3e 15 af 21 bd d6 21 54 be
       -0.039048232 0.18726642 -0.03947361 -0.20716032
0002f0 ab 35 08 be 6b 88 8a 3c 7f 12 f8 bd 5e f2 79 3e
       -0.13301723 0.016910752 -0.12112903 0.24408862
000300 26 b5 dd bd ae d0 d8 be e6 5f d0 be e9 67 05 be
       -0.10825567 -0.4234671 -0.40698165 -0.1302792
000310 0c a0 1c 3e 9f e0 4a bd 88 40 3c 3e c2 eb bf be
       0.15295428 -0.04953062 0.18383992 -0.37484556
000320 ac 88 00 3d 39 bc aa bd 87 ef 8b 3e 5b 4d c7 3d
       0.03138034 -0.08336682 0.27331182 0.09731551
000330 6a c0 78 3d 91 12 9b be 24 b4 5b bc 8f 63 49 3c
       0.060730375 -0.30287603 -0.013409648 0.012291803
000340 14 55 3e bf ff b9 ee bd 2c cd 9d 3e 51 f0 8a 3e
       -0.7434857 -0.1165657 0.30820596 0.27136472
000350 bc fa 2c 3e 34 30 8b bd c2 fd a6 be 94 83 5a 3c
       0.16892523 -0.067963034 -0.32615477 0.013337035
000360 8f b5 b3 3d 0c cd 24 be 80 ce 11 3d 55 f7 34 be
       0.08774864 -0.16093844 0.035597324 -0.17672475
000370 47 ce f8 3c ee 7a 41 be f6 a7 b6 be 11 05 f8 bd
       0.030371798 -0.1889455 -0.3567502 -0.12110341
000380 2e 22 49 be 6f 13 d1 3d c8 b2 dd bc 61 51 e6 3b
       -0.19641945 0.10208785 -0.027062789 0.007028744
000390 80 af b8 bc 04 46 a4 3d 77 72 02 bf 1c 71 70 3d
       -0.022544622 0.08021167 -0.5095591 0.05870162
0003a0 6a b1 bf 3d ce 5a e9 be c4 6f 09 3e 7a d3 8b be
       0.09360011 -0.4557709 0.13421541 -0.2730978
0003b0 44 d3 8e 3c bf d5 d9 bd 19 1e b1 bd ef 42 84 3d
       0.017434724 -0.10636472 -0.08648319 0.06458079
0003c0 96 64 b7 be 6d 24 e8 3d 86 1b 12 bd af fe e7 3c
       -0.35818928 0.11335073 -0.03567078 0.028319685
0003d0 38 80 85 be ac 74 cc 3e 60 ac 9d 3c 8e 2e 3e be
       -0.26074386 0.39932764 0.019247234 -0.18572447
0003e0 42 7f ae 3c 4f b0 8b bc 7b d7 c4 3e b5 f6 da bd
       0.021300916 -0.017051844 0.3844565 -0.10691587
0003f0 76 5c ba bd b0 07 a3 bc 2a 21 8b 3d 1c 7a a1 bd
       -0.09099667 -0.019901127 0.06793435 -0.07884619

fc2.bias f4 [64]
000000 c2 8c 9e 3d fa 82 4f be 8a c4 f7 3d b5 dc 90 bd
       0.07741691 -0.20264807 0.12098034 -0.070733465
000010 36 1d 8c 3e 2c d1 64 3e e2 35 23 3e c0 1f 73 3e
       0.27366036 0.22345418 0.15938523 0.2374258
000020 7c 46 62 3e 32 9f 96 3e 70 bf 1a 3e ae 28 c9 3e
       0.220972 0.2941833 0.1511209 0.3928885
000030 d0 15 ed 3d 86 42 1c 3e 2d 9c c7 3e 5a ba b1 3d
       0.11576426 0.15259752 0.3898634 0.08678122
000040 7e 12 0a 3e 8b 52 36 3e 33 55 b2 3e 13 96 c2 3e
       0.13483617 0.17804925 0.34830627 0.38005123
000050 7a ab a5 3e 16 ad 88 3e e8 cd e4 3d 98 70 8f bd
       0.3235739 0.26694554 0.11172086 -0.070038974
000060 00 e1 6b 3e 1b 7b b1 3e 5c 8e 83 3e d8 2d f9 3d
       0.2303505 0.34664235 0.2569455 0.12166947
000070 7a fc 94 3e a5 6b 86 3e 54 73 56 3e c6 f3 f5 3e
       0.29098874 0.26254 0.20942432 0.48037547
000080 ff 90 cc 3e 04 99 1e bc 7a ab 94 3e dc e0 4a 3e
       0.39954373 -0.009680036 0.29037076 0.1981234
000090 33 a6 95 3e 79 8a 80 3e 0e 7d 51 3e a8 e9 32 3e
       0.29228362 0.25105646 0.20457861 0.17471945
0000a0 2d 71 99 3e e1 29 28 3d a9 1e 36 be 9b 0a 20 3e
       0.2996916 0.041055564 -0.17785133 0.15629046
0000b0 2b 1a 58 3d db 15 8a 3e ab 5e 8d 3e 6b db fe 3d
       0.05275933 0.269698 0.27611288 0.124441944
0000c0 86 72 ad 3e 9b d9 fc 3d 16 4b c1 3e 0d ee 4a 3e
       0.33876437 0.123461924 0.377526 0.19817372
0000d0 5f 1f 7b 3e 18 4e 9f bc 3d 9a 7a 3e db 72 58 3e
       0.24523686 -0.019446418 0.244729 0.21137564
0000e0 b8 09 79 3e 0a ba 81 3e cd 1f 86 3e a6 0e a2 3e
       0.24320114 0.2533725 0.26196137 0.316518
0000f0 19 9d 7d 3e bf 9a c9 bd d7 87 4e 3e 3f ce 17 3e
       0.24766959 -0.098439686 0.20169006 0.1482477

fc3.weight f4 [2, 64]
000000 75 db dc 3c c9 21 80 be 68 c6 0d be 29 1b b2 be
       0.026960114 -0.25025776 -0.13845217 -0.34786347
000010 72 f9 86 bd 3a e3 ff be b3 4b 2c be 8e 61 02 3e
       -0.06590547 -0.49978048 -0.16825752 0.12732527
000020 5d 69 a1 3d 71 70 11 3e f3 ef 88 bd c8 ba 14 3d
       0.078814246 0.14203049 -0.06686392 0.03631094
000030 38 e6 34 3e f5 9b 02 be 4e 37 fe 3d 53 13 8e be
       0.17665946 -0.12754805 0.12412892 -0.27749118
000040 7b 0a c2 be cd 69 fe 3d 20 6d 23 3e c6 70 5d bc
       -0.3789862 0.12422524 0.15959597 -0.013515657
000050 1d 8a 06 be 2f fa 32 3c 1d b3 a6 bd 16 06 ef bc
       -0.13138624 0.010923906 -0.08139632 -0.029177707
000060 ef f4 de 3c f8 5c ac 3d 9a 25 b9 bd 50 8d eb 3a
       0.027216403 0.0841617 -0.09040375 0.0017971192
000070 f8 9e d1 bd fa d6 32 3e a5 b2 38 3e d3 87 9a bc
       -0.10235399 0.1746482 0.18036897 -0.018863594
000080 45 0e b1 3e bb 3a 72 be 90 d3 27 be c0 bf ba be
       0.345812 -0.23655216 -0.16389298 -0.3647442
000090 1d cf 37 3d 46 42 89 3d 97 55 ba bd ae 24 95 bc
       0.044875253 0.06702094 -0.09098356 -0.018205967
0000a0 b5 27 6e 3e ed 2a 92 be ca b0 f3 bd 5b 57 d8 3c
       0.23257335 -0.28548375 -0.11898954 0.026408842
0000b0 31 1f 50 3e ce 7a 48 3d 07 6f 98 be e8 c9 ac bd
       0.20324399 0.04894524 -0.29772207 -0.08436948
0000c0 be 31 a9 3c 8c c0 90 3c 7a 50 74 3c 0c 31 b1 3d
       0.020653602 0.017669939 0.014911765 0.08651933
0000d0 b3 12 ff 3c fd 7e 8d bd bb b3 2e 3e 2f 08 49 3d
       0.031136846 -0.06908987 0.17060749 0.04908007
0000e0 5e 7c 94 3d db b0 fd 3d f6 64 1a 3e 8c a6 05 3d
       0.07250284 0.12387248 0.15077576 0.032629535
0000f0 7f 1e 0b 3e 2a 7c 96 bd 9c 60 8c be 24 41 40 be
       0.13585852 -0.07347901 -0.27417457 -0.18774849
000100 4a e6 34 bd 64 88 e7 3d 56 92 57 3d 3b 4e 7f 3e
       -0.044164933 0.11305311 0.05262979 0.24932186
000110 a7 40 09 be 57 7b a9 3e ab 5d ab 3d e0 4a ab 3c
       -0.13403569 0.33101913 0.08367475 0.020909727
000120 2f 87 d7 3c d3 bd 21 3d 5e 12 0e 3e 04 dd fc bd
       0.026309578 0.03948767 0.13874194 -0.12346843
000130 4c 43 26 be d5 a3 3a 3d ca 89 05 bc 66 fe 46 3e
       -0.16236609 0.0455664 -0.008150527 0.19432983
000140 cb 6a 80 3e c5 6b 47 3c f1 7e 84 bd 57 83 1e be
       0.25081477 0.01217169 -0.06469525 -0.1547979
000150 89 79 96 3d b1 b6 8c bd d6 04 18 3e 6a de fb bc
       0.073474 -0.06870783 0.14845595 -0.030745704
000160 21 73 14 bd 7e 74 bb bd c0 e4 fa bb 95 34 d4 3d
       -0.036242608 -0.091530785 -0.0076566637 0.10361592
000170 1a e3 e1 3d 07 0e 01 3d 43 6b 4f bd 9f 55 49 be
       0.11029644 0.03150752 -0.050639402 -0.19661568
000180 59 92 52 be c6 28 70 3e 32 50 0c 3e 77 a1 9c 3e
       -0.2056364 0.23453054 0.13702467 0.30591938
000190 b8 c8 2c bd 9c de 75 bd 90 a0 49 3e 79 db 94 3d
       -0.042183608 -0.06002675 0.19690156 0.072684236
0001a0 16 35 5d be 85 ec 42 3e 5a 0c 28 3e da a5 7d bd
       -0.21602282 0.19035538 0.16410962 -0.061925747
0001b0 e3 0a ee bd 2a c7 fa 3b eb 15 ff 3d a0 9b 7f bc
       -0.1162317 0.0076531367 0.124553524 -0.015601069
0001c0 7a 23 a0 bd 58 ea b1 bd 36 3f 07 be 3c e6 c6 bd
       -0.078192666 -0.08687276 -0.13207707 -0.097118825
0001d0 46 17 9c bd b3 6a 82 3d e6 bd c7 bd e1 de 34 bd
       -0.076216266 0.063680075 -0.09753017 -0.044157866
0001e0 65 9e 60 3c 40 69 22 bb 3e fd ac bd 7b ad c9 bd
       0.013709639 -0.0024781972 -0.084467396 -0.09847542
0001f0 79 89 29 3d 0a be 20 3e 42 63 46 3e 0f d4 a7 3e
       0.04139087 0.15697494 0.19373801 0.32778975

fc3.bias f4 [2]
000000 f5 f3 dc 3e 50 85 08 bf
       0.43154874 -0.5332842

exp_avg f4 [105, 9]
000000 16 e8 5f 3a e9 06 fe 39 bb 78 ea 38 d7 fa b0 38
       0.00085413584 0.00048451804 0.00011180477 8.4390565e-05
000010 18 b8 32 36 7c 72 9e b9 e2 86 a3 39 01 d8 b6 3a
       2.6631224e-06 -0.00030221406 0.00031190278 0.0013949872
000020 1e cd ac 3a de 91 70 3b a9 5d e4 39 bb 3a c2 3a
       0.0013183688 0.0036708037 0.0004355733 0.0014818528
000030 ee 21 78 39 7f 3c e4 39 62 f4 d5 3b f2 d5 8c ba
       0.00023663763 0.00043532622 0.006529377 -0.0010744913
000040 1a 9b 97 3b ec 4a af 3b e6 a5 92 bb 0d 17 a4 bb
       0.004626644 0.0053495076 -0.004475343 -0.0050076307
000050 fd 9d 97 ba c7 b8 8a b9 48 97 21 bb 84 78 6b bc
       -0.001156747 -0.0002645908 -0.002465682 -0.014371995
000060 83 49 0b bc 7c 8c e5 bb 0c 24 09 bc 00 00 00 00
       -0.008501413 -0.0070052724 -0.008370411 0.0
000070 00 00 00 00 00 00 00 00 00 00 00 00 00 00 00 00
       0.0 0.0 0.0 0.0
000080 00 00 00 00 00 00 00 00 00 00 00 00 00 00 00 00
       0.0 0.0 0.0 0.0
000090 bf ea 1d 3a 97 44 36 bb 87 b9 2e b9 1d 11 04 bb
       0.00060240546 -0.0027811879 -0.00016663047 -0.0020151802
0000a0 c6 ba 1c bb a5 6c 83 bc d4 65 19 bc 09 29 2b 3c
       -0.0023915037 -0.016043017 -0.009362657 0.010446795
0000b0 4b 38 04 bc 2c 32 23 3a 81 31 c3 b7 d6 72 86 3a
       -0.008070062 0.0006225433 -2.3268864e-05 0.0010257612
0000c0 2b c9 0e b7 a6 ce 42 39 8f f0 0d 3b 89 23 15 3b
       -8.510698e-06 0.00018578264 0.0021658277 0.0022756776
0000d0 13 1b ab b9 99 74 a0 3a 3b c7 11 bb 99 75 ae b9
       -0.00032635833 0.001224178 -0.0022243995 -0.00033275483
0000e0 bd 82 7c ba e0 1f 4f b8 a8 4a a6 b9 1b 73 84 bb
       -0.00096325186 -4.938233e-05 -0.0003171761 -0.004042042
0000f0 70 48 55 bb c4 06 75 bb 6e e4 5d bc b2 77 4f 3a
       -0.0032544397 -0.0037388066 -0.013543231 0.00079142593
000100 7f d7 e2 39 04 e5 b3 39 ba 2b 1f 38 bc 8f 56 39
       0.00043266636 0.0003431217 3.7949278e-05 0.00020462176
000110 a4 9d a9 3a 4f bd 2b 3a 0a c2 d8 3a b0 35 41 3b
       0.0012940657 0.00065513415 0.001653732 0.0029481463
000120 ea 01 b4 ba a4 42 83 ba 34 ec 6b b6 b7 22 6e b9
       -0.0013733481 -0.0010014367 -3.5155217e-06 -0.00022710381
000130 8a cf 1a ba ba 0b 33 b8 75 a5 03 ba 8a 53 7a ba
       -0.00059055595 -4.2687847e-05 -0.00050219084 -0.00095491915
000140 0b 67 b7 ba 9e 5b 04 b9 1e db 47 39 27 f1 c5 b8
       -0.0013992501 -0.00012622631 0.00019059746 -9.43861e-05
000150 60 37 a8 38 29 40 28 b9 49 36 21 bb 6b 42 b5 ba
       8.021179e-05 -0.0001604563 -0.0024599007 -0.0013828998
000160 8f 7f 87 39 b3 99 3a bb 57 fb 2d 3a 04 d5 eb 3a
       0.00025844245 -0.002847296 0.0006636879 0.0017992561
000170 cd 9e 09 3a 15 74 14 39 86 9b 2a b8 ee a3 8e 3b
       0.00052497984 0.00014157624 -4.0676e-05 0.004353038
000180 7b f3 ff 39 50 8a 54 3b 79 7a b4 3b f0 53 30 ba
       0.00048818797 0.0032431073 0.005507764 -0.0006726375
000190 e5 6d 4e bb fb a2 14 bb 20 f1 64 b8 91 0d b1 39
       -0.0031498608 -0.0022680152 -5.4584e-05 0.0003377018
0001a0 fa 4a 05 bc c7 a3 ac bb 43 bb 20 bc 6b 39 87 bc
       -0.008135552 -0.005268547 -0.009810272 -0.016506871
0001b0 a6 dd 00 3a 8f 6e 51 3a 79 af 4b ba cb a4 dc b8
       0.00049158407 0.0007989192 -0.0007769983 -0.000105211126
0001c0 e6 24 3c ba 9e 19 32 3b 03 8c aa 3a 57 fd 7a bb
       -0.0007177129 0.0027175914 0.0013011697 -0.0038297975
0001d0 a8 f9 df bb 52 36 12 38 6c 1b 33 bc 0e c6 4e 3a
       -0.0068351813 3.4859702e-05 -0.010931831 0.0007887789
0001e0 2b a3 25 2e 07 89 ee bb 3a c4 4b bc 3a 25 86 bc
       3.766158e-11 -0.0072795185 -0.012436921 -0.016375173
0001f0 17 77 91 bc e7 da f2 bc e0 5f 78 3a 77 01 32 bb
       -0.017756982 -0.029645396 0.00094747357 -0.0027161518
000200 cb c0 23 3a af 88 e7 37 f8 ff e9 ba 83 21 f5 ba
       0.0006246685 2.7600994e-05 -0.0017852774 -0.0018702004
000210 15 66 4c bb e5 ca f5 bb d5 ab e6 bb ad d6 20 ba
       -0.0031188775 -0.0075009936 -0.007039527 -0.0006135505
000220 ca 37 33 37 c1 ec 70 39 47 bd cf 38 74 07 41 b9
       1.0682221e-05 0.00022976381 9.905785e-05 -0.00018408691
000230 57 ee e4 ba e9 02 cc ba 79 4d 1d bb 25 aa 92 bb
       -0.001746605 -0.0015564832 -0.0024002476 -0.004475849
000240 36 49 0c 3c af ca c9 3a e9 ff 4c 3b 87 30 cc b9
       0.008562377 0.0015395487 0.0031280464 -0.00038946068
000250 90 bc fc 3a 91 f5 38 3c 5e f9 51 3b 6c 47 4e 3c
       0.001928227 0.011289016 0.0032039504 0.0125902705
000260 2a 2d 7a 3c 54 7e 34 b8 c5 81 2c 3a 44 4f ca b9
       0.015269557 -4.3032996e-05 0.00065806165 -0.000385875
000270 ba f0 21 b9 23 3a 38 39 43 3b a8 3b 55 62 27 3b
       -0.00015443834 0.00017569265 0.0051340177 0.0025540788
000280 3f 02 84 39 62 0e ba 3b 4a 33 13 3a 7b 1f b1 39
       0.00025178675 0.005677984 0.00056152476 0.00033783526
000290 97 3d d7 39 1c a3 04 39 96 c0 9f 38 37 9c 90 3a
       0.00041053884 0.00012649264 7.617583e-05 0.0011032884
0002a0 77 db 8d 3a e7 37 ba 3a 3f 85 88 3b cb ab 69 ba
       0.0010822852 0.0014207334 0.004166275 -0.0008913844
0002b0 6e 83 b9 ba 71 6f 01 ba 47 ac 67 38 c0 2a c6 39
       -0.0014153549 -0.00049375655 5.5235138e-05 0.00037797354
0002c0 93 12 94 bb 55 85 ea ba 8e 78 29 3b 58 26 3c 3b
       -0.004518816 -0.0017892519 0.002585921 0.0028709378
0002d0 b2 4c a8 b8 20 55 3b 3c 5f d8 e3 b6 6e ea c1 39
       -8.02515e-05 0.01143387 -6.790316e-06 0.00036986492
0002e0 ec d5 bc 3b 99 fd 4b 3c 08 f9 88 3c 19 07 e8 3c
       0.005762806 0.012450599 0.01672031 0.028323697
0002f0 5b 9a eb 3c 96 03 28 bb e7 14 99 bb 33 da eb 39
       0.028760126 -0.0025636903 -0.004671681 0.00044985264
000300 5e e1 60 30 79 91 d5 b5 87 6f 26 bc b8 20 04 bc
       8.181099e-10 -1.5912075e-06 -0.010158426 -0.008064441
000310 71 c9 9f bb f7 3c 9a bb 20 a6 a4 b4 9d c7 72 39
       -0.0048763086 -0.0047069746 -3.0668252e-07 0.0002315328
000320 49 c3 f2 38 86 91 95 b1 43 d0 60 39 fd 85 31 3a
       0.00011575834 -4.353015e-09 0.00021439888 0.000677198
000330 c3 a8 b5 39 3d de 60 39 7f c2 72 39 8d d1 2d bc
       0.00034648748 0.00021445095 0.00023151374 -0.010609043
000340 96 f6 6a bb 22 c1 e2 b9 04 00 00 00 f7 f7 4d bb
       -0.0035852543 -0.00043249974 6e-45 -0.0031428316
000350 04 a4 98 bc fd b9 d9 bb 02 c8 81 bc 5f 7a fb bc
       -0.018632896 -0.006644486 -0.015842441 -0.030698
000360 14 72 e0 39 0b 98 03 38 90 6d dd b9 13 4f f8 36
       0.00042809604 3.1374435e-05 -0.00042234035 7.4001814e-06
000370 41 44 11 b9 18 0f 7a 3a 8b b8 cb b5 fc 01 f5 38
       -0.00013853704 0.00095389923 -1.5178388e-06 0.0001168288
000380 68 d3 a5 3a f6 7d 11 3b f4 a0 f9 bb 3e b0 fe ba
       0.0012651505 0.0022200323 -0.007618064 -0.0019431186
000390 6f 08 94 ba 0f bb 10 bb 3d 78 6b bc 21 67 ec bb
       -0.0011294017 -0.0022084152 -0.014371929 -0.0072144424
0003a0 3a d5 92 3b e9 a1 a4 bc 00 00 00 00 00 00 00 00
       0.004480985 -0.020096736 0.0 0.0
0003b0 00 00 00 00 00 00 00 00 00 00 00 00 00 00 00 00
       0.0 0.0 0.0 0.0
0003c0 00 00 00 00 00 00 00 00 00 00 00 00 ea 48 bd ba
       0.0 0.0 0.0 -0.0014441286
0003d0 b0 27 2b 3d 4d 8e a9 bb 3b 34 47 bb f7 27 eb 3c
       0.041785896 -0.0051744343 -0.0030396122 0.02870558
0003e0 d3 8d d1 3c ce f9 89 3d 3c e2 d8 3d 7c f9 ab 3d
       0.025580322 0.067370996 0.10590026 0.08397195
0003f0 be 68 8c b9 0c 24 86 bb 3f 35 58 ba 98 aa 4f b8
       -0.0002678092 -0.0040936526 -0.00082476804 -4.9511524e-05

exp_avg_sq f4 [105, 9]
000000 69 d2 0d 3a 88 9c 27 39 8c e6 2a 39 9e cf 64 37
       0.00054100767 0.00015984674 0.00016298349 1.3638199e-05
000010 a0 7b e5 37 2d cb d8 3a af 18 aa 3a c0 41 03 3a
       2.7356495e-05 0.0016540043 0.0012977327 0.0005007051
000020 66 e6 c2 3b 43 2e e0 39 9e e0 8e 39 7a 1b b5 38
       0.005947876 0.00042759077 0.00027251703 8.6358705e-05
000030 4c e7 6b 37 3a f7 c8 37 6a df 22 3b e6 34 d4 39
       1.40609445e-05 2.3956982e-05 0.0024852403 0.00040475203
000040 76 dc 56 3a da 4e 96 3b ed af 56 39 da 86 bd 39
       0.00081963034 0.0045870366 0.00020474168 0.0003614936
000050 83 47 8c 38 a4 f7 a2 36 89 4f ca 38 d5 5a 33 3b
       6.68904e-05 4.8568054e-06 9.646925e-05 0.0027367373
000060 34 08 81 3a 0e 8d 7f 3a c8 92 9c 3a 00 00 00 00
       0.0009844364 0.0009748497 0.00119456 0.0
000070 00 00 00 00 00 00 00 00 00 00 00 00 00 00 00 00
       0.0 0.0 0.0 0.0
000080 00 00 00 00 00 00 00 00 00 00 00 00 00 00 00 00
       0.0 0.0 0.0 0.0
000090 9b ea 93 3a 1c 98 03 3a c4 56 c6 37 a0 9f cb 38
       0.0011285128 0.00050199195 2.3643843e-05 9.709527e-05
0000a0 58 11 e0 39 a3 7b 84 3c 52 3e d2 3b d5 63 2a 3c
       0.00042737531 0.016172236 0.0064161206 0.010399778
0000b0 b6 c8 20 3d 3d 13 bc 38 1c f0 16 38 68 91 0d 38
       0.039253913 8.968122e-05 3.5986406e-05 3.375244e-05
0000c0 95 e7 38 37 15 fc 91 37 56 59 b1 3a 45 27 3f 3a
       1.1021174e-05 1.7402732e-05 0.0013530653 0.00072919234
0000d0 a5 44 53 3a c4 67 75 39 92 fe c5 39 a1 55 80 38
       0.000805924 0.00023403676 0.00037764438 6.119465e-05
0000e0 44 b9 eb 36 c2 dc 0b 36 97 2c 87 38 60 e1 15 3b
       7.0251135e-06 2.0841112e-06 6.445607e-05 0.002286993
0000f0 be 00 48 3a 60 d3 91 3a be 92 88 3b f6 46 02 3a
       0.0007629505 0.0011125617 0.0041678837 0.00049696804
000100 d3 4e a5 38 97 4a 71 38 0b eb 26 34 89 7e 1e 38
       7.882495e-05 5.7528345e-05 1.5545463e-07 3.778798e-05
000110 93 40 bf 3a 10 af 90 39 05 a9 c1 3a d4 8b 57 3b
       0.0014591388 0.00027596252 0.0014775103 0.003288974
000120 64 1c 0b 3a 0b a3 93 39 a2 ec ab 38 6d 95 6f 37
       0.000530666 0.000281595 8.197992e-05 1.4280301e-05
000130 61 14 34 38 e8 c9 20 3b 80 d7 45 3a 3f 9a 19 3b
       4.2934324e-05 0.0024534408 0.00075470656 0.0023437885
000140 bb 7f a0 3b 72 c5 49 3a ae 4d 04 39 6a f1 33 38
       0.004898039 0.0007696963 0.00012617439 4.290176e-05
000150 b2 e2 a1 37 45 ef e9 38 2a 0a 78 3b 65 b9 b8 3a
       1.9298259e-05 0.00011154873 0.0037847855 0.0014093338
000160 78 50 05 3a 00 1b 0d 3c 62 78 f5 38 9b 1e 8d 38
       0.0005085538 0.008612394 0.000117049334 6.729105e-05
000170 db 4f 46 37 54 91 16 35 81 30 5f 37 13 84 56 3a
       1.18203125e-05 5.6090835e-07 1.3303129e-05 0.0008183133
000180 c1 3d c2 35 f8 67 00 3a 93 5c c5 3a bc 53 ce 39
       1.4472099e-06 0.0004898305 0.0015057496 0.0003935377
000190 d6 59 5a 39 f8 ed 8d 38 50 bd b3 36 06 64 ef 37
       0.00020823567 6.767729e-05 5.3566546e-06 2.8537597e-05
0001a0 a1 7d e6 3a dc af 23 3a 7b 4a 9c 3a 03 8c 5e 3b
       0.0017585048 0.00062441616 0.0011924052 0.0033957965
0001b0 ae c0 3b 3a c9 f3 c5 39 cc 98 dc 38 18 5c bd 36
       0.00071621954 0.00037756402 0.00010518878 5.64336e-06
0001c0 d6 16 d5 37 0e 94 28 3b 71 9f 6b 3a 58 a8 14 3b
       2.5402212e-05 0.0025723013 0.0008988297 0.0022683349
0001d0 2c a9 9b 3b d6 a8 1e 38 1b 66 44 3a 84 a2 78 38
       0.0047503915 3.7827376e-05 0.00074920215 5.9279162e-05
0001e0 87 8e 9f 36 92 9c e4 38 ab 22 9c 3b e7 e8 09 3b
       4.7551616e-06 0.00010901051 0.004764875 0.0021043362
0001f0 ef 70 62 3b d8 e9 01 3c e5 28 19 39 20 85 af 39
       0.0034552177 0.007929288 0.00014606451 0.00033477787
000200 fa 7c 89 38 1d 5e 32 36 9a 64 58 38 d1 27 3c 3a
       6.555948e-05 2.6578848e-06 5.1592106e-05 0.0007177564
000210 b1 28 11 3a 6a c5 d5 39 ec c9 59 3b 9c 19 97 39
       0.00055373745 0.0004077361 0.0033231927 0.00028820045
000220 59 cc ff 37 72 d9 33 38 71 eb 2a 36 24 a9 1b 38
       3.0493526e-05 4.2879437e-05 2.546902e-06 3.7112404e-05
000230 1b d0 de 3a b8 8a 42 3a c1 1e 82 3a de 7b 99 3b
       0.0016999276 0.00074211834 0.0009927378 0.0046839556
000240 90 2c 3c 3a cc f1 25 39 16 20 11 39 73 a8 ff 37
       0.0007178271 0.00015825703 0.0001384023 3.047681e-05
000250 a4 b8 c2 38 ff 69 5d 3b 33 66 8b 3a 61 29 cb 3a
       9.285033e-05 0.0033785102 0.0010635316 0.0015500003
000260 53 85 ac 3b d9 3c 8b 39 ab a2 af 39 33 05 10 39
       0.005264917 0.0002655748 0.00033499798 0.00013734847
000270 c0 61 53 37 40 ca ed 38 0f 92 62 3b 96 12 ce 3a
       1.2599339e-05 0.00011338713 0.003457192 0.0015722092
000280 0c a5 f1 3a 49 66 29 3c 7f a6 9a 38 1f 0b 6b 38
       0.0018436029 0.010339328 7.3743046e-05 5.6038723e-05
000290 e4 5a fb 37 c0 48 1c 37 e2 2e 5c 36 2f bd d0 38
       2.9963856e-05 9.315263e-06 3.2809844e-06 9.953451e-05
0002a0 ec 28 fa 38 74 7a 5c 39 4e ff fd 3a 6e e4 8b 39
       0.00011928551 0.00021026452 0.0019378455 0.0002668234
0002b0 21 bf 90 39 7c 05 85 38 95 fb 09 37 c0 d1 32 38
       0.00027608222 6.342956e-05 8.224412e-06 4.2633852e-05
0002c0 3e f6 27 3a bc f0 08 3a a3 7c 05 3a 9f b4 36 3b
       0.00064072374 0.00052238605 0.00050921197 0.0027878655
0002d0 c9 b7 fc 38 d4 46 3e 3a c8 08 35 37 f6 93 a0 38
       0.00012050529 0.0007258479 1.0790485e-05 7.6569544e-05
0002e0 a7 d1 c9 38 6e 2d 3c 3b c0 05 ca 3a fa 1e ab 3b
       9.623478e-05 0.0028713602 0.0015413091 0.0052221986
0002f0 ed 00 0c 3c 2e 2c 72 39 66 5b bb 39 6c 27 bd 38
       0.008545143 0.00023095377 0.00035735517 9.019565e-05
000300 7f 22 6a 35 51 ec db 38 08 da 4e 3b 35 3e 9c 3a
       8.722199e-07 0.00010486751 0.0031563062 0.0011920395
000310 db 40 90 39 43 94 54 3b a9 5d 66 39 1f 32 8b 39
       0.0002751414 0.0032437004 0.000219694 0.0002654949
000320 9d aa 56 38 3b f4 84 37 73 5e 65 38 b8 5b 43 3a
       5.1180472e-05 1.5849355e-05 5.4685817e-05 0.0007452327
000330 2b 4d d8 39 e6 5c 92 38 54 fb d4 39 43 8c cc 3a
       0.00041256225 6.979126e-05 0.00040623045 0.0015605766
000340 85 4d 66 39 1e 8c 3a 38 b4 06 39 2f 6f f6 05 39
       0.00021963388 4.447635e-05 1.6828033e-10 0.00012775672
000350 db 2e 98 3b c2 66 8b 3a 85 44 5e 3b 30 1e 5e 3c
       0.0046442575 0.0010635483 0.0033915353 0.013557002
000360 21 ac da 39 7b 6f d2 38 34 55 99 38 ea e1 c5 33
       0.00041708446 0.00010034345 7.311479e-05 9.214621e-08
000370 45 38 6c 38 17 f4 0d 3b d9 65 53 3a 33 0d ca 37
       5.631919e-05 0.0021660381 0.0008064188 2.4086423e-05
000380 d1 24 ad 3b b4 b4 2c 39 fa 4c 53 39 40 44 72 38
       0.00528393 0.00016470515 0.00020151204 5.776086e-05
000390 fa 4d 92 37 98 74 82 38 72 b4 e9 3a 76 36 0d 3a
       1.7440867e-05 6.2206e-05 0.0017830266 0.00053868385
0003a0 06 2b 2c 3a 8c 04 db 3b 00 00 00 00 00 00 00 00
       0.000656769 0.0066838916 0.0 0.0
0003b0 00 00 00 00 00 00 00 00 00 00 00 00 00 00 00 00
       0.0 0.0 0.0 0.0
0003c0 00 00 00 00 00 00 00 00 00 00 00 00 23 e2 a3 38
       0.0 0.0 0.0 7.814567e-05
0003d0 2c e8 e6 3a dc e0 f9 38 20 bd 8b 38 4e 74 cc 39
       0.00176168 0.000119151286 6.663264e-05 0.00038996566
0003e0 1f 6e 1f 3b 10 49 88 3b 31 5f 45 3c 7f 6e 8a 3c
       0.0024327112 0.0041591004 0.012046621 0.016898392
0003f0 3a 90 17 39 72 3d d0 39 ed f6 93 38 80 d7 3f 36
       0.00014454211 0.00039718632 7.0555e-05 2.8586655e-06

exp_avg f4 [105]
000000 eb d6 bb 39 6e f3 a9 3a b7 60 41 bb 00 00 00 00
       0.00035827546 0.0012966224 -0.002950711 0.0
000010 63 ed 4d ba 3f f4 24 3a ba 06 90 ba 70 0e ab 39
       -0.0007855503 0.0006292499 -0.0010988333 0.00032626418
000020 62 64 c7 b9 13 eb 99 b9 3c 2b 81 3a 7f e5 1a bb
       -0.0003803103 -0.00029357578 0.0009854804 -0.0023635325
000030 20 06 0b 3a fd f6 b1 bb 50 6a 8f ba d7 ff 03 ba
       0.0005303342 -0.0054310546 -0.0010941718 -0.00050353765
000040 7e 83 09 3b 37 dd 96 39 ce e5 0a 3a 40 c4 8e b8
       0.0020982916 0.00028775047 0.0005298526 -6.807642e-05
000050 4a 9f b9 3b 53 57 1b bb 49 c3 f2 38 00 47 60 bb
       0.0056647407 -0.0023703172 0.00011575834 -0.0034222007
000060 2f 87 45 b8 a8 b7 c1 ba 00 00 00 00 f8 5e a0 3c
       -4.709436e-05 -0.0014779465 0.0 0.019576535
000070 b4 21 05 bb 35 5b 9f ba 84 58 9a 39 07 8d ba 3b
       -0.0020314278 -0.0012157919 0.00029439118 0.0056930813
000080 77 f9 83 3a 16 85 22 b9 20 cf 29 ba 6e 65 20 38
       0.0010068853 -0.00015499102 -0.00064777024 3.8241436e-05
000090 64 89 47 ba bb d4 89 3a 90 31 b4 39 f0 d7 f6 b9
       -0.00076117204 0.0010515669 0.00034369202 -0.00047081662
0000a0 66 21 97 ba 43 9e cd b9 1b 9d f6 ba 07 f3 19 b9
       -0.0011530339 -0.0003921856 -0.0018815132 -0.00014681752
0000b0 b1 7e 72 3b 00 00 00 00 87 e4 55 bb 48 df 40 bb
       0.0037001783 0.0 -0.0032637434 -0.002942996
0000c0 3a 22 95 3a ec 3a 1d bb 3e 8c aa bb 7d c9 ce b9
       0.0011377998 -0.002399142 -0.0052047065 -0.00039441502
0000d0 00 00 00 00 05 9e aa b7 04 00 00 00 93 ba a8 b9
       0.0 -2.0339163e-05 6e-45 -0.00032182466
0000e0 e2 a2 17 3b e2 d4 0e 3c 4b ac 9f 3a 1a 5a f7 39
       0.0023137857 0.008717747 0.0012182085 0.00047178642
0000f0 dd e4 16 39 fa d3 c3 3a 08 11 8e bb 7c ae 31 ba
       0.00014390373 0.0014940493 -0.0043355264 -0.00067780144
000100 ce 59 0b bc 84 b9 60 3b 3a 93 85 3b d5 50 76 3a
       -0.008505298 0.0034290263 0.0040763887 0.00093962
000110 e1 ac b4 b8 24 b4 0f 3a 86 b2 be bb 8e 5f af 3b
       -8.61527e-05 0.000548186 -0.0058196215 0.005351967
000120 b1 fb a9 39 00 00 00 00 22 17 20 38 8d b6 01 bb
       0.00032421717 0.0 3.8168517e-05 -0.0019792647
000130 0d 07 39 3a 81 2d 68 b9 bf 67 8a 39 43 f0 8e 3b
       0.00070582406 -0.00022142196 0.00026398708 0.0043621375
000140 7b 06 b5 3a 34 5e ab 3a 0b ae 07 3b b3 73 e3 bb
       0.0013811135 0.0013074339 0.0020703103 -0.0069412827
000150 95 75 43 3a d1 fe 71 b8 a7 66 50 bb 56 75 d1 3b
       0.0007456181 -5.7696194e-05 -0.0031799467 0.0063921614
000160 f3 5a 9e 3b dd 73 f0 3a cc e5 d0 38 0c 6d 43 3c
       0.0048326193 0.0018345077 9.961016e-05 0.011927854
000170 00 00 00 00 ae b2 38 3c a6 05 bb 3a 5e 3f 16 3a
       0.0 0.011273069 0.0014268651 0.00057314883
000180 ad 60 1e b9 c2 55 1f 3a 5d 30 9b b9 fa bc 0f 3c
       -0.00015104069 0.00060781476 -0.00029599937 0.008773083
000190 0f 08 9f 39 3b 4b e7 ba 20 8a a8 39 64 7c d8 bb
       0.00030332847 -0.0017646322 0.00032146368 -0.0066066254
0001a0 7b c1 e7 3a
       0.0017681563

exp_avg_sq f4 [105]
000000 5d c4 43 39 50 88 e5 38 07 47 ff 38 00 00 00 00
       0.000186698 0.00010944961 0.000121725774 0.0
000010 f9 da 56 3a 41 c8 90 38 f3 1c f0 38 dc 0b 8d 38
       0.00081960816 6.903755e-05 0.00011449484 6.725613e-05
000020 9d 49 fc 38 df 8d 6d 39 69 2e 15 38 9e 8e cb 38
       0.00012030008 0.00022654932 3.556759e-05 9.706359e-05
000030 18 fd 1f 39 2f 6e 6d 39 78 8c cb 38 6e de c5 38
       0.00015257706 0.00022643128 9.705959e-05 9.435123e-05
000040 9a f0 38 39 5f 40 5c 39 52 76 06 38 ae e2 c1 38
       0.00017637238 0.00021004815 3.2058284e-05 9.2451795e-05
000050 67 55 63 39 db ad 27 39 79 36 96 38 0e 07 74 39
       0.00021680222 0.00015991127 7.162704e-05 0.00023272281
000060 9c 32 fb 38 ef 1d e3 38 00 00 00 00 da 21 07 3a
       0.000119780394 0.00010829779 0.0 0.00051548856
000070 16 23 df 38 26 2b 5f 39 2c b8 2f 39 e9 10 a9 39
       0.00010640004 0.00021283011 0.0001675791 0.0003224679
000080 03 07 3a 39 b8 94 9a 37 a2 0a 6c 39 b5 59 82 39
       0.00017740954 1.8427483e-05 0.00022510675 0.0002486237
000090 2b df 16 39 c8 06 a9 38 7d c8 21 39 c2 15 8c 39
       0.00014388251 8.059811e-05 0.00015428844 0.00026719092
0000a0 0c d5 36 39 3d 2f 7a 39 b1 1a 1e 3a 45 17 a1 39
       0.00017436239 0.00023859456 0.0006031199 0.0003072565
0000b0 67 de 3a 39 00 00 00 00 90 ba 1b 39 1c c3 4e 39
       0.00017821194 0.0 0.00014851452 0.00019718375
0000c0 fe 4d 28 39 e3 8e 20 3b 8c ea 7d 39 56 02 17 38
       0.00016050783 0.002449923 0.00024215336 3.600338e-05
0000d0 00 00 00 00 64 13 9b 39 af 6d 3e 0d 2e 33 02 39
       0.0 0.0002957835 5.8680297e-31 0.00012416832
0000e0 85 55 4c 3a 6a 04 75 39 ba 74 90 38 99 46 56 39
       0.0007794726 0.00023366665 6.888197e-05 0.0002043493
0000f0 9b 86 71 39 bf f3 6e 38 b9 5c 32 3a 3e 37 b2 39
       0.00023033695 5.6970628e-05 0.0006803978 0.00033991964
000100 3f 13 1d 3a 0e aa 88 38 e6 df 71 39 80 c2 10 39
       0.00059919426 6.5166605e-05 0.0002306696 0.00013805367
000110 37 f4 54 39 48 c0 05 39 e3 e0 67 39 94 34 17 3a
       0.00020308873 0.00012755499 0.00022113654 0.00057680276
000120 fa eb 32 39 00 00 00 00 d7 9b 98 3a 97 08 03 3a
       0.00017063311 0.0 0.0011643124 0.00049985334
000130 a3 f0 bb 39 c2 e3 2b 38 30 47 f6 39 94 ff 40 3a
       0.00035846708 4.0981693e-05 0.00046973815 0.0007362303
000140 99 ae f4 38 82 2a 6c 39 c3 88 37 39 af 7a 04 3a
       0.00011667348 0.00022522549 0.00017503188 0.00050536817
000150 02 fc a3 38 7c 3b 5a 38 f5 e3 d2 38 0a 5e 13 3a
       7.819386e-05 5.203065e-05 0.000100560406 0.0005621618
000160 18 95 dd 38 e7 f7 85 39 ae f8 92 38 05 de 47 3a
       0.00010565872 0.00025552438 7.008143e-05 0.0007624331
000170 00 00 00 00 9d 70 eb 39 16 a0 93 38 9e 77 81 39
       0.0 0.00044906596 7.0393246e-05 0.0002469392
000180 23 94 91 38 7c cd d6 38 29 ca 0a 39 84 14 1d 3a
       6.9417314e-05 0.000102425896 0.00013236016 0.0005992132
000190 b6 98 a8 3a 95 d8 a4 38 95 a2 5b 37 91 41 db 3a
       0.0012862894 7.860471e-05 1.3091271e-05 0.0016727914
0001a0 62 18 9e 39
       0.00030154275

exp_avg f4 [64, 105]
000000 e4 07 2c b8 ad b5 55 39 d9 3d 0d 39 00 00 00 00
       -4.1015344e-05 0.00020380942 0.00013469848 0.0
000010 47 49 70 39 86 1b 42 2d 2c ac ae b9 b4 81 42 b9
       0.00022915482 1.1033735e-11 -0.00033316144 -0.000185496
000020 93 67 70 b9 f0 36 af 39 c2 4d b8 34 57 d7 51 b9
       -0.00022926768 0.00033419533 3.4329247e-07 -0.00020012014
000030 e9 6f 10 3a a2 29 ec 39 a8 c4 2b 39 35 ba 8b 37
       0.000550984 0.00045044447 0.00016381091 1.66568e-05
000040 32 1f 28 39 a5 38 13 3a 17 35 0a b7 24 20 b6 36
       0.0001603335 0.00056160457 -8.237802e-06 5.4277643e-06
000050 31 98 fe 38 09 4c dd 39 6a 7b 3b ae b1 01 00 39
       0.00012140012 0.00042209055 -4.262849e-11 0.00012207661
000060 e9 6b 8e 39 40 1a 26 39 00 00 00 00 ea a6 52 39
       0.0002716475 0.00015840773 0.0 0.00020089341
000070 bc b8 ac 38 64 d2 6d 39 de db 5d 39 c4 7b a9 b8
       8.2360086e-05 0.00022680458 0.0002115811 -8.081601e-05
000080 38 eb d7 b8 15 19 4d b9 58 d7 43 b8 0e 88 3f b9
       -0.00010295812 -0.00019559667 -4.6692177e-05 -0.00018265864
000090 46 be 66 39 12 ae 60 b8 b4 b0 35 39 88 12 ba 39
       0.00022005392 -5.3567877e-05 0.00017327332 0.0003549049
0000a0 56 68 a5 b5 db fe 2e b9 26 3b 30 3a e9 a9 a5 37
       -1.2323824e-06 -0.00016688874 0.0006722681 1.9748653e-05
0000b0 d3 44 1d 38 00 00 00 00 b0 14 13 b9 69 75 88 b7
       3.7495814e-05 0.0 -0.00014026719 -1.6267137e-05
0000c0 9e a1 15 3a 90 d4 ca 39 c7 85 f2 b8 0e 61 0d 93
       0.0005707982 0.00038686814 -0.00011564377 -1.7844554e-27
0000d0 00 00 00 00 88 63 2c 94 04 00 00 00 d8 35 b9 37
       0.0 -8.70341e-27 6e-45 2.2078792e-05
0000e0 e1 14 45 b7 1b 80 b8 39 26 c4 9e b5 46 e1 b7 39
       -1.1746976e-05 0.0003519066 -1.1829004e-06 0.00035072322
0000f0 30 75 a7 b6 75 61 a6 39 41 43 1d b5 eb 7b 5b 3a
       -4.9906303e-06 0.00031734598 -5.8584925e-07 0.0008372652
000100 df 56 9b b8 7d af 6d b5 f8 6a 7a 38 cc eb 43 39
       -7.407157e-05 -8.854475e-07 5.9704267e-05 0.0001868449
000110 7b f5 51 b7 e9 c3 43 3a f6 17 c7 b7 34 2c ea 36
       -1.2514526e-05 0.00074678526 -2.3733806e-05 6.9788894e-06
000120 2d 2a c3 39 00 00 00 00 ed a2 4e 3a 35 ff 59 b9
       0.00037224722 0.0 0.0007882554 -0.00020789805
000130 37 b2 22 3a 65 86 34 b5 77 1c 90 b6 07 f2 58 3a
       0.00062063657 -6.7250795e-07 -4.294848e-06 0.0008275811
000140 f6 d2 f8 34 da 6f 05 39 e4 83 56 3a 46 cc 44 39
       4.6347094e-07 0.00012725536 0.00081831054 0.00018768114
000150 0a 73 9e 39 04 00 00 80 6f 32 bd b9 99 0d 16 39
       0.0003022182 -6e-45 -0.00036086465 0.0001431018
000160 1b ae b2 39 2f d1 1a 39 84 6c 0e b8 79 2d e6 37
       0.00034080524 0.00014764511 -3.39565e-05 2.7439311e-05
000170 00 00 00 00 7f af e8 b7 e0 6f a2 39 8b 56 4e b8
       0.0 -2.7738277e-05 0.000309824 -4.9194827e-05
000180 02 6a 16 b4 67 4c d4 b8 44 7f 41 b5 f4 72 9a 38
       -1.4008404e-07 -0.00010123179 -7.20833e-07 7.364704e-05
000190 fe b9 09 3a d1 a0 41 38 b5 f9 c8 b8 1a 39 cd 39
       0.000525385 4.6164558e-05 -9.583255e-05 0.0003914319
0001a0 65 aa bf 39 2e a7 1f ba 56 85 dd 39 e2 d4 74 b7
       0.00036557313 -0.00060902804 0.00042251748 -1.4593099e-05
0001b0 00 00 00 00 71 5a 20 37 04 00 00 00 dc c0 01 38
       0.0 9.557801e-06 6e-45 3.093561e-05
0001c0 76 42 26 35 a4 84 48 38 a8 64 5f ba 68 74 7a 34
       6.193653e-07 4.7807247e-05 -0.0008521774 2.3325413e-07
0001d0 5d 80 9e b8 bd 06 be 35 fd 10 35 b9 a2 18 8e b9
       -7.5579366e-05 1.4158064e-06 -0.00017267834 -0.00027102703
0001e0 ee 69 ef b9 07 a3 bd 38 46 c1 32 b9 bd c1 49 b9
       -0.00045664556 9.0425885e-05 -0.00017047403 -0.00019241027
0001f0 31 94 03 ba b7 fb be 0c 1e 77 17 b9 ce a7 e4 95
       -0.00050193357 2.942563e-31 -0.00014444857 -9.2353216e-26
000200 e4 c0 0a b9 b4 a2 a1 ba c4 b0 ec b9 00 00 00 00
       -0.00013232563 -0.0012331815 -0.00045145128 0.0
000210 56 5e b4 34 04 00 00 00 af b8 28 ba 78 45 6b 35
       3.359625e-07 6e-45 -0.00064362114 8.764541e-07
000220 88 44 3c ba f3 47 33 37 04 00 00 00 c1 b9 5f b9
       -0.0007181843 1.0685983e-05 6e-45 -0.00021336136
000230 04 00 00 00 7a 47 fa ba c9 33 17 b9 51 a0 3e 3b
       6e-45 -0.0019094788 -0.00014419774 0.0029087255
000240 8a 5b 90 b9 c7 58 88 01 98 a9 4b b3 de b5 30 3b
       -0.00027534022 5.00859e-38 -4.7418865e-08 0.002696387
000250 f9 5a 5e 38 9a 39 58 3a 00 00 00 00 ec 70 48 3a
       5.301365e-05 0.00082483294 0.0 0.0007646221
000260 d5 46 76 36 e7 2a 70 2e 26 d6 aa 36 7d 16 f0 38
       3.6698086e-06 5.4607787e-11 5.091325e-06 0.000114482806
000270 04 00 00 80 00 00 00 00 04 00 00 00 04 00 00 00
       -6e-45 0.0 6e-45 6e-45
000280 cf 32 91 36 56 a3 4a 3b ec 55 09 3a 04 00 00 00
       4.3272516e-06 0.003092011 0.00052389386 6e-45
000290 50 d5 c1 b7 97 b0 13 aa ed 2d d0 36 0b a5 96 3b
       -2.3106724e-05 -1.311749e-13 6.2042295e-06 0.0045973114
0002a0 ca ca 10 35 69 18 4c 39 8f e3 02 ba 74 d7 3d b9
       5.393928e-07 0.0001946405 -0.00049930153 -0.00018104707
0002b0 56 58 48 38 04 00 00 00 f4 ad 8c 36 a8 f3 13 3b
       4.7765985e-05 6e-45 4.192576e-06 0.002257565
0002c0 08 10 18 39 61 4c ae 35 00 00 00 00 4a 5a ec 37
       0.00014501822 1.2986239e-06 0.0 2.8175436e-05
0002d0 ed 5d 25 3a 89 5a 1f b9 e7 d4 28 32 62 3e cb 01
       0.00063082465 -0.00015197149 9.827295e-09 7.465994e-38
0002e0 9d db b3 ba 6b 75 dc 36 1b ff fa 37 c4 ac 50 b8
       -0.0013722066 6.57018e-06 2.9921115e-05 -4.9751965e-05
0002f0 ca 49 d4 b9 d8 ee ae b8 04 00 00 00 75 2b d9 b8
       -0.00040490768 -8.341455e-05 6e-45 -0.00010355461
000300 6c 15 a2 3b 04 00 00 00 47 7b b3 37 04 00 00 80
       0.0049464013 6e-45 2.1395868e-05 -6e-45
000310 d9 06 86 39 00 00 00 00 b8 d4 c4 3a 31 e1 8a 38
       0.00025563574 0.0 0.0015017008 6.622298e-05
000320 3a 63 2c b9 04 00 00 00 af 15 05 b9 04 00 00 80
       -0.00016440163 6e-45 -0.00012691946 -6e-45
000330 8e d7 7d 39 64 50 df 36 04 00 00 00 2a f4 06 b4
       0.0002420826 6.6552766e-06 6e-45 -1.2568549e-07
000340 be ba 62 36 22 d5 be 10 91 d2 1c 34 b3 fe 95 39
       3.3785323e-06 7.527017e-29 1.4605236e-07 0.0002860926
000350 c8 38 0e ba 00 00 00 00 ef 8f df 2b 21 fb 83 39
       -0.0005425331 0.0 1.5885053e-12 0.00025173373
000360 80 86 ae 38 2a 04 32 b7 19 4d 38 38 2d 3b 57 b8
       8.322019e-05 -1.0610596e-05 4.394082e-05 -5.1315106e-05
000370 43 c0 fe b7 b2 38 82 38 ba cf 3e b8 73 cb 6b ba
       -3.0368688e-05 6.2094434e-05 -4.549299e-05 -0.0008994855
000380 3a 31 e5 37 97 7f bb 39 f5 3d 4c b8 30 16 35 38
       2.732185e-05 0.0003576248 -4.8695092e-05 4.3174427e-05
000390 7c c1 29 34 4a 0b e0 36 04 00 00 00 0c 6b cc 38
       1.5809741e-07 6.6770344e-06 6e-45 9.747417e-05
0003a0 b8 3b 6e 38 23 91 84 36 e7 13 80 36 84 15 45 b7
       5.679924e-05 3.9508027e-06 3.817014e-06 -1.17471245e-05
0003b0 00 00 00 00 04 00 00 00 b1 b3 84 b9 e9 98 6d b9
       0.0 6e-45 -0.00025310882 -0.00022659045
0003c0 df ed bd b6 e1 d0 60 39 8f 40 2f b6 a6 db 53 ba
       -5.6603308e-06 0.00021440118 -2.611461e-06 -0.00080817414
0003d0 a1 19 6c 9f d4 e8 c4 b8 f1 41 af b8 d2 d6 95 b7
       -4.9996144e-20 -9.389376e-05 -8.356933e-05 -1.7862218e-05
0003e0 68 15 50 37 c8 0d b3 3a 5a 5d d3 b7 ea a0 c1 39
       1.240275e-05 0.0013660723 -2.519663e-05 0.0003693172
0003f0 7f 0a 0e b8 8d c4 15 ba d5 7e fa b6 00 00 00 00
       -3.3865213e-05 -0.0005713187 -7.465346e-06 0.0
