save/new11.pt (torch_old, 100937 bytes, 18 tensors)

fc1.weight f4 [98, 33]
00000000: 078f c0bd 64f9 c7bb a12c 603d 886c babd
00000010: b425 6ebb 08ce 9fba ffbd 9e3d e1a7 e1bd
00000020: 6765 423e ec5e 1e3d eb05 06be 2162 43bd
00000030: 3794 96bc 7a33 ac3d 8317 183e bda7 383b
00000040: 668e ef3d 45a5 1c3e 478c a43d e448 91bd
00000050: de70 3d3d 000a eabd 5388 ac3c 7837 1ebe
00000060: 549f b63d 08da 5b3e 94ec f53d c3fb e2bc
00000070: 26a6 e5bd 11fa c6bc a279 8ebb 80c6 2a3e
00000080: 3464 cfbd 2b59 b7bd 2df4 e43d 97eb 12be
00000090: abe2 ca3d cf0f 08be e2c6 21be eb6a ed3a
000000a0: 9f97 4c3c 59ec f13b c434 663c 2315 b93d
000000b0: 273a b7bd a55d e6bd 402f 69be f940 473c
000000c0: 4fec abbd 32f8 adbd ba51 4dbd b2a1 ea3d
000000d0: 3980 e13d d9ac 013e ed24 363e d4bb 3fbc
000000e0: 4960 f53d dae2 0fbe a9e1 27bc ffbe f63d
000000f0: 6434 47be 6154 e8bd bb99 20bd 4709 41be
00000100: 562a a6bb 19a2 ce3d cefe 843e 2623 203e
00000110: f86d d1bd 6bf5 3d3d 7713 aabd 3351 333e
00000120: def6 ba3d 4b97 343e 8161 533c 4a99 bb3d
00000130: 91d3 063e 02d8 1d3e f3c0 0fbd d4c2 023d
00000140: 2f05 003d 8376 bd3d 1639 39be a1f0 71bd
00000150: df83 913d c550 edbc 9b72 d0bd 47ec af3d
00000160: 71ed 4f3e a7f8 843d 93a6 48bb 25c4 243e
00000170: b222 633e 67c0 283e 7432 c03d 45d3 173e
00000180: eb97 b1bd eda4 a13d 4ffd 97bd e9e1 cbbd
00000190: ed31 39bd 018f 2e3e 6f7e ec3d e7a6 4bbc
000001a0: b9c8 473e 5d2b 80bd f8b6 51bd a824 943c
000001b0: f0e4 333e f957 19be 993f e83d 3203 053e
000001c0: 0052 913d c057 333d b70d 08be cbc5 7bbd
000001d0: 7f31 2b3e 8cf0 163e 9c8c 47bd 685b 7a3d
000001e0: 06bc db3d caac ee3d 8f6f b7bc f2f1 183e
000001f0: 97f4 38bd 223b 88bd e01a 56bc 1cae b7bd
00000200: bacb bc3d 1e06 5e3e 8eee 213e 4e40 ffbc
00000210: f82e 973d f9b6 d53d 3875 9e3d 59fe b4bd
00000220: a06f 3abd a5f6 563d f029 b33d 335f 023d
00000230: e656 25be 7bd9 8dbc c95d 583d 8b09 62bc
00000240: 2af7 55bd a811 a8bd d045 9e3d 38c7 dbbd
00000250: 81ba 18bd 3881 d3bd 27dd 85bc b2ec 22bd
00000260: 5684 e23d 081d 09bd 5ec1 a9bd 39a1 143e
00000270: 707f 2abd 4f84 4dbd 6dfd 30bd 8799 0ebe
00000280: d0a3 30be 3aae eabd 6293 bd3d 5014 0bba
00000290: 4477 053e 7e00 b13e c124 d0bd 24a0 a3bd
000002a0: c630 b5bd e4f9 b13d bcba 8b3e ca4e 863d
000002b0: 2775 033e c693 293c 7139 d63d 97ce e0bb
000002c0: c000 9f3e 7d92 6ebd 2ed9 a13c 49c4 57bd
000002d0: 8d85 d0bc 8b00 6d3c 1be8 9f3c 22b9 c23d
000002e0: 1252 b23c c29a 49be ea56 a23a 0dd5 963e
000002f0: f12d 303e 9fe5 2a3b 114b 27bd 213e d23d
00000300: 78dd ea3d 4fc0 103c f8fd 14be 8007 963d
00000310: 474a 7f3e 31c6 6cbd 70a2 b93c dd94 c33d
00000320: 1266 d2bd 9cee 39be 4520 0a3e 00ba 453d
00000330: 95ee afbc 3cc1 e1bd 9a5d 01be 4140 b83d
00000340: 9100 29bd 97a5 55be e17f b53d 09d2 64be
00000350: 2bb8 33be 7d92 b03d 221b d03d e6e8 7ebd
00000360: 0e51 f7bb c0be e43d 7af3 983d 9cc8 193e
00000370: 74f0 02be ada9 f4bd 0089 99bd f119 b5bd
00000380: a798 fb3c 13b4 e73d aa13 093d 1521 0dbe
00000390: 5369 00be a42a 2fbc 7526 38be bfb1 dd3c
000003a0: 45f3 4cbd 08d0 13be 6001 b5bd b24c f1bd
000003b0: 2a5a 213e e026 24be b65b 053e 20d4 febd
000003c0: fa5b 173e 34f9 113e e1aa 17be dabf adbc
000003d0: b358 2cbe f09a 5abd 9a7f e8bc 4a15 88bd
000003e0: a66d c53c 90ea 02bc 83b5 90bd 7e63 3c3e
000003f0: 8462 c43d f738 aabd 8baf debd dc3a 19be
-0.0940228 -0.0061027277 0.05473006 -0.09102732 -0.003633839 -0.0012192139 0.07751083 -0.110183485
0.18983994 0.038664743 -0.13088195 -0.047701005 -0.018381221 0.08408256 0.14852719 0.0028176152
0.11697082 0.1529742 0.08034568 -0.07093981 0.046250217 -0.114276886 0.021061098 -0.15450847
0.08917108 0.21469891 0.12008014 -0.02770794 -0.11213331 -0.024289163 -0.004347996 0.16677284
-0.10126534 -0.08952554 0.11179385 -0.14347683 0.09906515 -0.1328728 -0.15798524 0.0018113529
0.012487321 0.007382911 0.014050666 0.09037235 -0.089466386 -0.1124833 -0.2277193 0.012161487
-0.08394682 -0.08494605 -0.05012677 0.11456622 0.11010785 0.12663592 0.17787524 -0.011702497
0.119812556 -0.14051381 -0.010246673 0.12048148 -0.19453579 -0.11344219 -0.03920911 -0.18851195
-0.005070965 0.100895114 0.2597565 0.15638408 -0.10226053 0.046376627 -0.08304494 0.17511444
0.091291174 0.17635839 0.012901665 0.09160097 0.13166644 0.15414432 -0.03509612 0.031924084
0.031254943 0.0925112 -0.18088183 -0.059067372 0.071052305 -0.028969178 -0.10178109 0.08589988
0.2030542 0.06492739 -0.0030616864 0.16090448 0.22181204 0.16479646 0.09384623 0.14826687
-0.08671554 0.07892785 -0.07421362 -0.09955198 -0.04521363 0.17046739 0.11547553 -0.012429929
0.19510163 -0.06258271 -0.051199883 0.018083885 0.17567801 -0.14974965 0.11340255 0.129895
0.070957184 0.043784857 -0.13286482 -0.061467927 0.167181 0.14740199 -0.04871808 0.061122328
0.10729222 0.11654051 -0.022392062 0.14936045 -0.045155134 -0.06651904 -0.013067931 -0.089687556
0.09218545 0.21682021 0.15813658 -0.031158593 0.073820055 0.1043529 0.077372015 -0.088375755
-0.04551661 0.052481312 0.08748233 0.03182907 -0.1614643 -0.017315617 0.052823815 -0.0137962205
-0.052237667 -0.08206493 0.077281594 -0.10731357 -0.03728724 -0.10327381 -0.016340805 -0.03977651
0.11060397 -0.033474952 -0.08288835 0.14514627 -0.04162544 -0.050175007 -0.043210436 -0.13925754
-0.1724999 -0.11459012 0.09256627 -0.0005305456 0.13033777 0.34570688 -0.1016326 -0.07989529
-0.088471934 0.08690241 0.27290905 0.065579966 0.12837659 0.010350173 0.10460175 -0.006860565
0.3105526 -0.05824517 0.01975688 -0.052677426 -0.025454307 0.0144654615 0.019519856 0.095079675
0.02176765 -0.19687942 0.0012385522 0.2945942 0.17205025 0.0026076806 -0.040843073 0.102657564
0.11468023 0.008834912 -0.14550006 0.07325649 0.24930678 -0.057806198 0.022660464 0.09549878
-0.102733746 -0.18157429 0.13488872 0.048273087 -0.02147607 -0.11023185 -0.12633362 0.089966305
-0.041260306 -0.20863949 0.088622816 -0.22345747 -0.17550723 0.086216904 0.10161425 -0.062233828
-0.0075475043 0.11169195 0.074683145 0.15017933 -0.12787038 -0.119464256 -0.07496834 -0.088428386
0.030712439 0.11313643 0.03346602 -0.13782151 -0.12540178 -0.010691319 -0.1798342 0.027062295
-0.050036687 -0.14434826 -0.08838153 -0.117822066 0.15757051 -0.16030455 0.13023266 -0.124428034
0.1478118 0.1425522 -0.14811279 -0.021209646 -0.16830711 -0.053370416 -0.028381158 -0.066446856
0.024100136 -0.007990494 -0.070658706 0.18397328 0.09589103 -0.083116464 -0.10873326 -0.1496386

fc1.bias f4 [98]
00000000: 93cf e3bd dd3d 143e b8e7 183e d84d 1cbc
00000010: 423f 02be 7f9e fe3c 5236 233e 5094 5fbd
00000020: 4fd9 583d a761 4abe 678b 0e3e 2e10 09be
00000030: 4b04 2e3e edf9 e9bd 3e7b d8bc b5e4 513c
00000040: 7041 0b3d d228 edbd afc2 a13d 3418 17be
00000050: 5020 0fbe c3e6 103e 0459 3dbe 9835 9bbd
00000060: def0 76bb a16a 403e fae2 15be aa88 113d
00000070: f3d8 3cbe e98b c63d f92a c4bd c93b fabd
00000080: 1084 1e3e 7528 ffbd 6579 01bd 2379 d63d
00000090: 96ad eebd 8406 6e3e 1059 403e b92c 31be
000000a0: 042c 1c3e f63f f03d de89 5bbd 43f0 2fbd
000000b0: 6c29 16be 6620 9fbd 3458 08bd e7b5 44bd
000000c0: 6039 693d dd72 443e 2786 dc3d 8b5a 59bd
000000d0: f0fd c1bd 9eed 1c3d 1624 063b 7074 a23d
000000e0: ba7f 093d 82d8 2d3d 1d77 103d 4e87 b7bd
000000f0: d71b 16be 20cd 4fbb 812a ae3c 55f4 d1bb
00000100: 6f2c 24be 1edd e9bd 8faf 8abd 7445 b23d
00000110: a629 c23d 0de7 98bc cf74 31be 214b 05be
00000120: ab3c 233e 3dcb 6a3d 8740 db3d 2135 73bd
00000130: 36b0 2ebe 1d82 86bd 8055 b7bc 353c 13bd
00000140: 3c8e a0bd 7347 98bc 5569 a2bd 0e6c 9b3d
00000150: 532b fe3d 693e 523e 1f16 5b3e a18b a13c
00000160: 5685 e83d 5ec3 863d 3d96 c1bc 3370 58bd
00000170: 61c3 be3d 2655 f3bb 0ccb 0fbd 42dd 03be
00000180: e10e afbd 85eb e7ba
-0.11123576 0.14476724 0.14932144 -0.009540044 -0.12719443 0.031081436 0.1593869 -0.0545848
0.052941617 -0.19763814 0.13920365 -0.13385078 0.16993825 -0.11424623 -0.026425954 0.012810876
0.033997953 -0.115800515 0.07898461 -0.14755327 -0.1397717 0.14150529 -0.18490988 -0.075785816
-0.003768019 0.18790676 -0.14637366 0.035530724 -0.18442135 0.096946545 -0.09578509 -0.12218434
0.15480065 -0.124588884 -0.03160991 0.10472324 -0.11654203 0.23244673 0.18783975 -0.17302217
0.15251166 0.117309496 -0.053598277 -0.04295374 -0.14664239 -0.077698514 -0.033287242 -0.048025038
0.056939483 0.19184442 0.10767775 -0.053064864 -0.09472263 0.038312547 0.0020468286 0.07932365
0.033569075 0.042442806 0.035269845 -0.08961354 -0.14659058 -0.0031707957 0.021260502 -0.0064073005
-0.16032575 -0.11419128 -0.067717664 0.087046534 0.094806 -0.018664861 -0.17329715 -0.1301694
0.15941112 0.05732273 0.10705667 -0.05937684 -0.17059407 -0.06567786 -0.022379637 -0.03594609
-0.07839629 -0.018588757 -0.07930247 0.07588969 0.12410607 0.2053162 0.21395157 0.0197199
0.11353557 0.06580232 -0.02363121 -0.052841377 0.09314609 -0.007425922 -0.03510575 -0.12877372
-0.0854776 -0.0017694092

fc2.weight f4 [48, 98]
00000000: 3edb e3bd 3609 df3d 3050 043b 9a1c 1cbe
00000010: 10b9 973c 2b09 04be 3c3e d73c 718a 503d
00000020: eb7f 82bd 46bb 20be a336 153e 7cda 8e3d
00000030: 0bda 84bd fce4 123c d23e 04be 1505 693d
00000040: 2ea6 ffbc d724 ffbd 8549 583d 6985 243d
00000050: 6537 dbbc 6c01 633d da87 2c3d 8c1b 363d
00000060: d95d ea3a b30e ea3d 1593 23bd 1b19 a7bb
00000070: 1b49 b3bd 0b60 9abd 1e68 07be 77dd 37bd
00000080: b39c 9a3d 09cc 1bbe 4052 c63c d285 1c3e
00000090: 5cdf b53d 6398 863d 3fe9 d03c cde2 2c3d
000000a0: ecb7 65bc 2e8c 3f3d 6d47 043e 9515 00be
000000b0: 97ad 9bbd 1dd9 46bd 93a1 c93c bd57 0a3e
000000c0: d8ca e5bd a0c4 9d3d 9102 5bbd 0640 97bd
000000d0: 369a 453d e9fc 893c dabb db3d 2aac 20bd
000000e0: 02d9 10be 273c c23d 8b0e 05be 1ade 283d
000000f0: 6a66 94bd 4a0c 16bd 0e36 033e 0bc8 363e
00000100: 9ea1 0f3c 716c 753d 5c7c 4abc 982d 0cbd
00000110: 8f7c d8bd 3459 bfbd dc83 d93c 89c4 5abd
00000120: 2aeb b73c 4b36 8cbd 2488 973c 5bf5 5abd
00000130: ebfa eabd a883 d4bc c32b 8fbd 5eea 05bd
00000140: f584 01be 34ed 37bd 85cf ea3c 21cb af3d
00000150: adde 1a3b 7424 023c 212a 223d add3 a5bb
00000160: 4358 46bd dd0b 49bd 0c73 043d 9c96 7cbd
00000170: ebf0 a53d 0d69 013e 20cf 3cbd c2e2 c1bd
00000180: 8873 acbd a604 e4bc c993 933d 8bde a93d
00000190: c72b 08bd 6ea8 ebbd a7ba 873d fad3 b53d
000001a0: a339 fabc 101c 98bc 87ea 83bc fd4b 43bd
000001b0: febb 19bd 7451 06bd faad 89bd 5210 2dbd
000001c0: b16d a7bd 9245 13bc 00c9 9a3d 5ee8 4ebc
000001d0: 1a9f 91bc 2a79 893d bcc4 373a 2fd3 db3d
000001e0: 23d0 3ebd 8c15 83bd 5445 c83b 0a26 eabc
000001f0: 4691 75bd 0631 b63c b22f 213d e6ae 053d
00000200: 5de6 1abd d5ad aabd 328f 0fbd ac65 533d
00000210: 8c39 4f3d 9c8c 513d a462 22bd f801 023d
00000220: 9914 25bd 5076 853d 252f a1bd fdd1 c33d
00000230: 0231 69bd 9d69 493b d145 963d e33b 593d
00000240: b8eb b53d 4003 a93d 6909 0bbd 62d9 9a3d
00000250: f9d6 d23d b553 66bd 9dde 943d aaef 863d
00000260: 9d0a a0bd 533b 593c 2db3 03bd 90e7 ce3d
00000270: 9a66 18bd a06e 683c f3b4 bcbd eb86 f63d
00000280: f65e c63c 8dd1 013e 2a79 943d 8360 c33d
00000290: 5f7c e0bc fd78 263d c19f f9bd f3fe 253d
000002a0: 6bc2 aebc 2f7e a83b bc0d e03d 9767 30bd
000002b0: daf4 ac3b e6ff f03d 5e23 48bd 9ee0 c93d
000002c0: ed11 813d c101 e1bc 37eb c8bc 1ff7 7d3c
000002d0: d14a c83c ee99 273b 7124 ca3d 2340 cc3d
000002e0: 1e21 4c3d 7390 78bd 4221 37bd 2a7e 61bc
000002f0: b5a3 333c 0444 93bd abe5 633d 7a92 9b3d
00000300: 52c8 13bd ee63 86bd a193 c5bd 23be c33d
00000310: 151c cf3d d4a6 8e3d eb27 e1bc 9918 573d
00000320: 9256 abbd b508 0f3d eb00 6a3c 83fb 1dbd
00000330: 33cf aebd 53bc e63d a97f 803b fbef e9bc
00000340: dfb8 b3bc 4fe6 283d f1fd e8bc 38c3 9b3d
00000350: 9533 80bd ea18 943d ce0f 74bd 70f8 85bc
00000360: 0589 d73d 6463 8a3d a84b 773d 2e62 6e3d
00000370: 64a6 2cbc 8aad 233c 1f01 afbc 3f1a 013e
00000380: f6a2 8bbc 87ac 2f3d cc77 053d 1d4c e83c
00000390: a53b b7bd 6fe2 ff3d fd74 d2bd ce22 903c
000003a0: e839 98bd 0d5a 1abd 7d0a 03bd a2f4 90bd
000003b0: c6d4 da3c f5cf 6fbd 8717 dcbd ae3a 92bb
000003c0: e5ae da3c 8656 8f3d 3561 953d 096a 6e3d
000003d0: 302d d6bc 7f5f 453d 7be3 f93c defa b23b
000003e0: 6d22 8fbc a693 f13c e6bf 9abd 4bbb 983d
000003f0: e7a3 a73d b141 3c3d 51d0 a5bd ddf5 5c3a
-0.111258015 0.10890429 0.0020189397 -0.15245286 0.018520862 -0.12894122 0.026274793 0.050913278
-0.06372055 -0.15696439 0.14571624 0.06975266 -0.06486901 0.008965727 -0.12914589 0.056889612
-0.03120717 -0.124581985 0.05280449 0.040166292 -0.026759813 0.055421278 0.042121746 0.044459864
0.0017880752 0.11428585 -0.03993519 -0.0050994284 -0.08754178 -0.0753785 -0.13223311 -0.04488894
0.07549419 -0.15214552 0.024209142 0.15285423 0.08880493 0.06572034 0.025501845 0.04220848
-0.014020901 0.046764545 0.12917872 -0.12508233 -0.07601469 -0.0485469 0.024613177 0.13510032
-0.1122033 0.07703519 -0.053469244 -0.073852584 0.04824277 0.01684423 0.10729189 -0.03922669
-0.14145282 0.094841294 -0.12993829 0.041227438 -0.072460964 -0.036632814 0.12813589 0.17849748
0.00876656 0.05991787 -0.012358751 -0.03422317 -0.10570633 -0.09343186 0.026552133 -0.053410087
0.022451002 -0.06846293 0.018497534 -0.053456645 -0.1147364 -0.025941685 -0.06990769 -0.032694213
-0.12648375 -0.04490395 0.028663406 0.08583666 0.002363126 0.007943261 0.03959096 -0.005060634
-0.048424017 -0.04908358 0.03233628 -0.06166707 0.08102592 0.1263773 -0.046095967 -0.09467079
-0.08420473 -0.027834248 0.07205922 0.082944 -0.033244874 -0.11506735 0.06627398 0.08878322
-0.030545061 -0.018568069 -0.016103042 -0.04767989 -0.0375328 -0.032792524 -0.067226365 -0.042251892
-0.08175219 -0.008988755 0.07557869 -0.012628643 -0.01777606 0.06712563 0.00070102117 0.107336394
-0.046585213 -0.06400594 0.00611178 -0.028582592 -0.059952997 0.022240173 0.039352126 0.0326375
-0.037817348 -0.08333937 -0.03504867 0.051610634 0.05059199 0.051159486 -0.039644852 0.03174016
-0.040302847 0.06516707 -0.0787032 0.095615365 -0.056931503 0.0030733116 0.07337535 0.053035628
0.088828504 0.08252573 -0.03394452 0.07560994 0.10294909 -0.056232173 0.072690226 0.06588681
-0.07814524 0.013258773 -0.032153297 0.10102761 -0.037207223 0.014186531 -0.09214201 0.12037452
0.024215203 0.12677594 0.07249673 0.095398925 -0.027403055 0.040642727 -0.12188674 0.04052634
-0.02133294 0.0051419954 0.109401196 -0.04306754 0.005278212 0.11767559 -0.048861854 0.098572955
0.06302247 -0.027466657 -0.024526222 0.015500813 0.024449738 0.0025573927 0.09870232 0.099731706
0.04983627 -0.060684633 -0.04470945 -0.01376299 0.010964324 -0.07190707 0.05563895 0.075962976
-0.036079712 -0.06562029 -0.096472986 0.0955775 0.10112778 0.06965414 -0.027484855 0.052513693
-0.08366121 0.034920413 0.014282445 -0.03856994 -0.08535614 0.11266389 0.0039214683 -0.028556814
-0.02193874 0.041235264 -0.028441401 0.076055944 -0.062598385 0.072313145 -0.059585385 -0.016353816
0.10524181 0.067572385 0.060374886 0.0581991 -0.0105377175 0.009990105 -0.02136284 0.12607668
-0.01704548 0.042889144 0.03258495 0.028356606 -0.08946923 0.12494361 -0.1027622 0.017594721
-0.0743292 -0.037683535 -0.031992424 -0.0707791 0.026712786 -0.058547933 -0.10746675 -0.0044625616
0.026694724 0.06998925 0.072939314 0.05820659 -0.026144594 0.048186775 0.030503979 0.0054620346
-0.01747247 0.02948935 -0.07556133 0.07457598 0.08185559 0.045961086 -0.08096374 0.00084289705

fc2.bias f4 [48]
00000000: 106a 113e 4d07 7ebc f379 99bc 5381 a9bd
00000010: b907 a5bb 414e 143e 4601 753c 3399 05b9
00000020: 49ce bebd 8303 fcbc 8522 403e 60f1 993d
00000030: 8f80 6fbd f013 203e 5546 7d3d 97b7 b8bd
00000040: 532c dabd 1b2e cc39 53fd d3bc 407d fc3d
00000050: 580c cabd d1d6 d23c 1f63 493c ce21 b2bd
00000060: 2d44 6c3c dbe4 483d c244 acbd f8b3 53bc
00000070: c23f 183e 2612 80bd eaf0 eb3d 9eb1 0dbd
00000080: a0b0 ccbd 9694 c0bd fad2 41bd b0e6 e53c
00000090: 8722 a1bd 08f2 fdbd c80a c33c ab86 703d
000000a0: a636 113d 8604 a6bd bf8f f23c 0980 bfbd
000000b0: d360 9bbb 1f35 cbbc 17c2 c2bc 5975 c8bd
0.14200616 -0.01550467 -0.018734908 -0.0827662 -0.005036321 0.14482976 0.014953917 -0.0001274094
-0.093166895 -0.030763393 0.18763168 0.07516742 -0.058472212 0.15632606 0.061834652 -0.09019392
-0.106529854 0.00038944263 -0.02587763 0.12328577 -0.09865636 0.025737198 0.012291699 -0.08697854
0.014420551 0.04904638 -0.08411552 -0.012921326 0.14868072 -0.062534615 0.1152056 -0.034593217
-0.09994626 -0.094033405 -0.047320344 0.028064102 -0.07867914 -0.123996794 0.023808852 0.05872218
0.035452507 -0.081063315 0.02960956 -0.09350593 -0.004741767 -0.024805604 -0.02377419 -0.09788007

fc8.weight f4 [2, 48]
00000000: b2ce 10be 2717 6fbd 26ad 8cbd 326f ddbd
00000010: 395e 373c 6b7f 93bd ac79 e93d 2ab7 553e
00000020: 9dd5 00be b0ec 113e 1e6c 98be ca23 7fbe
00000030: cb83 05be 7022 23be c009 13bc d87a f1bd
00000040: 86bc 303e 8799 dd3a 082b 7abd bf0f 2fbe
00000050: d3b9 d13d bc29 803d 028c b73d 7c33 2f3a
00000060: 79d9 ea3d 649f 1ebe c2ed 5d3e 9767 a93d
00000070: 0bc3 88be 4589 0e3e d577 23be 2b1d b03d
00000080: 0491 68bd 2961 e13b e86d 5ebe 87f3 a03d
00000090: 4e84 be3d ba34 1c3e 72ee 7e3d cdb2 673d
000000a0: 6978 033e ce6d 093e a58c e23d 0d92 383e
000000b0: 052e e2bd 475a 6a3d 71e9 3e3c 1fbd 2abc
000000c0: e1e9 1a3e 012e b53d 8759 02be 1e4f df3d
000000d0: e46e 2c3e 617a a13d 7fb1 b3bd 36e2 72bd
000000e0: 4240 713d 20f9 9cbd 088f 513e b356 033e
000000f0: 5b53 c73d df9a c9bc a225 d7bd c642 a1bd
00000100: 248f 6bbe 689f 923d b559 05be 5280 893e
00000110: 2434 0d3b eaca 2fbd d071 d6bd cb78 f33d
00000120: 6b50 88bd 07a2 d23c 1b64 26be 52e3 47bd
00000130: cfc1 133e d669 81be 18b4 5b3e e6e4 b0bc
00000140: 6d7d cb3d 35ca 063e 6285 373e 6b24 82bd
00000150: 5579 babd c729 22be aec9 c8bd 0784 c2bd
00000160: 4d8a 3f3d 0097 20be d848 efbd e828 3dbe
00000170: b256 7a3e 5ebe 5dbe 6c0a 2bbe fb1c dcbc
-0.14141348 -0.05837169 -0.06868963 -0.108122244 0.011191898 -0.072020374 0.1140016 0.20870653
-0.12581487 0.14250445 -0.29769987 -0.24915996 -0.13038556 -0.15931106 -0.008974493 -0.11791009
0.17259416 0.0016906717 -0.061076194 -0.1709585 0.10240521 0.0625796 0.08962251 0.0006683392
0.11467261 -0.1549049 0.21672729 0.08271711 -0.26711306 0.13919552 -0.15963681 0.08599313
-0.056778923 0.0068780375 -0.21721613 0.07858949 0.09302579 0.15254489 0.062239118 0.056567002
0.12838902 0.13420793 0.11061982 0.18024464 -0.11043934 0.057215 0.011652336 -0.010421067
0.1512828 0.08846665 -0.12729464 0.10903762 0.16839176 0.0788467 -0.08774089 -0.059297763
0.05889917 -0.07664704 0.20464718 0.12826042 0.09732696 -0.024609981 -0.10505225 -0.07874064
-0.23003823 0.071593106 -0.13022502 0.26855713 0.002154597 -0.042918123 -0.10470927 0.11888274
-0.066559635 0.025712026 -0.16249125 -0.048800774 0.14429401 -0.2527606 0.21455419 -0.021593522
0.099360324 0.13163073 0.17921975 -0.063546024 -0.091051735 -0.1583625 -0.09804092 -0.094978385
0.046762753 -0.15682602 -0.11683816 -0.18472636 0.24447134 -0.2165465 -0.16703194 -0.026869288

fc8.bias f4 [2]
00000000: 2fb8 8c3d 6d94 dbbc
0.06871068 -0.026804173

square_avg f4 [98, 33]
00000000: ebae 5636 261c 7938 f389 4b39 597e c93a
00000010: 2c55 b033 284a 5137 597e c93a 2c55 b033
00000020: c2b7 4839 99da e03a 84d6 1639 790d 8037
00000030: 404b c22a ab3b a538 801e 4439 8c10 be3a
00000040: 19b3 4438 2f41 c834 7a4b 9239 f858 5f35
00000050: 2bd3 a636 eb2a 732d 5001 6a38 8ff4 272a
00000060: a7a6 6b36 a72a 3438 d56b c73a 2383 c13a
00000070: c642 1539 7160 8e35 123a 0038 f383 2437
00000080: e02a ea38 8d3b e736 996a a138 dd70 3538
00000090: b401 ad3a b9f4 2837 5f7f ca36 b401 ad3a
000000a0: b9f4 2837 d89d 4038 a5ea ac3a ec9a 5838
000000b0: 75e6 cb37 2dbb 4f36 eb38 1d38 aff4 e638
000000c0: e119 9f3a 24fe a137 f7e7 6a34 ab6d f738
000000d0: 8c75 df36 dc86 8737 201c 5834 ea96 4938
000000e0: 3c6b 1e33 4669 5a34 d647 d636 c401 a23a
000000f0: 6abc 9d3a 7bb2 b538 8509 c236 7956 b435
00000100: a56e b436 de31 ab38 4879 4736 2148 ac38
00000110: 2695 6738 3982 473a 7655 9937 80ea ad36
00000120: 3982 473a 7655 9937 2e74 6e38 ceda 4d3a
00000130: a53b 9238 0992 7837 7792 2e36 fa24 7538
00000140: 2542 bb38 cc85 353a 21a2 9337 cb40 2a34
00000150: 3b63 ec38 b4e3 1237 2f28 6b37 9c24 2d34
00000160: f88d 4b38 81ef 3333 1476 8d36 e245 2937
00000170: 4a4e 3a3a 7b6b 323a 26cb d538 f8b9 d936
00000180: 8ae5 1637 5453 8636 7001 7b38 9843 8138
00000190: e26d fe39 fe8c 0a3a 2a96 ab3b ef55 c837
000001a0: 1ba8 0838 2a96 ab3b ef55 c837 e0e0 063a
000001b0: 351f b83b ea4d 9039 3161 4a39 4bb3 7a37
000001c0: f9a9 d139 b18b f039 5ec9 983b feb1 0139
000001d0: fd48 ad35 099c 6b3a dd8c 0b38 9690 9838
000001e0: 3160 2335 6129 6539 3fb7 f434 f30c 4237
000001f0: 8153 8938 967e 9c3b 72e0 983b 1777 3a3a
00000200: f539 0e38 271f 9738 dbd1 1238 7f40 c039
00000210: cc00 f02f 81ea 5536 ef3f cf33 01ff a537
00000220: 8dfc 8f34 2b7b c733 01ff a537 8dfc 8f34
00000230: 8f5d 4b34 6dcc 8337 5f1a 8e36 48c5 d62d
00000240: 2ceb 3525 a899 f734 6977 a137 970f 0f32
00000250: 6955 9534 b37a 0b23 8ab0 8f37 2298 2a35
00000260: d74e 0836 63a2 d31b 4737 2833 dfda 1832
00000270: d22e 4231 2167 b034 e2ee 9733 6707 5132
00000280: ba7d 1f35 0000 0000 9327 7f34 f4cd 1d36
00000290: 3842 8f37 d8aa 2638 0b17 aa39 89a6 5b39
000002a0: ff90 0c3b d876 8438 8540 7637 ff90 0c3b
000002b0: d876 8438 498c 6939 a8e2 163b ea77 1239
000002c0: d336 f838 4b3a 3437 bec1 8139 f4bb 4139
000002d0: 1076 fb3a 00e0 3638 6e69 4f35 e56b b439
000002e0: e7cb 8b37 9660 1038 bd0b 5335 e76a 7239
000002f0: f771 3934 c004 c936 d707 f637 8b65 023b
00000300: 2fe7 f93a 1681 e539 e345 8c37 4ad3 0838
00000310: d91e b637 2d64 0c39 224e e734 0032 0039
00000320: 82cc 1b38 2943 613b edfa 6138 a0ca cc37
00000330: 2943 613b edfa 6138 c80a 6e38 a40a 653b
00000340: eaf0 7f38 3da4 1a38 7fc4 8c2b 9cbd 2837
00000350: e8a5 6838 7dd8 5f3b 8745 2b38 4327 312e
00000360: d809 8e35 b7ad b935 b39b 6438 064d a435
00000370: 676a ab36 9916 f633 2d3f fd35 b27c bb34
00000380: 69b9 643b 3d98 5d3b 19f0 2339 85d7 0921
00000390: fc8b bd36 5471 4835 8d45 1437 686f e330
000003a0: e090 4c37 da30 2b34 1a43 892e 8caa f137
000003b0: 3178 ab35 1a43 892e 8caa f137 4bde c035
000003c0: da80 5b37 37dc 4a37 3032 9233 0af7 8c19
000003d0: a037 0736 1b6a ce35 e128 a937 1b28 c936
000003e0: 3e2a 8f2f 0000 0000 0000 0000 57ce a537
000003f0: 10c3 3d35 b27b 1834 1415 c533 c1c5 0632
3.19903e-06 5.939244e-05 0.00019410979 0.0015372738 8.211131e-08 1.2474637e-05 0.0015372738 8.211131e-08
0.00019141941 0.0017154991 0.00014385028 1.5265063e-05 3.4513538e-13 7.878927e-05 0.00018703379 0.0014500781
4.689684e-05 3.730033e-07 0.00027903524 8.320344e-07 4.9717687e-06 1.38224805e-11 5.579117e-05 1.4917428e-13
3.5114733e-06 4.2955067e-05 0.0015214632 0.0014763813 0.00014234622 1.0607893e-06 3.057166e-05 9.805884e-06
0.000111659756 6.891269e-06 7.6969336e-05 4.3258875e-05 0.001319936 1.0070559e-05 6.034897e-06 0.001319936
1.0070559e-05 4.592337e-05 0.0013192488 5.1642695e-05 2.43068e-05 3.0954354e-06 3.7484726e-05 0.000110128305
0.001213845 1.9311039e-05 2.1877337e-07 0.00011798305 6.659602e-06 1.6156053e-05 2.01268e-07 4.8062684e-05
3.688477e-08 2.034113e-07 6.38606e-06 0.0012360145 0.0012034301 8.663997e-05 5.7827588e-06 1.3436212e-06
5.3772987e-06 8.163204e-05 2.9723906e-06 8.215034e-05 5.5213597e-05 0.0007610652 1.8278817e-05 5.183101e-06
0.0007610652 1.8278817e-05 5.6851823e-05 0.0007852734 6.972932e-05 1.4815953e-05 2.6013274e-06 5.844699e-05
8.929175e-05 0.00069245393 1.7599263e-05 1.5856055e-07 0.0001127184 8.755294e-06 1.40164475e-05 1.6125199e-07
4.853119e-05 4.1894513e-08 4.2158736e-06 1.0089456e-05 0.0007107003 0.0006806177 0.00010194471 6.4887536e-06
8.99414e-06 4.003212e-06 5.9844402e-05 6.16379e-05 0.00048528524 0.00052852917 0.005236407 2.3881874e-05
3.2581487e-05 0.005236407 2.3881874e-05 0.00051452033 0.0056189545 0.0002752387 0.00019300428 1.4942906e-05
0.00039990226 0.00045880445 0.0046626767 0.00012368706 1.2910747e-06 0.00089877896 3.327137e-05 7.274856e-05
6.086221e-07 0.00021854557 4.558187e-07 1.1566316e-05 6.548223e-05 0.0047758324 0.004665428 0.00071130827
3.3909415e-05 7.206044e-05 3.5004556e-05 0.00036669147 4.3656312e-10 3.1875973e-06 9.650818e-08 1.9788278e-05
2.681958e-07 9.289064e-08 1.9788278e-05 2.681958e-07 1.8939885e-07 1.571161e-05 4.235e-06 2.4416594e-11
1.5778927e-16 4.6119135e-07 1.92483e-05 8.32724e-09 2.7815557e-07 7.561188e-18 1.7129136e-05 6.355132e-07
2.031147e-06 3.5011962e-22 3.9165823e-08 8.89733e-09 2.825733e-09 3.285759e-07 7.074938e-08 1.2167084e-08
5.941507e-07 0.0 2.3763123e-07 2.3514704e-06 1.7077764e-05 3.9736595e-05 0.00032442095 0.00020947507
0.002144873 6.316387e-05 1.4677765e-05 0.002144873 6.316387e-05 0.00022272872 0.0023023281 0.00013968316
0.00011835773 1.0742408e-05 0.00024749147 0.00018475932 0.0019184966 4.3600798e-05 7.726693e-07 0.00034412663
1.666504e-05 3.4422228e-05 7.8620707e-07 0.00023118743 1.7270928e-07 5.99082e-06 2.9329136e-05 0.001989695
0.001906609 0.0004377446 1.6721844e-05 3.2621705e-05 2.1710455e-05 0.00013388759 4.3083952e-07 0.00012225658
3.7145343e-05 0.0034372306 5.3877873e-05 2.441305e-05 0.0034372306 5.3877873e-05 5.6753663e-05 0.003494897
6.1021106e-05 3.686942e-05 1.0002137e-12 1.0057727e-05 5.5467623e-05 0.0034156137 4.083433e-05 4.0280012e-11
1.0582689e-06 1.3834132e-06 5.4504442e-05 1.2241369e-06 5.108584e-06 1.1459378e-07 1.8868355e-06 3.4922192e-07
0.0034900552 0.0033812665 0.00015634335 4.6702643e-19 5.6489353e-06 7.467072e-07 8.837681e-06 1.6548087e-09
1.2193079e-05 1.5943388e-07 6.241958e-11 2.8808856e-05 1.2775473e-06 6.241958e-11 2.8808856e-05 1.436981e-06
1.3083418e-05 1.2091411e-05 6.807784e-08 1.4575439e-23 2.0148946e-06 1.5379077e-06 2.0165406e-05 5.9949357e-06
2.6041563e-10 0.0 0.0 1.9765617e-05 7.069184e-07 1.4201103e-07 9.1773614e-08 7.844791e-09

acc_delta f4 [98, 33]
00000000: 5dea 0734 7318 f735 7d7b 7d36 425b 2937
00000010: ed1b 5c33 9524 6935 425b 2937 ed1b 5c33
00000020: ba27 4236 6e83 9437 b432 2036 529f 5f35
00000030: d567 122a d36c 8136 c5fa a736 6ea9 e335
00000040: 4c4a b635 42c0 8034 0279 d436 bcee 6e34
00000050: f866 b834 2fd4 b12a 79ce ee35 08cd 262a
00000060: 4a15 ea34 9946 0336 3d1c c936 e497 3b36
00000070: fbec 2236 d934 7533 3879 4435 f4d7 aa34
00000080: aeb0 2636 fd46 0535 37ed b036 5b0b 6e36
00000090: 1d5a 5837 763b b035 2380 2b35 1d5a 5837
000000a0: 763b b035 93bd 2736 ccb0 3937 9d60 3c36
000000b0: 4aa1 0336 c76a de34 b0c2 7436 f91a f436
000000c0: db63 9636 bce9 ff35 4263 2d34 7910 eb36
000000d0: 802a 3535 09f3 ca35 ffb8 e233 ea95 6036
000000e0: 1daf ad31 225e 1333 f8bb 6035 edc1 f236
000000f0: fac6 ca35 affa cb36 07e3 d334 e366 0834
00000100: 1bb9 a234 2a87 5e36 d853 f134 e816 7c36
00000110: 0491 4b36 f6c4 3337 082f 9435 9233 4d35
00000120: f6c4 3337 082f 9435 6339 2136 db8d 5a37
00000130: 0f3c 1b36 d49f c435 31e7 d834 6451 9e36
00000140: 09e7 e636 e929 8236 518a d435 c707 0034
00000150: b42a ef36 6572 4635 dae7 9835 af12 b633
00000160: a31b 9936 b021 9032 027a 1a35 d25c d935
00000170: bf0e c636 e880 2e36 8576 8436 24d8 e334
00000180: a054 5a35 aff7 9d34 f968 7b36 b23d 2535
00000190: f470 b836 8ce3 a136 4a38 4537 c147 0f34
000001a0: c955 9435 4a38 4537 c147 0f34 53b7 a836
000001b0: 2c44 6837 588b 7336 5491 1636 58d2 f834
000001c0: 4455 9136 86c0 f836 c35e cc35 e6fb cf35
000001d0: 82c5 d134 bab9 1b37 fd4b 5835 0b43 c035
000001e0: 10cb 1f34 edff 5936 6f5c 1d33 27bd 0835
000001f0: 2ae4 b635 360e c836 777d 0b36 1b18 e836
00000200: 3bce da34 c6fe 8135 bfef ad34 3100 4c36
00000210: e4ce ef2f ad56 ec34 8693 dd32 81cd 2536
00000220: 2df0 dd33 846b 0833 81cd 2536 2df0 dd33
00000230: 8006 7233 5f94 0536 9e70 7035 6cc3 d62d
00000240: cd97 2225 07e2 a334 e26c 3936 d7c6 ee31
00000250: 00a0 e233 ac79 0b23 b9cb ff35 c1eb 7b33
00000260: 1edb 0035 f6a1 d31b 894c c831 6f2b 0132
00000270: dafd 4d30 b231 3f34 3a26 f132 9c61 1a32
00000280: 3abf a433 0000 0000 b827 c033 dab2 8834
00000290: 6730 2036 7761 3135 c564 a336 f199 8a36
000002a0: 2456 3c37 15fa 8035 b4a2 5435 2456 3c37
000002b0: 15fa 8035 2576 7e36 ad69 6537 6a22 1c36
000002c0: 81e7 2036 d2d6 f534 6cd0 8736 9b13 b636
000002d0: e3ea 6736 1198 9f35 2ca2 ac34 2b37 0137
000002e0: c173 ab34 c6dc 7d35 c6cf 5a34 0324 b136
000002f0: a152 ea32 9628 da34 f23e 9b35 df39 af36
00000300: b2a1 4036 5cb0 e436 5ab4 a834 5c63 7735
00000310: efe6 af34 8aae 2c36 d487 9032 e54a 6a36
00000320: c4f8 6e35 bd73 4236 3c8c 9a35 6a42 6835
00000330: bd73 4236 3c8c 9a35 5074 d735 856a e336
00000340: 69ef ad35 fb3c 2b35 f25d 422a b1fd 0835
00000350: bcc1 c935 3e73 3b36 e11d 9e35 3d86 032e
00000360: 4815 1a34 9428 7834 3832 8535 6fd3 6534
00000370: 0792 0434 8d82 1c33 a6d0 d834 7c89 4733
00000380: 479a cc36 a61e b335 6d75 5a36 cbed 0721
00000390: 554e 8234 6118 c433 1170 2a35 d23c e130
000003a0: 5866 c334 e99e 6131 6378 082e 9564 2735
000003b0: 6627 5134 6378 082e 9564 2735 9a5e 2234
000003c0: 3426 a434 9735 1e35 2793 1a33 056f 2018
000003d0: 9fbc af33 c4ba 2234 055c db34 738c 6134
000003e0: a41f 8f2f 0000 0000 0000 0000 a855 2c35
000003f0: 38b4 c033 6204 df33 9ac1 e732 c093 cd31
1.2658116e-07 1.841005e-06 3.7771817e-06 1.0094433e-05 5.124814e-08 8.68525e-07 1.0094433e-05 5.124814e-08
2.8931377e-06 1.7704177e-05 2.387137e-06 8.3305815e-07 1.3003429e-13 3.8571684e-06 5.0061813e-06 1.6962128e-06
1.358168e-06 2.3981744e-07 6.3321795e-06 2.2252328e-07 3.434759e-07 3.1588748e-13 1.7792473e-06 1.4814896e-13
4.3601386e-07 1.9561614e-06 5.993554e-06 2.7953583e-06 2.4277822e-06 5.7091572e-08 7.3192086e-07 3.1822094e-07
2.4838769e-06 4.964966e-07 5.272824e-06 3.5471373e-06 1.2895584e-05 1.3130327e-06 6.388893e-07 1.2895584e-05
1.3130327e-06 2.4995286e-06 1.1068023e-05 2.807042e-06 1.9614404e-06 4.1428413e-07 3.6472156e-06 7.2749067e-06
4.481973e-06 1.9067006e-06 1.614799e-07 7.0054634e-06 6.74896e-07 1.5120905e-06 1.0557596e-07 3.3465863e-06
5.0548707e-09 3.4311718e-08 8.3720033e-07 7.234738e-06 1.5108083e-06 6.079055e-06 3.9466997e-07 1.2703417e-07
3.0309533e-07 3.3159254e-06 4.4950752e-07 3.756426e-06 3.0333767e-06 1.071509e-05 1.1040547e-06 7.6443496e-07
1.071509e-05 1.1040547e-06 2.4024273e-06 1.3026841e-05 2.3131759e-06 1.4649654e-06 4.040135e-07 4.718242e-06
6.88143e-06 3.879181e-06 1.5835486e-06 1.1923758e-07 7.1277263e-06 7.3927214e-07 1.139236e-06 8.478434e-08
4.5629727e-06 1.6779126e-08 5.7547015e-07 1.6194774e-06 5.9025765e-06 2.6003054e-06 3.947704e-06 4.2439308e-07
8.1334474e-07 2.9423742e-07 3.7463017e-06 6.155707e-07 5.496777e-06 4.824664e-06 1.1755221e-05 1.3344017e-07
1.1051826e-06 1.1755221e-05 1.3344017e-07 5.028132e-06 1.384415e-05 3.629093e-06 2.2436334e-06 4.6346645e-07
4.331263e-06 7.4133886e-06 1.5226764e-06 1.5496014e-06 3.907299e-07 9.281963e-06 8.057685e-07 1.4324627e-06
1.4881903e-07 3.2484488e-06 3.663848e-08 5.09392e-07 1.3626461e-06 5.962119e-06 2.0785644e-06 6.916945e-06
4.0755717e-07 9.685398e-07 3.23982e-07 3.039848e-06 4.362085e-10 4.402149e-07 2.5794872e-08 2.4706535e-06
1.0334802e-07 3.1762752e-08 2.4706535e-06 1.0334802e-07 5.6350927e-08 1.9904908e-06 8.9570847e-07 2.4415768e-11
1.4102692e-16 3.0525572e-07 2.7630526e-06 6.949317e-09 1.0553049e-07 7.56097e-18 1.9058272e-06 5.865491e-08
4.8002573e-07 3.5011687e-22 5.829467e-09 7.518664e-09 7.493931e-10 1.780634e-07 2.8073476e-08 8.986174e-09
7.671629e-08 0.0 8.9479215e-08 2.5462106e-07 2.3870032e-06 6.607947e-07 4.8695097e-06 4.1306416e-06
1.1225729e-05 9.609527e-07 7.921292e-07 1.1225729e-05 9.609527e-07 3.7917719e-06 1.3674068e-05 2.3265843e-06
2.397661e-06 4.5791109e-07 4.047577e-06 5.426305e-06 3.4558404e-06 1.189068e-06 3.2155492e-07 7.701844e-06
3.1935454e-07 9.457111e-07 2.037842e-07 5.2792034e-06 2.727876e-08 4.0635194e-07 1.1566719e-06 5.2221435e-06
2.8704349e-06 6.8154604e-06 3.1423662e-07 9.215926e-07 3.2764316e-07 2.5731592e-06 1.6825574e-08 3.4912312e-06
8.902391e-07 2.8975621e-06 1.1514708e-06 8.652338e-07 2.8975621e-06 1.1514708e-06 1.60526e-06 6.7775277e-06
1.2959182e-06 6.37912e-07 1.7263255e-13 5.103312e-07 1.5032051e-06 2.7932251e-06 1.1780613e-06 2.990518e-11
1.435011e-07 2.3111562e-07 9.923888e-07 2.1404206e-07 1.2346582e-07 3.6440316e-08 4.0384947e-07 4.645834e-08
6.097634e-06 1.3345459e-06 3.2552882e-06 4.6054496e-19 2.427138e-07 9.131396e-08 6.3493013e-07 1.6388191e-09
3.6396045e-07 3.283214e-09 3.1029745e-11 6.2358714e-07 1.9478975e-07 3.1029745e-11 6.2358714e-07 1.5121842e-07
3.0575177e-07 5.893757e-07 3.5989753e-08 2.0735566e-24 8.1833825e-08 1.515537e-07 4.0858882e-07 2.1005853e-07
2.603403e-10 0.0 0.0 6.419964e-07 8.973478e-08 1.0385044e-07 2.697998e-08 5.9830825e-09

square_avg f4 [98]
00000000: 18a1 e63a 62dc b33a 0b0e 5a3a 4fda cc3b
00000010: 9686 a737 4004 203b e5ba 673b a23c fa37
00000020: cdf3 a43a 9c6a 3f3c 4961 193a d240 4133
00000030: ce8c f639 029b 9e3b fc90 8f3a 1eb7 5639
00000040: eb09 233a 06e4 8d3b 8a25 8539 c1b2 8e38
00000050: 6c60 823b 67dc 9238 d748 1739 8845 f339
00000060: 1ee1 8239 8338 f83b 276c 823a 1bd6 503b
00000070: 826d 413a 6b7f b639 a6e9 043b e4b1 8b3a
00000080: a724 4239 cd5d 803c bab8 e638 8368 643b
00000090: dfee 6f3a 96f6 823a 9b29 2e3b 82fe 8338
000000a0: 29a3 cd37 0d44 cf36 c765 0f3a 9d72 d839
000000b0: 418c 3137 fe8b af39 2fd4 8839 f55f 743a
000000c0: 85ca 0d3a e234 b239 d7b2 cc39 95b0 4336
000000d0: 9ddb ea38 73dc 1b3b a790 9a38 3919 0b38
000000e0: 8a78 a13b 1e78 4737 39c0 0c3b 5b5e da39
000000f0: 8dc9 fb3b b154 3539 46c1 8b3b d8b2 ff3b
00000100: f284 eb35 b88b 113b 978d 1a3b 0d80 b838
00000110: 831f a339 5004 323a 2535 0e32 0503 063b
00000120: 7acb 8c39 546d da3a abd2 143a ff8a f039
00000130: 2c85 db3a 7df5 a836 27bc 813a 4168 7c38
00000140: 1b30 683b 023c 8e36 939f 643a b9b3 9539
00000150: cbe7 d537 b1d4 cf39 2e8e aa3a 29e3 d339
00000160: a8c5 aa3a 21dd 643b 6440 963a 1b67 9b3a
00000170: 373c 3637 ed8d 023b e861 503a a4f8 e83a
00000180: fb8f 0037 f845 ae37
0.0017595617 0.0013722295 0.00083181326 0.0062516103 1.9970623e-05 0.0024416596 0.00353592 2.9830557e-05
0.0012584865 0.0116831325 0.00058509834 4.4995268e-08 0.00047025684 0.0048402557 0.0010953243 0.00020476847
0.00062194344 0.004330161 0.00025395706 6.804383e-05 0.0039787795 7.002876e-05 0.00014427617 0.00046400377
0.00024963258 0.007575096 0.0009950445 0.0031865898 0.00073786837 0.0003480868 0.0020280867 0.0010657874
0.00018514936 0.015669728 0.00011001663 0.0034852333 0.0009152721 0.0009991701 0.0026575092 6.2939725e-05
2.4513882e-05 6.177003e-06 0.0005470183 0.00041284124 1.05826775e-05 0.00033482903 0.0002609803 0.000932216
0.0005408901 0.00033990206 0.00039043158 2.9160049e-06 0.00011198896 0.002378252 7.370236e-05 3.3163673e-05
0.0049276995 1.1889291e-05 0.0021476878 0.000416505 0.007683939 0.00017293055 0.0042649833 0.0078033023
1.7547557e-06 0.0022208523 0.002358293 8.797655e-05 0.0003111326 0.0006790804 8.2775715e-09 0.0020448577
0.00026854483 0.0016664662 0.0005677144 0.00045879927 0.0016748062 5.0353688e-06 0.0009897993 6.0178576e-05
0.0035429064 4.2389156e-06 0.0008721288 0.00028553398 2.5499516e-05 0.00039640584 0.0013012344 0.00040414304
0.0013028877 0.0034921842 0.0011463282 0.0011856289 1.0862065e-05 0.001992102 0.00079491595 0.0017774296
7.662918e-06 2.0774998e-05

acc_delta f4 [98]
00000000: d2ed f636 65e2 4037 843a 1237 0f8a a237
00000010: fc97 5136 93f9 3737 02d4 fd36 2e45 2b35
00000020: dfe9 ed36 a85d 4a37 f994 9d36 34c4 3b33
00000030: 975e 2337 6dfb 0e37 5477 5036 1648 d136
00000040: 46c9 1837 a474 6f37 9dea f036 a627 8e36
00000050: 2290 2037 ddcc 0937 2d64 b936 ab98 3f36
00000060: ccd7 1d37 f373 0137 804d 0a37 871e 0037
00000070: 3fdc ee36 d7bc 1d37 0f21 2537 0c1a 3336
00000080: f604 1d36 c85e d536 66a1 f736 a169 8736
00000090: aced 2e37 0897 1a37 2d72 4337 33d6 6d36
000000a0: 35f8 6e36 9303 db35 b8e4 6936 0297 7a36
000000b0: b617 ad35 6ad6 1737 d082 4136 ad23 e036
000000c0: a28e 7c36 b0a9 fc36 1682 3437 3b09 dd34
000000d0: 7a98 9d36 7401 2d37 1d44 5536 7298 aa36
000000e0: 7227 dd36 5377 4836 2633 8337 5fc6 ed36
000000f0: e380 2237 3090 5d37 eed0 4637 1f33 2637
00000100: 451d 8335 4c36 2a37 3a5e 3637 4b47 ab36
00000110: 140b 0036 604c 4536 5075 0832 ac85 f536
00000120: 61da a136 12f3 2037 5365 2137 7a2f e136
00000130: 4545 7137 853d b635 76a5 0337 8376 1b37
00000140: d987 4437 85ee b435 4ee0 5237 e113 3a36
00000150: 9245 9836 3fe3 0837 edcd 7836 7d17 8636
00000160: 6976 1037 8c91 1d37 6668 0137 b165 2a37
00000170: 384d 4436 9f23 0437 0033 3a37 5e6f 2237
00000180: 65f9 9335 ab4a 6636
7.3590572e-06 1.1496803e-05 8.715902e-06 1.9376193e-05 3.1231893e-06 1.09657585e-05 7.5646685e-06 6.3803134e-07
7.0903766e-06 1.2061944e-05 4.6963073e-06 4.3717776e-08 9.7375805e-06 8.522399e-06 3.1063873e-06 6.2370773e-06
9.106769e-06 1.4272668e-05 7.17987e-06 4.2365455e-06 9.570302e-06 8.213535e-06 5.5250916e-06 2.8550082e-06
9.408173e-06 7.715996e-06 8.243485e-06 7.636502e-06 7.1185927e-06 9.401897e-06 9.842463e-06 2.668824e-06
2.339771e-06 6.3589287e-06 7.379963e-06 4.0356103e-06 1.04265455e-05 9.21428e-06 1.1649489e-05 3.5440432e-06
3.560924e-06 1.6317812e-06 3.4852837e-06 3.73408e-06 1.2896405e-06 9.0502235e-06 2.8835384e-06 6.6798734e-06
3.763395e-06 7.5299395e-06 1.0759124e-05 4.1171174e-07 4.696715e-06 1.0311942e-05 3.177912e-06 5.084142e-06
6.5909053e-06 2.9871778e-06 1.5640235e-05 7.086244e-06 9.685961e-06 1.3206198e-05 1.1850365e-05 9.906274e-06
9.768779e-07 1.0145432e-05 1.0869984e-05 5.1044967e-06 1.9079935e-06 2.9399744e-06 7.942916e-09 7.3171304e-06
4.8235966e-06 9.593337e-06 9.619939e-06 6.7110495e-06 1.43808475e-05 1.3577961e-06 7.846733e-06 9.266313e-06
1.171414e-05 1.3480463e-06 1.25692e-05 2.772773e-06 4.538052e-06 8.1591415e-06 3.7074744e-06 3.9962456e-06
8.610638e-06 9.391817e-06 7.713306e-06 1.01564665e-05 2.9251223e-06 7.876107e-06 1.1098338e-05 9.681882e-06
1.1024937e-06 3.4316133e-06

square_avg f4 [48, 98]
00000000: 55f4 0a37 c060 f537 8cda 7a3a cd5a 0b38
00000010: ecac df34 4393 0139 323f c938 027b 3135
00000020: 1349 e038 bac8 5438 7912 ad37 3bed f130
00000030: 27d6 8337 e8f2 b939 303b e436 1e75 0a38
00000040: 037b 6638 2800 2c38 4f9a 113a 6b19 4a36
00000050: bc6a 8d37 5904 4139 559f 5f38 91a1 8837
00000060: 5cc0 bb38 3b33 a538 38c0 5638 8e68 8f37
00000070: 2245 9237 933a 8a37 08db 5538 e3e5 0036
00000080: becc 5536 aca3 ea36 e1a3 c338 45ed 6838
00000090: d615 bb38 dbc5 1e38 e802 2e39 d241 0736
000000a0: ceab 1c3a 1aa1 8f37 93c9 d635 b560 8c37
000000b0: 364c 0537 de03 7f37 7740 dc36 ffc6 1d39
000000c0: b706 bc36 75af e339 c0e0 3b39 5cb4 c134
000000d0: 53f7 5137 c2ab 2839 9dfe 0d36 35cc 2b37
000000e0: 9494 2238 ecfa d239 14f8 4638 ea8e 6b37
000000f0: 859f c039 f113 0138 163f 9638 e74e ae39
00000100: 56ed d935 ad4e c138 4c88 1738 2549 1638
00000110: 76f8 6536 e20c 7e38 a866 2630 58e2 8437
00000120: 51f9 2a37 4bdc 8539 9b49 ae38 9777 4039
00000130: 318a 8a37 e217 a335 997c ad36 3298 6339
00000140: daac 0537 4847 9039 ebde 0a38 2058 2037
00000150: c2e4 3539 f991 5e38 7198 7b37 e05e aa37
00000160: ac56 ae38 cabb 7837 08e5 4538 b74b 3439
00000170: ab51 c939 1e79 aa38 e7ab 1138 2e7c be38
00000180: 1aea 5036 acff 9738 018b 2736 a605 4b37
00000190: bf4f 8d39 7b21 5a37 c6cd ef33 3adc 2d38
000001a0: b381 ca37 049a 3434 05c1 e137 146c 9637
000001b0: e494 9836 1597 6730 fbff d136 a777 c938
000001c0: 5b44 5736 7735 0a37 0ff1 ea37 832c d837
000001d0: c116 2139 bda2 6536 4725 5937 da52 5c38
000001e0: b9a9 5a37 7364 9f36 8198 e337 e923 a437
000001f0: 99cb a337 698c 2937 6211 dd36 4322 1937
00000200: 7e54 fa37 204b 5036 1d09 5d35 6caf 7336
00000210: b964 1838 a736 7037 9b16 cb37 5aef 4037
00000220: 0268 4738 192b 0735 e456 2939 433c dd36
00000230: f4d7 0935 f10c ea36 d0cb 3936 bcb5 be36
00000240: db15 6836 a50e 4d38 8daa 1636 a968 0039
00000250: 7dae 6038 2873 c733 e37c 0437 3781 2938
00000260: 4588 2035 8a39 7d36 6fc9 8237 c5fa ea38
00000270: 8393 9637 10d8 8f36 0f8c d338 379a 5637
00000280: 5f00 a637 c389 b338 a8c9 d534 15fa 1938
00000290: e5b3 1f37 be97 8337 96c2 0c36 35c8 b537
000002a0: 3cd7 5530 3043 7c37 c135 2536 2576 9238
000002b0: f5b4 fb37 3be5 5638 7b33 1037 1862 a234
000002c0: df90 5136 48d5 8438 9ef8 b936 c2c8 b138
000002d0: 2c6a 5037 22bc 7436 5f1e 8438 08cb eb37
000002e0: 799c 6d36 545b 7437 0f7d 2338 db5c 4237
000002f0: 10b3 fa37 d245 6638 2705 d238 2464 c737
00000300: 2f1b 2437 9f12 ee37 5fff 8035 2b31 bb37
00000310: 5fe3 d934 b259 0036 f344 3738 7fc2 0d36
00000320: 423f 9532 3bbd e136 9710 8336 e189 e832
00000330: 7f95 9136 09a9 4236 efaf 4935 32bb 162f
00000340: 94bd 8c35 1037 8237 0d00 0d35 a07e b435
00000350: 1d8e 9936 93c4 8c36 bad1 d037 9669 1635
00000360: 5ede 0d36 f9cb 0f37 616f 1036 1627 5335
00000370: db85 9336 c424 5536 3758 5936 b23c dd35
00000380: 5964 9135 3105 c835 1b56 a336 67f5 0735
00000390: daff 1034 d99e 2135 a4a9 c536 87c7 1b36
000003a0: c96a 8436 8576 fb35 698a 0137 5fdc b233
000003b0: 1e3f db37 070d 9135 8112 a733 4515 9835
000003c0: 6548 f834 8794 7935 98f8 1335 2c98 0637
000003d0: 3c48 c734 1bfa a837 8e86 1137 bac1 8332
000003e0: 1ab5 ab35 6739 db36 4563 b733 ad95 2535
000003f0: 7e24 2c36 cea1 9837 1822 4336 cf84 3c35
8.282329e-06 2.9251329e-05 0.0009569309 3.3224747e-05 4.1662804e-07 0.00012357258 9.596198e-05 6.611664e-07
0.000106947635 5.073168e-05 2.063181e-05 1.7602483e-09 1.571614e-05 0.0003546693 6.80182e-06 3.3010838e-05
5.4950837e-05 4.100814e-05 0.0005554305 3.011514e-06 1.6858212e-05 0.00018407534 5.3315733e-05 1.6287699e-05
8.9526846e-05 7.8773555e-05 5.1200594e-05 1.7095615e-05 1.7436749e-05 1.6478158e-05 5.0987146e-05 1.9207298e-06
3.185865e-06 6.9927974e-06 9.3288494e-05 5.5534085e-05 8.920922e-05 3.7854403e-05 0.00016595016 2.015488e-06
0.00059765286 1.7121947e-05 1.6002908e-06 1.6734333e-05 7.945162e-06 1.5200085e-05 6.5640156e-06 0.00015046819
5.6036183e-06 0.0004342754 0.00017917436 3.608028e-07 1.2514955e-05 0.00016085713 2.1158842e-06 1.023994e-05
3.8762184e-05 0.00040241273 4.743792e-05 1.4040366e-05 0.00036739945 3.077457e-05 7.164308e-05 0.00033246653
1.6236834e-06 9.217612e-05 3.612814e-05 3.5830908e-05 3.4268282e-06 6.0570317e-05 6.053633e-10 1.5841026e-05
1.0190838e-05 0.00025531868 8.310677e-05 0.00018355098 1.6515232e-05 1.2151397e-06 5.170307e-06 0.00021705104
7.967663e-06 0.0002751893 3.3109372e-05 9.557261e-06 0.00017346724 5.3064872e-05 1.4996259e-05 2.0309759e-05
8.3131104e-05 1.4825675e-05 4.7181762e-05 0.00017194344 0.00038398555 8.1287915e-05 3.473079e-05 9.083036e-05
3.113068e-06 7.247864e-05 2.496585e-06 1.2101058e-05 0.0002695303 1.3001608e-05 1.1166735e-07 4.1451516e-05
2.4140672e-05 1.6819837e-07 2.6911972e-05 1.7931721e-05 4.547286e-06 8.425201e-10 6.2584854e-06 9.606714e-05
3.2077285e-06 8.237889e-06 2.8007225e-05 2.5769934e-05 0.00015362633 3.4218385e-06 1.2942887e-05 5.252925e-05
1.3033329e-05 4.750263e-06 2.7131524e-05 1.9567045e-05 1.9525922e-05 1.0105877e-05 6.588337e-06 9.127488e-06
2.9841667e-05 3.1038144e-06 8.234218e-07 3.631193e-06 3.633343e-05 1.43178395e-05 2.4210012e-05 1.149982e-05
4.7542162e-05 5.0354134e-07 0.00016149465 6.5933286e-06 5.135073e-07 6.97525e-06 2.7685783e-06 5.683598e-06
3.4583416e-06 4.8889447e-05 2.2451015e-06 0.0001224602 5.3568267e-05 9.2876064e-08 7.896891e-06 4.041308e-05
5.9802943e-07 3.773343e-06 1.5591007e-05 0.00011204699 1.7950084e-05 4.286885e-06 0.00010087352 1.27913e-05
1.9788915e-05 8.561045e-05 3.9821066e-07 3.671095e-05 9.5190235e-06 1.5687077e-05 2.097489e-06 2.167011e-05
7.7794815e-10 1.5036014e-05 2.4618205e-06 6.983829e-05 3.0005796e-05 5.1235063e-05 8.595055e-06 3.0246224e-07
3.1227753e-06 6.333977e-05 5.5423725e-06 8.477412e-05 1.2422486e-05 3.646834e-06 6.2999075e-05 2.8108727e-05
3.540683e-06 1.4564797e-05 3.89787e-05 1.1584921e-05 2.9885705e-05 5.49013e-05 0.0001001454 2.376928e-05
9.781491e-06 2.8380482e-05 9.611066e-07 2.2315033e-05 4.0584834e-07 1.9125696e-06 4.3694814e-05 2.112385e-06
1.737465e-08 6.727552e-06 3.9060355e-06 2.7071055e-08 4.3387404e-06 2.9006644e-06 7.513435e-07 1.3708926e-10
1.0485987e-06 1.5522848e-05 5.2526667e-07 1.3447898e-06 4.5762995e-06 4.1952094e-06 2.4893194e-05 5.6033e-07
2.1140072e-06 8.570955e-06 2.1522503e-06 7.86605e-07 4.396524e-06 3.1760874e-06 3.2386868e-06 1.6483448e-06
1.0832547e-06 1.4902672e-06 4.8678025e-06 5.0648526e-07 1.3504123e-07 6.020833e-07 5.8908063e-06 2.321294e-06
3.946338e-06 1.8735451e-06 7.721225e-06 8.328856e-08 2.6136226e-05 1.0807133e-06 7.779909e-08 1.1331073e-06
4.6246274e-07 9.2975864e-07 5.512352e-07 8.022453e-06 3.7119196e-07 2.0143625e-05 8.674002e-06 1.5338504e-08
1.27932e-06 6.533391e-06 8.5396586e-08 6.1685097e-07 2.5651239e-06 1.8195158e-05 2.907711e-06 7.022872e-07
