save/new10.pt (torch_old, 73212 bytes, 12 tensors)

fc1.weight f4 [98, 40]
000000 0f 7c bf 3d 1a 58 41 3d 69 dc 2a be 8d 16 49 3e
       0.09349834 0.04720316 -0.16685642 0.19637509
000010 f8 a7 7c 3d f4 d0 e5 bd 97 0d 9f 3c 14 1a 0c 3d
       0.061683625 -0.11221495 0.01941566 0.034204558
000020 01 ca 2f bd ea f8 3d 3e 9e cd 4b bd 77 c7 05 be
       -0.042917255 0.18551984 -0.04975664 -0.13064371
000030 c9 63 1d 3e 38 70 29 3e 96 3b 67 3d 14 e2 b2 bb
       0.15370096 0.16546714 0.05645331 -0.0054590795
000040 f0 36 4c 3e 35 f8 00 be 9d ac 63 be e2 74 23 3d
       0.19942832 -0.12594683 -0.22233815 0.03990639
000050 1a c9 0b 3e 69 04 06 bd 17 05 42 be 10 6b b7 bd
       0.13650933 -0.03271905 -0.18947254 -0.089559674
000060 cd 40 1f be f3 34 26 3e 58 e8 f8 bb 78 fb 6b bc
       -0.15552063 0.16231136 -0.007596057 -0.014403217
000070 8b 90 27 3e e6 35 55 3d ae 96 e7 bd e9 82 3f be
       0.16363733 0.052053355 -0.11308037 -0.18702282
000080 4f 50 b7 3c 63 36 86 bd ef 54 e5 bc c1 27 19 bd
       0.022377161 -0.06553342 -0.027994601 -0.037391428
000090 1f 39 b9 3d 6a ee e0 bd dd 8b 19 bc 6e 97 52 bd
       0.09044098 -0.10982974 -0.009371725 -0.051413946
0000a0 a3 b3 d5 bd 7a 11 3b bd 78 4a fa 3d 8d ec b2 bd
       -0.104346536 -0.045670964 0.12221235 -0.08736525
0000b0 07 ed 13 3c fe bb 04 3e 7d fd e7 bc dd 14 9a 3d
       0.00902868 0.12962338 -0.028319115 0.075235106
0000c0 f3 f4 85 3c d9 2e 25 3e 60 cb 0f 3e c4 ab b6 3d
       0.016352152 0.16131152 0.14042425 0.089194804
0000d0 8f 3e af bd e2 15 59 be e2 d4 23 3e 1d 47 db bd
       -0.08556854 -0.21199754 0.15999177 -0.10706923
0000e0 63 a3 d4 bd 87 0c b5 bc b4 0d f4 3d 10 26 cb bd
       -0.10382726 -0.0221007 0.11916676 -0.09919369
0000f0 1a d5 e8 3d 30 3f 1d 3e 1c 9a 1a be 5e c1 85 3d
       0.11368771 0.15356135 -0.1509785 0.065310225
000100 4a f9 df bd 5a c7 07 3e 46 2b bf 3d 5e 9f 29 bd
       -0.1093622 0.1325964 0.09334426 -0.04141175
000110 90 72 de 3d 87 12 72 bd 33 35 2a bd f0 fc e5 3d
       0.10861695 -0.0590997 -0.04155464 0.112298846
000120 81 f0 84 3c 8a 0f 59 bd 0a 21 af bd ba 16 15 bd
       0.016227962 -0.052993335 -0.085512236 -0.036398627
000130 c9 47 04 be da 0a 0b 3e 8e 7d 98 bd 7a 6c 06 3e
       -0.12918009 0.13578358 -0.07445823 0.13127318
000140 ea 85 0a 3e 5b 41 f4 bd 45 0e db 3d 9c 6d ac 3d
       0.13527647 -0.11926528 0.10696081 0.08419344
000150 05 e3 87 bd 1b 2f ad bc 00 af bc 3d 81 09 15 be
       -0.066350974 -0.021140626 0.09213066 -0.14554407
000160 c8 1a 5f 3d 02 af 05 3e 66 be 41 bd 22 d6 6c bd
       0.0544689 0.13055041 -0.04730072 -0.0578214
000170 1b 64 13 3e 8d 2a 0f be 00 26 d7 3d e7 7a e9 3d
       0.14393656 -0.13981076 0.10505295 0.11400395
000180 17 eb e5 3d 0c 1c e7 bd b3 90 b8 3d bf 3c 30 3b
       0.112264805 -0.112846464 0.09011974 0.0026891676
000190 78 af 24 be b5 13 34 3c 6b ac 07 be 7a 33 1d be
       -0.16082561 0.010991027 -0.13249366 -0.15351668
0001a0 b2 8f db 3b c4 c9 01 be c2 45 ad 3d c3 36 b9 bd
       0.0067004794 -0.12674624 0.08460571 -0.09043648
0001b0 d5 96 1d 3d 32 4b 0f be 04 fa 8f 3d a1 8e 6f 3d
       0.038473923 -0.13993528 0.070301086 0.05848563
0001c0 7c 68 00 3d 7e ad 1d be ff c2 89 3b 19 6e ec 3d
       0.031349644 -0.15398213 0.0042041535 0.11544437
0001d0 25 be 1a be 3b ab e7 bc 2c d9 b2 bc 28 d8 18 be
       -0.15111597 -0.028279891 -0.021832071 -0.14926207
0001e0 39 62 88 3d 5c 77 16 be a2 60 65 3d e8 e4 15 3e
       0.066593595 -0.1469397 0.05600036 0.14638102
0001f0 db ec 0a 3e 02 e9 63 bc 20 80 d0 bd 0f 50 b5 3d
       0.13566916 -0.013910534 -0.10180688 0.088531606
000200 8f b4 1f be 58 63 bb bd b6 00 4c bd 17 1a aa 3d
       -0.15596221 -0.09149808 -0.049805366 0.083057575
000210 3a bb 0b 3d ff 83 4f bd be a9 4a 3d a9 f7 56 be
       0.0341141 -0.05066299 0.049478285 -0.20992912
000220 5a 81 bb 3d ab 35 21 3e 73 69 47 3e c3 ca 95 3d
       0.09155531 0.15743129 0.1947382 0.07314064
000230 66 c0 b2 bd b9 0c 22 3d 14 4a d7 bc 14 f1 d6 bc
       -0.08728103 0.039562915 -0.02628044 -0.026238002
000240 1b 68 ba bd 45 28 3f bc 62 92 d1 bd 63 c0 ab bd
       -0.09101888 -0.011667316 -0.102329984 -0.08386304
000250 1f 08 0f 3c c6 1e 10 3d 04 cf db bd 50 02 d8 bc
       0.008729964 0.035185598 -0.107328445 -0.02636829
000260 b4 c7 b7 bd f2 e8 f7 3d 1a d0 21 3e 27 08 08 bd
       -0.08973637 0.12104978 0.1580204 -0.0332109
000270 41 53 f0 bc d1 29 f5 3d 9f 2b 26 3c 5e 89 6b 3d
       -0.029336574 0.119708665 0.010142236 0.05750405
000280 7d 3b dc 3d e2 0a bc 3d 8e 59 1a 3d 7d 39 76 bd
       0.10753534 0.09181763 0.037683062 -0.06011342
000290 73 25 06 3e 46 ee d7 bd ef ef e9 3c fd f5 7f bd
       0.13100223 -0.10543494 0.028556792 -0.062490452
0002a0 64 15 0b be 9f 5a e1 bd 37 d0 07 3e f9 d2 8f bd
       -0.13582379 -0.11003613 0.13263021 -0.07022662
0002b0 70 ac e3 bd 39 fa 1c be 1b d0 db bd 1d 43 8f bd
       -0.11116874 -0.15329827 -0.10733052 -0.06995223
0002c0 69 ab d5 3c 2a 7c e1 3d 2a ee 13 bb 96 f7 a9 bd
       0.026082711 0.110100105 -0.0022572377 -0.082991764
0002d0 e0 0c bf bc e3 61 86 bd 61 82 98 3d e4 06 0c 3d
       -0.023321569 -0.06561639 0.07446743 0.03418626
0002e0 b7 2d 75 3d 49 a3 ba 3d 47 7f 1c be e3 f8 f2 3d
       0.05985805 0.091131754 -0.15282927 0.118638776
0002f0 09 6d 19 be df e4 0a be a1 58 14 3e 10 bf 03 bd
       -0.14983 -0.1356387 0.14486934 -0.032164633
000300 bd 46 e7 bd 79 42 73 bd 5b 42 0d be db 4a 8e bb
       -0.11292789 -0.059389565 -0.13794844 -0.0043424196
000310 92 a1 ee 3c b1 be d9 bb 7f 53 11 bd 7a b7 be 3c
       0.029129777 -0.0066450466 -0.03548002 0.023280848
000320 b7 cd 97 3e f3 c1 7e 3d b8 cc 7f be f3 5c ef ba
       0.29649135 0.062196683 -0.24980438 -0.0018261954
000330 38 72 f2 3c 25 88 29 3e 15 16 1e be a2 a6 1c 3c
       0.02959548 0.16555841 -0.15438111 0.009561213
000340 f7 59 47 bd 15 9a 2c be 46 77 19 3e 4d 49 26 3e
       -0.04866978 -0.16855653 0.14986905 0.162389
000350 d6 18 02 bd 04 f3 46 3e 29 6d 9b 3b a3 a7 8e 3e
       -0.031761967 0.1942864 0.0047432375 0.27862272
000360 2a f7 ec 3d 52 a8 8b be 9a 82 d0 b9 74 27 44 3c
       0.1157058 -0.27276856 -0.00039770157 0.011972297
000370 e4 fe 15 bd ec 41 5d be 83 8d 5f 3e a5 4f e7 3d
       -0.036620036 -0.21607178 0.21831326 0.11294488
000380 54 c7 5e 3e 13 72 58 bd 80 a3 ea bd 99 af 7b 3d
       0.21755725 -0.052843165 -0.114569664 0.06144676
000390 fc 45 2c be 29 11 d9 3d 9c 28 c9 bd af 7a 30 3d
       -0.16823572 0.10598976 -0.09822199 0.04308575
0003a0 41 f5 34 bc a3 20 f3 bd 3a 92 ff 3d 5f b6 52 bd
       -0.011044801 -0.11871459 0.124790624 -0.051443454
0003b0 e9 bc 34 3d ec de cc 3c d3 10 ca 3d fb 99 27 bd
       0.04412547 0.025008641 0.0986649 -0.04091833
0003c0 12 c3 74 3d 16 c1 c6 bd db 4f 16 be 54 10 28 bd
       0.059756346 -0.09704797 -0.146789 -0.041031197
0003d0 d5 1d 65 bd e3 08 4c 3d 3a c3 8b bd 09 8a 41 bd
       -0.055936653 0.049813163 -0.06824346 -0.04725078
0003e0 c5 94 93 3d a9 95 09 be 1b e1 a7 3d b2 0d 16 be
       0.0720611 -0.13435997 0.08197232 -0.14653662
0003f0 78 6e 9d bd 0f 57 c3 3d d0 ff 09 3e dd 4d f1 3d
       -0.07687086 0.095380895 0.13476491 0.11782429

fc1.bias f4 [98]
000000 ae c8 36 3e fc 18 cf bd 46 29 d0 bd ca 48 9f 3d
       0.1784999 -0.10112187 -0.10164122 0.07777555
000010 37 bd 15 bd b1 e5 4c 3e 7c 6d d9 bd f5 34 a1 3c
       -0.036557402 0.20009495 -0.106165856 0.019678572
000020 1d 76 23 be 66 19 f8 3d 62 37 29 3c f9 fb bb 3c
       -0.15963025 0.12114219 0.010328146 0.022947298
000030 10 fc ea 3d cc 96 87 bd bb 05 c2 3d 9b f1 9e 3d
       0.11473858 -0.06620559 0.09473749 0.07760926
000040 c6 94 92 3d 75 2a e0 3b c8 f8 e6 bd a7 9f e1 bd
       0.071572825 0.006840999 -0.1127792 -0.110167794
000050 5d e9 e2 bd c2 70 d3 bd 5a 9a c2 3d 8f 71 36 3e
       -0.11079667 -0.10324241 0.095020965 0.17816757
000060 0e df 4f 3d a9 18 80 3d 3c 81 cf bd a7 be ff bc
       0.05074983 0.062547036 -0.101320714 -0.03121884
000070 ae 03 26 bd 91 5e 91 bd 5f 89 9d bd e8 4e 7a 3d
       -0.040530853 -0.07098115 -0.07692217 0.061110407
000080 bc 52 19 bd 9b f0 0b be 33 82 3f bd 7d df 84 3d
       -0.037432417 -0.13666002 -0.046755027 0.064879395
000090 bd 70 d2 3d 7c d6 ef bd 2e ba 80 3d 2d ff d8 3d
       0.10275409 -0.117108315 0.06285511 0.10595546
0000a0 10 03 eb bc e1 52 0c 3e 04 77 9f bd f3 b2 17 bc
       -0.028687984 0.13703491 -0.07786372 -0.009258973
0000b0 ed 09 f6 3d 7b 74 e3 3d db 69 31 3e 5f e2 92 bd
       0.12013612 0.11106201 0.17325537 -0.07172083
0000c0 2d 91 94 3d 0b c4 d9 bd 85 df 34 bd e5 cf 64 3b
       0.072542526 -0.10633095 -0.044158477 0.0034913954
0000d0 5d 3b 90 bc e8 90 da 3b 8c 0b 06 3d f4 98 8b 3d
       -0.017606432 0.006670106 0.032725856 0.06816283
0000e0 72 a8 88 3d 04 8c 15 be 2a 53 bf 3d 79 20 21 be
       0.066727534 -0.14604193 0.09342034 -0.15735044
0000f0 54 bf dd bd 89 c7 ab 3d fe b9 23 3d 93 3e c0 3d
       -0.108275086 0.08387668 0.039972298 0.09386935
000100 87 26 06 3e ff d9 c4 bd 5e 68 58 3b 56 5a 14 3d
       0.13100635 -0.09611892 0.0033021192 0.036218964
000110 0a c6 1a be 29 8b a7 bd 1c e0 0a be 81 e5 ec bd
       -0.15114608 -0.081808396 -0.13562053 -0.11567212
000120 37 9b 08 be e4 df 04 bd 56 74 a8 bc cc 42 a4 bd
       -0.1334046 -0.03244008 -0.020563286 -0.08020553
000130 f1 07 de 3d 60 74 98 bd 5a cd 5b 3d ba 20 62 bd
       0.108413585 -0.07444072 0.053662635 -0.05520699
000140 2a 4f 3f 3d d1 9d 94 3d 13 32 45 3d c4 78 1c 3e
       0.046706356 0.072566636 0.048143458 0.15280443
000150 fa 68 97 bd 05 8d c1 bd e8 13 4d 3d a1 5c f8 bd
       -0.073930696 -0.094507255 0.050067812 -0.121270426
000160 0d 6b bd 39 ca 16 9f 3d 8a 76 e7 bd ed 29 5f 3d
       0.00036128648 0.077680185 -0.113019064 0.054483343
000170 28 1d cd 3d 90 6a 33 3e 5d ca ca bd 05 b7 82 3d
       0.10015327 0.17521119 -0.09901879 0.063825645
000180 0a 4d 8d 3d 38 85 28 3d
       0.0689946 0.041142672

fc2.weight f4 [48, 98]
000000 49 dc 3f 3d 3c fe df bd b4 d9 50 bb 1f 68 60 bd
       0.04684094 -0.10937163 -0.0031868042 -0.054786798
000010 10 e2 23 3d 64 f1 35 3c f8 47 81 3d a1 78 8b 3d
       0.040010512 0.011104915 0.06312555 0.068101175
000020 f7 06 fc 3c e1 83 8c bd b8 76 92 3d d0 dd 85 bd
       0.03076504 -0.068610914 0.0715155 -0.06536448
000030 e3 4f 33 3d 3e 0c c1 3d b3 b4 d6 bd 9a c9 96 bd
       0.043777358 0.09426163 -0.104836844 -0.07362671
000040 7b d6 24 3d 2b ab 9c 3d a9 30 fb bc 3a c4 b8 bd
       0.040243607 0.07649835 -0.030662851 -0.09021802
000050 b8 0c 58 bd 8f 29 01 3d 44 8a b8 bc b9 ac 94 3d
       -0.052746505 0.031533774 -0.022526868 0.07259507
000060 c8 9e 5c 3d ab 1f da bd 83 2d f3 bc 2b fd 8b 3c
       0.053862363 -0.106505714 -0.029684788 0.017088493
000070 fc 50 8d 3d fc 41 9a 3d f3 4a 8a bc 0a 16 ee 3c
       0.06900212 0.07532117 -0.016881442 0.029063243
000080 81 c9 39 3d cb 04 40 bd 3c 75 17 bd ff 50 9c 3d
       0.045358185 -0.04687957 -0.036977038 0.07632636
000090 32 28 8c bc eb 7e 81 bd dd 2c a7 3c 58 42 40 3d
       -0.01710901 -0.06323036 0.020407135 0.04693827
0000a0 a1 07 01 bc 48 e3 ca 3d 9c 0e 58 bd 1c b7 3d bd
       -0.007875354 0.09906632 -0.052748308 -0.046317205
0000b0 e7 ca 8d 3d 0d bf 99 bd 50 80 43 bb 9a 20 90 3d
       0.06923466 -0.07507143 -0.002983112 0.07037468
0000c0 3b af 69 3d 8f cc 62 3c 78 41 c7 3d 49 f7 53 3d
       0.05705188 0.013842716 0.09729284 0.0517495
0000d0 7f bd a1 3c 5d 1d 6e bd e5 44 7a 3d ea 3d 92 bc
       0.01974368 -0.05813347 0.06110086 -0.017851789
0000e0 98 61 18 3d fe 88 16 3d 2b a7 70 3d 85 a3 5b bd
       0.037202448 0.03675174 0.058753174 -0.05362274
0000f0 73 c2 a2 bd 30 58 80 bd 93 a0 c0 3d bc c0 51 bd
       -0.079472445 -0.062668204 0.09405627 -0.051209196
000100 9a ea a7 bd 4d 53 03 3e 72 f4 e7 3d 93 f4 34 3d
       -0.081990436 0.12824745 0.11325921 0.044178557
000110 69 98 2e 3d 7c f5 43 3d 6c 1e 46 3d 0e 7d a8 3d
       0.04262582 0.047841534 0.048368856 0.08226977
000120 a0 5d 0d 3d d7 96 b1 bc 19 05 f3 bc 3b eb 96 bd
       0.034513116 -0.021678371 -0.029665517 -0.073690854
000130 b0 f2 cd 3d 8a 0b 26 3d a7 62 b7 3c 3e 4f 0f 3d
       0.100560546 0.04053835 0.022385908 0.03498768
000140 70 32 8f 3d 5c 4a ab bc ca 75 85 3d 1b b4 ca 3d
       0.06992042 -0.02090948 0.06516607 0.09897634
000150 97 72 1a 3d 32 46 b0 bd d2 03 b4 bc 3f 29 9f 3d
       0.037706938 -0.08607139 -0.021974478 0.07771539
000160 9e 72 cb 3b 1e 84 56 bd 00 45 dd 3d 0e fa e2 3d
       0.006208732 -0.05237209 0.10804176 0.110828504
000170 ea 7c 7c 3d 6c 9e 25 bd 5d 3f 62 3d 7f 69 30 be
       0.061642565 -0.040434286 0.05523621 -0.17227744
000180 e6 d1 ae 3d a3 a9 fb 3c 19 52 73 3e a5 75 e6 bd
       0.08536129 0.030720538 0.23761787 -0.11252908
000190 5c c1 a1 3d 16 dd f5 bd 50 86 03 3c 80 44 5c 3e
       0.078982085 -0.120050594 0.008027628 0.21510506
0001a0 af ff 5e bc af bc 0d 3e 27 b7 b2 bd cc 2c 4f 3d
       -0.013610764 0.13841508 -0.0872634 0.05057983
0001b0 cc 17 3e be 8e fb f9 bd 6b 29 a0 3c d5 56 03 be
       -0.18563765 -0.122061834 0.019551 -0.12826093
0001c0 c3 20 09 be e5 39 d9 bd 58 3c 23 3d e8 c9 17 bd
       -0.13391404 -0.10606746 0.03985247 -0.037057787
0001d0 58 fc 96 bd fa d8 ed bd d1 4d d1 3c 1a a5 a9 bd
       -0.073723495 -0.116136506 0.025549801 -0.08283444
0001e0 06 9a 88 3e aa ad 03 3e 82 52 37 3d 88 46 0d be
       0.2668001 0.12859216 0.04475642 -0.13796437
0001f0 36 ad 89 3c 55 a6 e2 3d 8d 99 cf bc ca 48 18 3d
       0.016806226 0.110668816 -0.025341773 0.037178792
000200 8c 19 2f be ea 98 a9 bd 66 cb 2a bd 12 eb dd 3d
       -0.17099589 -0.08281119 -0.041697882 0.10835852
000210 79 ac 89 3d 14 bd 2e bb 6c 84 be 3d 16 4a a9 3d
       0.0672235 -0.0026662992 0.09302601 0.08266084
000220 e7 7f 4c 3e 5b a1 32 3e c1 b4 0c 3e 00 ab 1f 3e
       0.19970666 0.17444365 0.13740827 0.15592575
000230 21 66 48 bd 5a 08 8c 3d bc 54 cf 3d 95 f6 11 3d
       -0.048925523 0.068375304 0.10123584 0.03563555
000240 71 a1 7d 3d 38 65 c3 3d 3d 16 10 be 90 3e 8b bc
       0.06192154 0.0954079 -0.14070983 -0.016997606
000250 15 c3 da 3d 1b b7 9e 3d 21 ab 5e 3d 94 42 9b bb
       0.1068174 0.07749768 0.05436242 -0.0047381613
000260 3d 42 2d bd 31 51 6f 3e 29 de e3 3d 4f c4 e3 bd
       -0.042299498 0.23370816 0.11126358 -0.11121427
000270 06 b9 ba 3d c4 be 94 bd 5c cd ad 3d 6f f2 50 bd
       0.09117322 -0.07262948 0.08486435 -0.051012453
000280 fa a4 36 3d 60 89 9e 3d 0c f7 83 3d 7c ec 44 3e
       0.044590928 0.07741046 0.06443605 0.19230837
000290 b2 e2 bc 3c cc f1 b6 bc 32 6b 77 3d 3d e7 be 3c
       0.023057315 -0.022332095 0.060404964 0.023303622
0002a0 6d 8b 1d 3e db c2 48 3e 67 7e 0f 3d f5 1e 42 3d
       0.15385218 0.19605581 0.035032656 0.047392804
0002b0 17 5d 25 bd 41 92 c1 b9 3f 16 d8 3d 13 b2 32 bd
       -0.04037198 -0.00036920796 0.10551118 -0.043626856
0002c0 c6 cf 2b be 03 bb 1a bd d8 a8 0a 3e b0 f1 28 3d
       -0.16778478 -0.037776005 0.13540971 0.041246116
0002d0 66 2c 8c 3d fe 7b 02 bc 82 9a 60 bc 43 66 a1 bd
       0.06844406 -0.007964132 -0.0137087125 -0.07880833
0002e0 72 01 01 bd ae bd f2 3c 7d 60 43 3d 01 2d fe bd
       -0.03149552 0.029631462 0.04769944 -0.124109276
0002f0 20 fd 0b 3e e8 fb 14 bc d5 18 aa bc bb 0e 2d 3d
       0.13670778 -0.009093262 -0.020763794 0.042250376
000300 9f 26 d6 3c da 5c 22 be 5e 59 07 3e d2 aa 25 3d
       0.026141463 -0.15855733 0.13217685 0.04044611
000310 1c d6 a7 bd 80 91 08 3d 14 e0 91 3d e9 83 cd 3d
       -0.08195135 0.033341885 0.07122818 0.100349255
000320 27 f9 91 3d 15 85 ff 3c 60 c1 71 bc 2d 17 78 3d
       0.071276 0.031191388 -0.014755577 0.060568977
000330 89 cc 81 3c 09 db 9f bd be 59 02 3d 72 f7 57 bc
       0.0158446 -0.078054495 0.031823866 -0.013181554
000340 00 d9 4a bc 2f de 0f 3d 86 63 21 3d e2 eb 27 3e
       -0.012380838 0.035124 0.039401554 0.16398576
000350 8b b4 91 3d 31 b9 46 bd ef 5f a5 3d bf e6 27 3e
       0.07114514 -0.048516456 0.080749385 0.16396616
000360 5e 1f a5 3d 82 f0 54 3d 98 bc 0c be ae 52 42 bd
       0.080626234 0.05198718 -0.13743818 -0.04744213
000370 e5 16 6b bc 43 25 2c 3d 60 88 48 3d 58 06 e3 bc
       -0.01434872 0.042027723 0.048958182 -0.027712986
000380 d3 05 4c 3d d7 18 ae 3d db e4 03 bd 9c d2 69 bd
       0.049810242 0.085008316 -0.032200675 -0.05708562
000390 55 25 ba 3d 06 e4 7d bd 47 32 a4 3c 27 03 74 3d
       0.09089152 -0.06198504 0.020043505 0.05957332
0003a0 0a 07 63 3d 9c 0b 81 bd 52 f9 53 3d d3 4d 80 3c
       0.055426635 -0.063010424 0.051751442 0.01566211
0003b0 54 4a 63 ba f1 36 5e bc c0 ca fb 3d 59 f6 61 bd
       -0.00086704385 -0.013562904 0.12294531 -0.055166576
0003c0 33 86 66 bd 89 54 20 bd 77 b0 96 3c 05 36 52 3d
       -0.056280326 -0.03914312 0.018394692 0.05132105
0003d0 23 02 4c bd 75 ea 87 3d ba e3 a5 bd 46 d4 74 3d
       -0.049806725 0.06636516 -0.08100076 0.059772752
0003e0 85 c2 20 3d c5 cf 6c 3d e8 36 56 3c 82 6b 1a 3d
       0.03924801 0.057815332 0.013074614 0.037700184
0003f0 7d a4 0e bc 19 fc c7 3d 1e 02 8f bc 18 79 99 3d
       -0.008706209 0.09764881 -0.017457064 0.074938

fc2.bias f4 [48]
000000 17 dc 99 bc b6 40 7c 3e 19 aa 0a 3d 91 fc 84 3c
       -0.018781705 0.2463406 0.033853624 0.016233714
000010 7a 97 30 3d 4f 46 8b bc 7e 61 62 bd 19 ab 94 bc
       0.04311321 -0.0170013 -0.055268757 -0.018147992
000020 0d 55 8b 3d 90 8c 0f bd b1 c9 c9 bd 37 d4 4e bd
       0.068033315 -0.03504616 -0.09852923 -0.050495353
000030 ca fd d1 bc 94 89 0d bd db f8 37 bd ff c5 8f bd
       -0.025633711 -0.034555033 -0.04491506 -0.07020187
000040 dd 77 0e 3c ea 6c 8e bd 9b 20 b1 bc ea b0 40 bc
       0.00869557 -0.069543675 -0.021621993 -0.01176093
000050 52 2b 9d 3d fb 50 1a 3e 43 ad d1 bc 54 c1 39 3e
       0.07674278 0.15069954 -0.025595313 0.18140155
000060 92 79 1c bc c3 02 1d bd 55 3e b6 3c f9 1a b7 bd
       -0.009550469 -0.038332712 0.02224652 -0.089406915
000070 e3 d3 ef bc 93 d3 b6 bd e7 70 d4 3d 1c fc cd 3d
       -0.02927584 -0.08927073 0.10373097 0.10057852
000080 a6 f6 ad bd ae 81 0b 3e d9 34 aa bd 2d f9 36 3d
       -0.0849431 0.13623688 -0.08310861 0.044671226
000090 6c 01 87 bd 59 e3 d6 3d d5 30 0e bd 70 b2 1c 3d
       -0.06592068 0.10492582 -0.03471454 0.03825611
0000a0 29 08 cb 3d 6b bf 0b b9 d8 fa e7 bb ba 34 88 3d
       0.09913666 -0.00013327382 -0.0070794635 0.06650682
0000b0 ea f7 49 bd 7a 89 4c bd 9a fa 04 3e d9 bf 01 3e
       -0.049308695 -0.049935795 0.12986222 0.1267084

fc8.weight f4 [2, 48]
000000 81 85 5e 3e 89 f8 0b 3f be 0e 6b be 80 48 03 be
       0.21730615 0.5467611 -0.22954842 -0.12820625
000010 85 48 a1 3d aa 56 f6 3d 5e 9c 96 3d be 35 8c bd
       0.0787516 0.120282486 0.073540434 -0.06846188
000020 e2 cf cd 3d d7 d0 a4 bd 6c 14 4e bc e5 b9 08 3d
       0.10049416 -0.080476455 -0.012578111 0.033380408
000030 18 92 e0 3d fd 49 57 bd e8 b4 43 3c fd 85 81 3b
       0.10965365 -0.052560795 0.011944987 0.00395274
000040 05 b2 5f be ba 18 3b 3e 0f 06 e0 bd 35 0b 89 3e
       -0.21845253 0.18271151 -0.109386556 0.26766363
000050 5e 04 a0 be a0 25 7e 3e cb f1 35 bd c9 60 cc 3e
       -0.31253332 0.2481904 -0.044420045 0.3991759
000060 e5 42 89 bc 0d 11 c2 3d 2d 71 56 bc dc f8 c1 bd
       -0.01675553 0.094759084 -0.013088507 -0.09471294
000070 07 55 44 3e 40 9a 74 3d 41 09 33 3e 3a 63 c8 3e
       0.1917306 0.059717417 0.17483999 0.39138204
000080 49 97 01 be e9 15 94 be ad 7f 4a 3e 47 69 ac 3d
       -0.12655367 -0.28922966 0.19775267 0.084185176
000090 61 d5 b1 3d c3 fd db 3d a1 1c 89 3c c4 f9 8c 3e
       0.08683277 0.107417606 0.016737284 0.27534306
0000a0 c6 f2 ac 3e be e2 56 3e 94 c8 c6 3d 22 b3 ea 3d
       0.3377897 0.20984933 0.09706226 0.11459948
0000b0 f2 7d 6f bc ce 26 38 3e 5e 91 b0 3e c6 d3 86 be
       -0.01461743 0.17983553 0.34485906 -0.26333445
0000c0 3f 2b 31 be f8 a4 0e bf eb 1a 7d 3e b3 0e ac bd
       -0.17301653 -0.5572047 0.247173 -0.08401241
0000d0 25 84 38 3e 7d 76 83 3c e0 41 15 bd 89 72 f6 3d
       0.18019159 0.01604771 -0.036439776 0.120335646
0000e0 48 6c db 3c dd bf 1c bb 1a ea 80 bc 6c fe a9 3d
       0.026785031 -0.002391807 -0.015736628 0.0830048
0000f0 cc e7 9e bd 77 92 e8 bc d1 72 a5 3d 8f 1e 01 be
       -0.077590555 -0.028390152 0.0807854 -0.12609313
000100 71 ea 68 3e fa da 35 be 40 fd 07 3e f1 0c 00 be
       0.22745682 -0.17759314 0.13280201 -0.12504937
000110 27 25 ab 3e bf 7e 87 be b9 51 66 3d b0 2a ad be
       0.33426782 -0.26463887 0.05623028 -0.3382163
000120 49 b9 1e 3d 45 cd a7 bd 6d dd ef bd a4 35 97 bd
       0.03875092 -0.08193449 -0.117121555 -0.07383278
000130 ee cb e9 b9 84 01 07 3e e4 97 91 be bf 55 9f be
       -0.00044593163 0.13184172 -0.28436196 -0.31120107
000140 e2 68 63 3c 10 be 5b 3e 5e ed 47 bd 24 d5 e4 bd
       0.0138799865 0.21459222 -0.048810355 -0.11173466
000150 da f6 f3 bd 33 40 3e be 9b f6 43 3e 3f 81 8c be
       -0.119123176 -0.18579178 0.19137041 -0.27442357
000160 f3 81 b3 be 19 72 82 bd c7 44 c0 3b e4 79 5d be
       -0.3506008 -0.06369419 0.005867574 -0.21628529
000170 21 3b 8c bc 70 f9 e1 bd a1 57 d0 be ec 41 90 3e
       -0.017118039 -0.110339046 -0.40691856 0.28175294

fc8.bias f4 [2]
000000 ad 73 3b bd f9 8f aa 3c
       -0.045764614 0.020820605

ax f4 [98, 40]
000000 0f 7c bf 3d 1a 58 41 3d 69 dc 2a be 8d 16 49 3e
       0.09349834 0.04720316 -0.16685642 0.19637509
000010 f8 a7 7c 3d f4 d0 e5 bd 97 0d 9f 3c 14 1a 0c 3d
       0.061683625 -0.11221495 0.01941566 0.034204558
000020 01 ca 2f bd ea f8 3d 3e 9e cd 4b bd 77 c7 05 be
       -0.042917255 0.18551984 -0.04975664 -0.13064371
000030 c9 63 1d 3e 38 70 29 3e 96 3b 67 3d 14 e2 b2 bb
       0.15370096 0.16546714 0.05645331 -0.0054590795
000040 f0 36 4c 3e 35 f8 00 be 9d ac 63 be e2 74 23 3d
       0.19942832 -0.12594683 -0.22233815 0.03990639
000050 1a c9 0b 3e 69 04 06 bd 17 05 42 be 10 6b b7 bd
       0.13650933 -0.03271905 -0.18947254 -0.089559674
000060 cd 40 1f be f3 34 26 3e 58 e8 f8 bb 78 fb 6b bc
       -0.15552063 0.16231136 -0.007596057 -0.014403217
000070 8b 90 27 3e e6 35 55 3d ae 96 e7 bd e9 82 3f be
       0.16363733 0.052053355 -0.11308037 -0.18702282
000080 4f 50 b7 3c 63 36 86 bd ef 54 e5 bc c1 27 19 bd
       0.022377161 -0.06553342 -0.027994601 -0.037391428
000090 1f 39 b9 3d 6a ee e0 bd dd 8b 19 bc 6e 97 52 bd
       0.09044098 -0.10982974 -0.009371725 -0.051413946
0000a0 a3 b3 d5 bd 7a 11 3b bd 78 4a fa 3d 8d ec b2 bd
       -0.104346536 -0.045670964 0.12221235 -0.08736525
0000b0 07 ed 13 3c fe bb 04 3e 7d fd e7 bc dd 14 9a 3d
       0.00902868 0.12962338 -0.028319115 0.075235106
0000c0 f3 f4 85 3c d9 2e 25 3e 60 cb 0f 3e c4 ab b6 3d
       0.016352152 0.16131152 0.14042425 0.089194804
0000d0 8f 3e af bd e2 15 59 be e2 d4 23 3e 1d 47 db bd
       -0.08556854 -0.21199754 0.15999177 -0.10706923
0000e0 63 a3 d4 bd 87 0c b5 bc b4 0d f4 3d 10 26 cb bd
       -0.10382726 -0.0221007 0.11916676 -0.09919369
0000f0 1a d5 e8 3d 30 3f 1d 3e 1c 9a 1a be 5e c1 85 3d
       0.11368771 0.15356135 -0.1509785 0.065310225
000100 4a f9 df bd 5a c7 07 3e 46 2b bf 3d 5e 9f 29 bd
       -0.1093622 0.1325964 0.09334426 -0.04141175
000110 90 72 de 3d 87 12 72 bd 33 35 2a bd f0 fc e5 3d
       0.10861695 -0.0590997 -0.04155464 0.112298846
000120 81 f0 84 3c 8a 0f 59 bd 0a 21 af bd ba 16 15 bd
       0.016227962 -0.052993335 -0.085512236 -0.036398627
000130 c9 47 04 be da 0a 0b 3e 8e 7d 98 bd 7a 6c 06 3e
       -0.12918009 0.13578358 -0.07445823 0.13127318
000140 ea 85 0a 3e 5b 41 f4 bd 45 0e db 3d 9c 6d ac 3d
       0.13527647 -0.11926528 0.10696081 0.08419344
000150 05 e3 87 bd 1b 2f ad bc 00 af bc 3d 81 09 15 be
       -0.066350974 -0.021140626 0.09213066 -0.14554407
000160 c8 1a 5f 3d 02 af 05 3e 66 be 41 bd 22 d6 6c bd
       0.0544689 0.13055041 -0.04730072 -0.0578214
000170 1b 64 13 3e 8d 2a 0f be 00 26 d7 3d e7 7a e9 3d
       0.14393656 -0.13981076 0.10505295 0.11400395
000180 17 eb e5 3d 0c 1c e7 bd b3 90 b8 3d bf 3c 30 3b
       0.112264805 -0.112846464 0.09011974 0.0026891676
000190 78 af 24 be b5 13 34 3c 6b ac 07 be 7a 33 1d be
       -0.16082561 0.010991027 -0.13249366 -0.15351668
0001a0 b2 8f db 3b c4 c9 01 be c2 45 ad 3d c3 36 b9 bd
       0.0067004794 -0.12674624 0.08460571 -0.09043648
0001b0 d5 96 1d 3d 32 4b 0f be 04 fa 8f 3d a1 8e 6f 3d
       0.038473923 -0.13993528 0.070301086 0.05848563
0001c0 7c 68 00 3d 7e ad 1d be ff c2 89 3b 19 6e ec 3d
       0.031349644 -0.15398213 0.0042041535 0.11544437
0001d0 25 be 1a be 3b ab e7 bc 2c d9 b2 bc 28 d8 18 be
       -0.15111597 -0.028279891 -0.021832071 -0.14926207
0001e0 39 62 88 3d 5c 77 16 be a2 60 65 3d e8 e4 15 3e
       0.066593595 -0.1469397 0.05600036 0.14638102
0001f0 db ec 0a 3e 02 e9 63 bc 20 80 d0 bd 0f 50 b5 3d
       0.13566916 -0.013910534 -0.10180688 0.088531606
000200 8f b4 1f be 58 63 bb bd b6 00 4c bd 17 1a aa 3d
       -0.15596221 -0.09149808 -0.049805366 0.083057575
000210 3a bb 0b 3d ff 83 4f bd be a9 4a 3d a9 f7 56 be
       0.0341141 -0.05066299 0.049478285 -0.20992912
000220 5a 81 bb 3d ab 35 21 3e 73 69 47 3e c3 ca 95 3d
       0.09155531 0.15743129 0.1947382 0.07314064
000230 66 c0 b2 bd b9 0c 22 3d 14 4a d7 bc 14 f1 d6 bc
       -0.08728103 0.039562915 -0.02628044 -0.026238002
000240 1b 68 ba bd 45 28 3f bc 62 92 d1 bd 63 c0 ab bd
       -0.09101888 -0.011667316 -0.102329984 -0.08386304
000250 1f 08 0f 3c c6 1e 10 3d 04 cf db bd 50 02 d8 bc
       0.008729964 0.035185598 -0.107328445 -0.02636829
000260 b4 c7 b7 bd f2 e8 f7 3d 1a d0 21 3e 27 08 08 bd
       -0.08973637 0.12104978 0.1580204 -0.0332109
000270 41 53 f0 bc d1 29 f5 3d 9f 2b 26 3c 5e 89 6b 3d
       -0.029336574 0.119708665 0.010142236 0.05750405
000280 7d 3b dc 3d e2 0a bc 3d 8e 59 1a 3d 7d 39 76 bd
       0.10753534 0.09181763 0.037683062 -0.06011342
000290 73 25 06 3e 46 ee d7 bd ef ef e9 3c fd f5 7f bd
       0.13100223 -0.10543494 0.028556792 -0.062490452
0002a0 64 15 0b be 9f 5a e1 bd 37 d0 07 3e f9 d2 8f bd
       -0.13582379 -0.11003613 0.13263021 -0.07022662
0002b0 70 ac e3 bd 39 fa 1c be 1b d0 db bd 1d 43 8f bd
       -0.11116874 -0.15329827 -0.10733052 -0.06995223
0002c0 69 ab d5 3c 2a 7c e1 3d 2a ee 13 bb 96 f7 a9 bd
       0.026082711 0.110100105 -0.0022572377 -0.082991764
0002d0 e0 0c bf bc e3 61 86 bd 61 82 98 3d e4 06 0c 3d
       -0.023321569 -0.06561639 0.07446743 0.03418626
0002e0 b7 2d 75 3d 49 a3 ba 3d 47 7f 1c be e3 f8 f2 3d
       0.05985805 0.091131754 -0.15282927 0.118638776
0002f0 09 6d 19 be df e4 0a be a1 58 14 3e 10 bf 03 bd
       -0.14983 -0.1356387 0.14486934 -0.032164633
000300 bd 46 e7 bd 79 42 73 bd 5b 42 0d be db 4a 8e bb
       -0.11292789 -0.059389565 -0.13794844 -0.0043424196
000310 92 a1 ee 3c b1 be d9 bb 7f 53 11 bd 7a b7 be 3c
       0.029129777 -0.0066450466 -0.03548002 0.023280848
000320 b7 cd 97 3e f3 c1 7e 3d b8 cc 7f be f3 5c ef ba
       0.29649135 0.062196683 -0.24980438 -0.0018261954
000330 38 72 f2 3c 25 88 29 3e 15 16 1e be a2 a6 1c 3c
       0.02959548 0.16555841 -0.15438111 0.009561213
000340 f7 59 47 bd 15 9a 2c be 46 77 19 3e 4d 49 26 3e
       -0.04866978 -0.16855653 0.14986905 0.162389
000350 d6 18 02 bd 04 f3 46 3e 29 6d 9b 3b a3 a7 8e 3e
       -0.031761967 0.1942864 0.0047432375 0.27862272
000360 2a f7 ec 3d 52 a8 8b be 9a 82 d0 b9 74 27 44 3c
       0.1157058 -0.27276856 -0.00039770157 0.011972297
000370 e4 fe 15 bd ec 41 5d be 83 8d 5f 3e a5 4f e7 3d
       -0.036620036 -0.21607178 0.21831326 0.11294488
000380 54 c7 5e 3e 13 72 58 bd 80 a3 ea bd 99 af 7b 3d
       0.21755725 -0.052843165 -0.114569664 0.06144676
000390 fc 45 2c be 29 11 d9 3d 9c 28 c9 bd af 7a 30 3d
       -0.16823572 0.10598976 -0.09822199 0.04308575
0003a0 41 f5 34 bc a3 20 f3 bd 3a 92 ff 3d 5f b6 52 bd
       -0.011044801 -0.11871459 0.124790624 -0.051443454
0003b0 e9 bc 34 3d ec de cc 3c d3 10 ca 3d fb 99 27 bd
       0.04412547 0.025008641 0.0986649 -0.04091833
0003c0 12 c3 74 3d 16 c1 c6 bd db 4f 16 be 54 10 28 bd
       0.059756346 -0.09704797 -0.146789 -0.041031197
0003d0 d5 1d 65 bd e3 08 4c 3d 3a c3 8b bd 09 8a 41 bd
       -0.055936653 0.049813163 -0.06824346 -0.04725078
0003e0 c5 94 93 3d a9 95 09 be 1b e1 a7 3d b2 0d 16 be
       0.0720611 -0.13435997 0.08197232 -0.14653662
0003f0 78 6e 9d bd 0f 57 c3 3d d0 ff 09 3e dd 4d f1 3d
       -0.07687086 0.095380895 0.13476491 0.11782429

ax f4 [98]
000000 ae c8 36 3e fc 18 cf bd 46 29 d0 bd ca 48 9f 3d
       0.1784999 -0.10112187 -0.10164122 0.07777555
000010 37 bd 15 bd b1 e5 4c 3e 7c 6d d9 bd f5 34 a1 3c
       -0.036557402 0.20009495 -0.106165856 0.019678572
000020 1d 76 23 be 66 19 f8 3d 62 37 29 3c f9 fb bb 3c
       -0.15963025 0.12114219 0.010328146 0.022947298
000030 10 fc ea 3d cc 96 87 bd bb 05 c2 3d 9b f1 9e 3d
       0.11473858 -0.06620559 0.09473749 0.07760926
000040 c6 94 92 3d 75 2a e0 3b c8 f8 e6 bd a7 9f e1 bd
       0.071572825 0.006840999 -0.1127792 -0.110167794
000050 5d e9 e2 bd c2 70 d3 bd 5a 9a c2 3d 8f 71 36 3e
       -0.11079667 -0.10324241 0.095020965 0.17816757
000060 0e df 4f 3d a9 18 80 3d 3c 81 cf bd a7 be ff bc
       0.05074983 0.062547036 -0.101320714 -0.03121884
000070 ae 03 26 bd 91 5e 91 bd 5f 89 9d bd e8 4e 7a 3d
       -0.040530853 -0.07098115 -0.07692217 0.061110407
000080 bc 52 19 bd 9b f0 0b be 33 82 3f bd 7d df 84 3d
       -0.037432417 -0.13666002 -0.046755027 0.064879395
000090 bd 70 d2 3d 7c d6 ef bd 2e ba 80 3d 2d ff d8 3d
       0.10275409 -0.117108315 0.06285511 0.10595546
0000a0 10 03 eb bc e1 52 0c 3e 04 77 9f bd f3 b2 17 bc
       -0.028687984 0.13703491 -0.07786372 -0.009258973
0000b0 ed 09 f6 3d 7b 74 e3 3d db 69 31 3e 5f e2 92 bd
       0.12013612 0.11106201 0.17325537 -0.07172083
0000c0 2d 91 94 3d 0b c4 d9 bd 85 df 34 bd e5 cf 64 3b
       0.072542526 -0.10633095 -0.044158477 0.0034913954
0000d0 5d 3b 90 bc e8 90 da 3b 8c 0b 06 3d f4 98 8b 3d
       -0.017606432 0.006670106 0.032725856 0.06816283
0000e0 72 a8 88 3d 04 8c 15 be 2a 53 bf 3d 79 20 21 be
       0.066727534 -0.14604193 0.09342034 -0.15735044
0000f0 54 bf dd bd 89 c7 ab 3d fe b9 23 3d 93 3e c0 3d
       -0.108275086 0.08387668 0.039972298 0.09386935
000100 87 26 06 3e ff d9 c4 bd 5e 68 58 3b 56 5a 14 3d
       0.13100635 -0.09611892 0.0033021192 0.036218964
000110 0a c6 1a be 29 8b a7 bd 1c e0 0a be 81 e5 ec bd
       -0.15114608 -0.081808396 -0.13562053 -0.11567212
000120 37 9b 08 be e4 df 04 bd 56 74 a8 bc cc 42 a4 bd
       -0.1334046 -0.03244008 -0.020563286 -0.08020553
000130 f1 07 de 3d 60 74 98 bd 5a cd 5b 3d ba 20 62 bd
       0.108413585 -0.07444072 0.053662635 -0.05520699
000140 2a 4f 3f 3d d1 9d 94 3d 13 32 45 3d c4 78 1c 3e
       0.046706356 0.072566636 0.048143458 0.15280443
000150 fa 68 97 bd 05 8d c1 bd e8 13 4d 3d a1 5c f8 bd
       -0.073930696 -0.094507255 0.050067812 -0.121270426
000160 0d 6b bd 39 ca 16 9f 3d 8a 76 e7 bd ed 29 5f 3d
       0.00036128648 0.077680185 -0.113019064 0.054483343
000170 28 1d cd 3d 90 6a 33 3e 5d ca ca bd 05 b7 82 3d
       0.10015327 0.17521119 -0.09901879 0.063825645
000180 0a 4d 8d 3d 38 85 28 3d
       0.0689946 0.041142672

ax f4 [48, 98]
000000 49 dc 3f 3d 3c fe df bd b4 d9 50 bb 1f 68 60 bd
       0.04684094 -0.10937163 -0.0031868042 -0.054786798
000010 10 e2 23 3d 64 f1 35 3c f8 47 81 3d a1 78 8b 3d
       0.040010512 0.011104915 0.06312555 0.068101175
000020 f7 06 fc 3c e1 83 8c bd b8 76 92 3d d0 dd 85 bd
       0.03076504 -0.068610914 0.0715155 -0.06536448
000030 e3 4f 33 3d 3e 0c c1 3d b3 b4 d6 bd 9a c9 96 bd
       0.043777358 0.09426163 -0.104836844 -0.07362671
000040 7b d6 24 3d 2b ab 9c 3d a9 30 fb bc 3a c4 b8 bd
       0.040243607 0.07649835 -0.030662851 -0.09021802
000050 b8 0c 58 bd 8f 29 01 3d 44 8a b8 bc b9 ac 94 3d
       -0.052746505 0.031533774 -0.022526868 0.07259507
000060 c8 9e 5c 3d ab 1f da bd 83 2d f3 bc 2b fd 8b 3c
       0.053862363 -0.106505714 -0.029684788 0.017088493
000070 fc 50 8d 3d fc 41 9a 3d f3 4a 8a bc 0a 16 ee 3c
       0.06900212 0.07532117 -0.016881442 0.029063243
000080 81 c9 39 3d cb 04 40 bd 3c 75 17 bd ff 50 9c 3d
       0.045358185 -0.04687957 -0.036977038 0.07632636
000090 32 28 8c bc eb 7e 81 bd dd 2c a7 3c 58 42 40 3d
       -0.01710901 -0.06323036 0.020407135 0.04693827
0000a0 a1 07 01 bc 48 e3 ca 3d 9c 0e 58 bd 1c b7 3d bd
       -0.007875354 0.09906632 -0.052748308 -0.046317205
0000b0 e7 ca 8d 3d 0d bf 99 bd 50 80 43 bb 9a 20 90 3d
       0.06923466 -0.07507143 -0.002983112 0.07037468
0000c0 3b af 69 3d 8f cc 62 3c 78 41 c7 3d 49 f7 53 3d
       0.05705188 0.013842716 0.09729284 0.0517495
0000d0 7f bd a1 3c 5d 1d 6e bd e5 44 7a 3d ea 3d 92 bc
       0.01974368 -0.05813347 0.06110086 -0.017851789
0000e0 98 61 18 3d fe 88 16 3d 2b a7 70 3d 85 a3 5b bd
       0.037202448 0.03675174 0.058753174 -0.05362274
0000f0 73 c2 a2 bd 30 58 80 bd 93 a0 c0 3d bc c0 51 bd
       -0.079472445 -0.062668204 0.09405627 -0.051209196
000100 9a ea a7 bd 4d 53 03 3e 72 f4 e7 3d 93 f4 34 3d
       -0.081990436 0.12824745 0.11325921 0.044178557
000110 69 98 2e 3d 7c f5 43 3d 6c 1e 46 3d 0e 7d a8 3d
       0.04262582 0.047841534 0.048368856 0.08226977
000120 a0 5d 0d 3d d7 96 b1 bc 19 05 f3 bc 3b eb 96 bd
       0.034513116 -0.021678371 -0.029665517 -0.073690854
000130 b0 f2 cd 3d 8a 0b 26 3d a7 62 b7 3c 3e 4f 0f 3d
       0.100560546 0.04053835 0.022385908 0.03498768
000140 70 32 8f 3d 5c 4a ab bc ca 75 85 3d 1b b4 ca 3d
       0.06992042 -0.02090948 0.06516607 0.09897634
000150 97 72 1a 3d 32 46 b0 bd d2 03 b4 bc 3f 29 9f 3d
       0.037706938 -0.08607139 -0.021974478 0.07771539
000160 9e 72 cb 3b 1e 84 56 bd 00 45 dd 3d 0e fa e2 3d
       0.006208732 -0.05237209 0.10804176 0.110828504
000170 ea 7c 7c 3d 6c 9e 25 bd 5d 3f 62 3d 7f 69 30 be
       0.061642565 -0.040434286 0.05523621 -0.17227744
000180 e6 d1 ae 3d a3 a9 fb 3c 19 52 73 3e a5 75 e6 bd
       0.08536129 0.030720538 0.23761787 -0.11252908
000190 5c c1 a1 3d 16 dd f5 bd 50 86 03 3c 80 44 5c 3e
       0.078982085 -0.120050594 0.008027628 0.21510506
0001a0 af ff 5e bc af bc 0d 3e 27 b7 b2 bd cc 2c 4f 3d
       -0.013610764 0.13841508 -0.0872634 0.05057983
0001b0 cc 17 3e be 8e fb f9 bd 6b 29 a0 3c d5 56 03 be
       -0.18563765 -0.122061834 0.019551 -0.12826093
0001c0 c3 20 09 be e5 39 d9 bd 58 3c 23 3d e8 c9 17 bd
       -0.13391404 -0.10606746 0.03985247 -0.037057787
0001d0 58 fc 96 bd fa d8 ed bd d1 4d d1 3c 1a a5 a9 bd
       -0.073723495 -0.116136506 0.025549801 -0.08283444
0001e0 06 9a 88 3e aa ad 03 3e 82 52 37 3d 88 46 0d be
       0.2668001 0.12859216 0.04475642 -0.13796437
0001f0 36 ad 89 3c 55 a6 e2 3d 8d 99 cf bc ca 48 18 3d
       0.016806226 0.110668816 -0.025341773 0.037178792
000200 8c 19 2f be ea 98 a9 bd 66 cb 2a bd 12 eb dd 3d
       -0.17099589 -0.08281119 -0.041697882 0.10835852
000210 79 ac 89 3d 14 bd 2e bb 6c 84 be 3d 16 4a a9 3d
       0.0672235 -0.0026662992 0.09302601 0.08266084
000220 e7 7f 4c 3e 5b a1 32 3e c1 b4 0c 3e 00 ab 1f 3e
       0.19970666 0.17444365 0.13740827 0.15592575
000230 21 66 48 bd 5a 08 8c 3d bc 54 cf 3d 95 f6 11 3d
       -0.048925523 0.068375304 0.10123584 0.03563555
000240 71 a1 7d 3d 38 65 c3 3d 3d 16 10 be 90 3e 8b bc
       0.06192154 0.0954079 -0.14070983 -0.016997606
000250 15 c3 da 3d 1b b7 9e 3d 21 ab 5e 3d 94 42 9b bb
       0.1068174 0.07749768 0.05436242 -0.0047381613
000260 3d 42 2d bd 31 51 6f 3e 29 de e3 3d 4f c4 e3 bd
       -0.042299498 0.23370816 0.11126358 -0.11121427
000270 06 b9 ba 3d c4 be 94 bd 5c cd ad 3d 6f f2 50 bd
       0.09117322 -0.07262948 0.08486435 -0.051012453
000280 fa a4 36 3d 60 89 9e 3d 0c f7 83 3d 7c ec 44 3e
       0.044590928 0.07741046 0.06443605 0.19230837
000290 b2 e2 bc 3c cc f1 b6 bc 32 6b 77 3d 3d e7 be 3c
       0.023057315 -0.022332095 0.060404964 0.023303622
0002a0 6d 8b 1d 3e db c2 48 3e 67 7e 0f 3d f5 1e 42 3d
       0.15385218 0.19605581 0.035032656 0.047392804
0002b0 17 5d 25 bd 41 92 c1 b9 3f 16 d8 3d 13 b2 32 bd
       -0.04037198 -0.00036920796 0.10551118 -0.043626856
0002c0 c6 cf 2b be 03 bb 1a bd d8 a8 0a 3e b0 f1 28 3d
       -0.16778478 -0.037776005 0.13540971 0.041246116
0002d0 66 2c 8c 3d fe 7b 02 bc 82 9a 60 bc 43 66 a1 bd
       0.06844406 -0.007964132 -0.0137087125 -0.07880833
0002e0 72 01 01 bd ae bd f2 3c 7d 60 43 3d 01 2d fe bd
       -0.03149552 0.029631462 0.04769944 -0.124109276
0002f0 20 fd 0b 3e e8 fb 14 bc d5 18 aa bc bb 0e 2d 3d
       0.13670778 -0.009093262 -0.020763794 0.042250376
000300 9f 26 d6 3c da 5c 22 be 5e 59 07 3e d2 aa 25 3d
       0.026141463 -0.15855733 0.13217685 0.04044611
000310 1c d6 a7 bd 80 91 08 3d 14 e0 91 3d e9 83 cd 3d
       -0.08195135 0.033341885 0.07122818 0.100349255
000320 27 f9 91 3d 15 85 ff 3c 60 c1 71 bc 2d 17 78 3d
       0.071276 0.031191388 -0.014755577 0.060568977
000330 89 cc 81 3c 09 db 9f bd be 59 02 3d 72 f7 57 bc
       0.0158446 -0.078054495 0.031823866 -0.013181554
000340 00 d9 4a bc 2f de 0f 3d 86 63 21 3d e2 eb 27 3e
       -0.012380838 0.035124 0.039401554 0.16398576
000350 8b b4 91 3d 31 b9 46 bd ef 5f a5 3d bf e6 27 3e
       0.07114514 -0.048516456 0.080749385 0.16396616
000360 5e 1f a5 3d 82 f0 54 3d 98 bc 0c be ae 52 42 bd
       0.080626234 0.05198718 -0.13743818 -0.04744213
000370 e5 16 6b bc 43 25 2c 3d 60 88 48 3d 58 06 e3 bc
       -0.01434872 0.042027723 0.048958182 -0.027712986
000380 d3 05 4c 3d d7 18 ae 3d db e4 03 bd 9c d2 69 bd
       0.049810242 0.085008316 -0.032200675 -0.05708562
000390 55 25 ba 3d 06 e4 7d bd 47 32 a4 3c 27 03 74 3d
       0.09089152 -0.06198504 0.020043505 0.05957332
0003a0 0a 07 63 3d 9c 0b 81 bd 52 f9 53 3d d3 4d 80 3c
       0.055426635 -0.063010424 0.051751442 0.01566211
0003b0 54 4a 63 ba f1 36 5e bc c0 ca fb 3d 59 f6 61 bd
       -0.00086704385 -0.013562904 0.12294531 -0.055166576
0003c0 33 86 66 bd 89 54 20 bd 77 b0 96 3c 05 36 52 3d
       -0.056280326 -0.03914312 0.018394692 0.05132105
0003d0 23 02 4c bd 75 ea 87 3d ba e3 a5 bd 46 d4 74 3d
       -0.049806725 0.06636516 -0.08100076 0.059772752
0003e0 85 c2 20 3d c5 cf 6c 3d e8 36 56 3c 82 6b 1a 3d
       0.03924801 0.057815332 0.013074614 0.037700184
0003f0 7d a4 0e bc 19 fc c7 3d 1e 02 8f bc 18 79 99 3d
       -0.008706209 0.09764881 -0.017457064 0.074938

ax f4 [48]
000000 17 dc 99 bc b6 40 7c 3e 19 aa 0a 3d 91 fc 84 3c
       -0.018781705 0.2463406 0.033853624 0.016233714
000010 7a 97 30 3d 4f 46 8b bc 7e 61 62 bd 19 ab 94 bc
       0.04311321 -0.0170013 -0.055268757 -0.018147992
000020 0d 55 8b 3d 90 8c 0f bd b1 c9 c9 bd 37 d4 4e bd
       0.068033315 -0.03504616 -0.09852923 -0.050495353
000030 ca fd d1 bc 94 89 0d bd db f8 37 bd ff c5 8f bd
       -0.025633711 -0.034555033 -0.04491506 -0.07020187
000040 dd 77 0e 3c ea 6c 8e bd 9b 20 b1 bc ea b0 40 bc
       0.00869557 -0.069543675 -0.021621993 -0.01176093
000050 52 2b 9d 3d fb 50 1a 3e 43 ad d1 bc 54 c1 39 3e
       0.07674278 0.15069954 -0.025595313 0.18140155
000060 92 79 1c bc c3 02 1d bd 55 3e b6 3c f9 1a b7 bd
       -0.009550469 -0.038332712 0.02224652 -0.089406915
000070 e3 d3 ef bc 93 d3 b6 bd e7 70 d4 3d 1c fc cd 3d
       -0.02927584 -0.08927073 0.10373097 0.10057852
000080 a6 f6 ad bd ae 81 0b 3e d9 34 aa bd 2d f9 36 3d
       -0.0849431 0.13623688 -0.08310861 0.044671226
000090 6c 01 87 bd 59 e3 d6 3d d5 30 0e bd 70 b2 1c 3d
       -0.06592068 0.10492582 -0.03471454 0.03825611
0000a0 29 08 cb 3d 6b bf 0b b9 d8 fa e7 bb ba 34 88 3d
       0.09913666 -0.00013327382 -0.0070794635 0.06650682
0000b0 ea f7 49 bd 7a 89 4c bd 9a fa 04 3e d9 bf 01 3e
       -0.049308695 -0.049935795 0.12986222 0.1267084

ax f4 [2, 48]
000000 81 85 5e 3e 89 f8 0b 3f be 0e 6b be 80 48 03 be
       0.21730615 0.5467611 -0.22954842 -0.12820625
000010 85 48 a1 3d aa 56 f6 3d 5e 9c 96 3d be 35 8c bd
       0.0787516 0.120282486 0.073540434 -0.06846188
000020 e2 cf cd 3d d7 d0 a4 bd 6c 14 4e bc e5 b9 08 3d
       0.10049416 -0.080476455 -0.012578111 0.033380408
000030 18 92 e0 3d fd 49 57 bd e8 b4 43 3c fd 85 81 3b
       0.10965365 -0.052560795 0.011944987 0.00395274
000040 05 b2 5f be ba 18 3b 3e 0f 06 e0 bd 35 0b 89 3e
       -0.21845253 0.18271151 -0.109386556 0.26766363
000050 5e 04 a0 be a0 25 7e 3e cb f1 35 bd c9 60 cc 3e
       -0.31253332 0.2481904 -0.044420045 0.3991759
000060 e5 42 89 bc 0d 11 c2 3d 2d 71 56 bc dc f8 c1 bd
       -0.01675553 0.094759084 -0.013088507 -0.09471294
000070 07 55 44 3e 40 9a 74 3d 41 09 33 3e 3a 63 c8 3e
       0.1917306 0.059717417 0.17483999 0.39138204
000080 49 97 01 be e9 15 94 be ad 7f 4a 3e 47 69 ac 3d
       -0.12655367 -0.28922966 0.19775267 0.084185176
000090 61 d5 b1 3d c3 fd db 3d a1 1c 89 3c c4 f9 8c 3e
       0.08683277 0.107417606 0.016737284 0.27534306
0000a0 c6 f2 ac 3e be e2 56 3e 94 c8 c6 3d 22 b3 ea 3d
       0.3377897 0.20984933 0.09706226 0.11459948
0000b0 f2 7d 6f bc ce 26 38 3e 5e 91 b0 3e c6 d3 86 be
       -0.01461743 0.17983553 0.34485906 -0.26333445
0000c0 3f 2b 31 be f8 a4 0e bf eb 1a 7d 3e b3 0e ac bd
       -0.17301653 -0.5572047 0.247173 -0.08401241
0000d0 25 84 38 3e 7d 76 83 3c e0 41 15 bd 89 72 f6 3d
       0.18019159 0.01604771 -0.036439776 0.120335646
0000e0 48 6c db 3c dd bf 1c bb 1a ea 80 bc 6c fe a9 3d
       0.026785031 -0.002391807 -0.015736628 0.0830048
0000f0 cc e7 9e bd 77 92 e8 bc d1 72 a5 3d 8f 1e 01 be
       -0.077590555 -0.028390152 0.0807854 -0.12609313
000100 71 ea 68 3e fa da 35 be 40 fd 07 3e f1 0c 00 be
       0.22745682 -0.17759314 0.13280201 -0.12504937
000110 27 25 ab 3e bf 7e 87 be b9 51 66 3d b0 2a ad be
       0.33426782 -0.26463887 0.05623028 -0.3382163
000120 49 b9 1e 3d 45 cd a7 bd 6d dd ef bd a4 35 97 bd
       0.03875092 -0.08193449 -0.117121555 -0.07383278
000130 ee cb e9 b9 84 01 07 3e e4 97 91 be bf 55 9f be
       -0.00044593163 0.13184172 -0.28436196 -0.31120107
000140 e2 68 63 3c 10 be 5b 3e 5e ed 47 bd 24 d5 e4 bd
       0.0138799865 0.21459222 -0.048810355 -0.11173466
000150 da f6 f3 bd 33 40 3e be 9b f6 43 3e 3f 81 8c be
       -0.119123176 -0.18579178 0.19137041 -0.27442357
000160 f3 81 b3 be 19 72 82 bd c7 44 c0 3b e4 79 5d be
       -0.3506008 -0.06369419 0.005867574 -0.21628529
000170 21 3b 8c bc 70 f9 e1 bd a1 57 d0 be ec 41 90 3e
       -0.017118039 -0.110339046 -0.40691856 0.28175294

ax f4 [2]
000000 ad 73 3b bd f9 8f aa 3c
       -0.045764614 0.020820605
