save/new2.pt (torch_old, 363222 bytes, 18 tensors)

fc1.weight f4 [230, 8]
-1.0875239 -0.024064349 -0.107768096 -0.6084312 0.052087527 0.19969994 -0.07928065 -0.03375993
0.17579104 -0.49955657 -0.48325044 -0.2620307 0.40363804 -0.31810874 0.03639834 -0.07902416
-0.3238066 0.0575535 -0.0012804568 -0.31762272 -0.058180153 -0.098388314 0.021273524 -0.30709842
-0.18726346 0.27669212 -0.18943651 0.44196838 -0.26416782 -0.07259322 0.24878982 -0.33866394
-0.16180365 0.46636942 0.075046115 -0.14693858 -0.027420301 0.11131938 -0.55525213 0.0070457077
0.10457364 -0.7193394 -0.6618914 0.15026818 0.043864857 0.27426094 -0.009989335 -0.088845044
0.27370626 -0.11817361 0.35613883 -0.33469185 -0.77426296 0.1846438 -0.29985434 0.06728498
0.11837492 -0.3920329 -0.67303395 0.7063202 0.28370193 0.18717487 -0.07945663 -0.021474421
-0.06952687 0.108532436 -0.16905999 0.6870622 0.36258984 0.061231617 -0.124345705 -0.08430949
-0.1359516 0.3520032 0.004159645 -0.018889027 0.021529734 0.01591306 -0.48493874 0.005424427
-0.2975876 0.3751367 -0.21118616 0.18681727 -0.23136136 0.054016326 -0.051792692 0.15970291
-0.13587207 -0.17345771 -0.4255739 -0.36354482 -0.38400972 0.24962474 0.15070385 -0.14936982
0.11764846 -0.1974966 0.86958027 -0.15797539 0.071955025 0.41204402 -0.45780015 -0.16281456
-0.51883763 -0.24618647 0.08710603 0.5326558 -0.07609632 0.08932605 0.06201158 0.07689357
-0.90578943 0.022285542 -1.0925493 -0.5388841 0.14089167 -0.18868765 0.30714583 0.013523882
0.00014609803 0.101188645 0.25617447 -0.09667589 -0.25462857 0.1633159 -0.58206403 -0.0867474
-0.19593003 -0.12452507 -0.091023974 0.97476023 0.35158208 -0.03429005 -0.25006658 0.19338128
-0.14378458 0.39939037 -0.35289913 0.28264055 0.505406 0.14118317 -0.07231109 -0.30853453
0.19381881 -0.58148015 -0.024688369 -1.1221116 0.1044617 -0.24919845 0.27989575 -1.0301809
-0.11287719 -0.37135848 0.09750136 -0.9159621 -0.15901327 0.51210517 -0.076617345 -0.39263806
-0.32995668 0.086184084 -0.050782066 0.7665592 0.17134647 0.007461999 -0.31533766 0.22581068
0.16731143 -0.67784667 -0.7967529 -0.08815371 -0.023206364 -0.0057112984 0.20316036 -0.14592151
0.2554287 -0.22845681 0.48294017 -0.96454006 -0.5655912 -0.9495949 -9.142394e-05 0.0033884305
-0.16432792 -0.15504088 0.2493563 0.6670502 0.22304596 0.30347317 -0.11804596 -1.2654079
0.06689084 -0.46519834 -0.373444 -0.15050915 0.25706106 -0.1619823 -0.017755955 -0.065357886
-0.25847998 0.46646172 -0.17270862 -0.5328782 0.069812715 0.03267921 -0.07460822 -0.18537918
0.0042177085 -0.372771 -0.9246503 0.47930413 0.40964952 0.15496016 0.0392317 -0.09097581
0.30010268 -0.33887818 -0.6496731 -0.038349066 -0.01707321 0.007975862 0.3264629 -0.2899774
-0.062578805 0.054881528 0.25855288 0.4394102 -0.37640122 -0.6089218 0.05122913 -0.012925505
-0.23478292 0.37828815 -0.00017264247 0.02828613 0.5763952 0.26279294 -0.6745271 -0.025449887
-0.38598755 0.47526792 -0.033680674 0.08242304 -0.14126053 0.00020461065 -0.0135327205 -0.23087807
-0.029618947 0.0335717 0.035090286 0.034147747 0.043574277 0.19203024 -0.6862939 0.12512861
00000000: fc33 8bbf 9922 c5bc 85b5 dcbd 26c2 1bbf
00000010: bb59 553d 247e 4c3e e55d a2bd da47 0abd
00000020: 9102 343e e1c5 ffbe 9a6c f7be e328 86be
00000030: a5a9 ce3e 26df a2be 6d16 153d 6bd7 a1bd
00000040: fbc9 a5be 38bd 6b3d 00d5 a7ba 729f a2be
00000050: 504e 6ebd d07f c9bd d045 ae3c 013c 9dbe
00000060: fec1 3fbe 97aa 8d3e a5fb 41be ae49 e23e
00000070: 0141 87be c1ab 94bd c2c2 7e3e 5c65 adbe
00000080: dbaf 25be f9c7 ee3e c7b1 993d 1177 16be
00000090: 8aa0 e0bc 6afb e33d 0125 0ebf aedf e63b
000000a0: b42a d63d a026 38bf b771 29bf e7df 193e
000000b0: a3ab 333d ee6b 8c3e 4faa 23bc 64f4 b5bd
000000c0: 3a23 8c3e 0105 f2bd d457 b63e bb5c abbe
000000d0: 1936 46bf 4413 3d3e 8286 99be b5cc 893d
000000e0: 8d6e f23d 89b8 c8be f44b 2cbf 67d1 343f
000000f0: 6141 913e c5aa 3f3e 28ba a2bd 20eb afbc
00000100: 1b64 8ebd 4146 de3d 101e 2dbe 4fe3 2f3f
00000110: 60a5 b93e 01ce 7a3d f6a8 febd 74aa acbd
00000120: e536 0bbe c339 b43e a24d 883b 29bd 9abc
00000130: 205f b03c 1b5c 823c e449 f8be 64bf b13b
00000140: 675d 98be eb11 c03e 2f41 58be 074d 3f3e
00000150: fee9 6cbe 3940 5d3d 9324 54bd 2989 233e
00000160: 0c22 0bbe e69e 31be d2e4 d9be 8c22 babe
00000170: ec9c c4be a19d 7f3e 1c52 1a3e 67f4 18be
00000180: adf1 f03d 8c3c 4abe d09c 5e3f 4dc4 21be
00000190: 285d 933d 6ff7 d23e c864 eabe dcb8 26be
000001a0: 8bd2 04bf 4e18 7cbe a564 b23d 215c 083f
000001b0: 63d8 9bbd 93f0 b63d dbff 7d3d 607a 9d3d
000001c0: d1e1 67bf 2b90 b63c a8d8 8bbf 4ff4 09bf
000001d0: e845 103e 5637 41be 3842 9d3e 4693 5d3c
000001e0: e431 1939 fe3b cf3d 4d29 833e 02fe c5bd
000001f0: ad5e 82be 493c 273e 2602 15bf 9fa8 b1bd
00000200: e2a1 48be 0007 ffbd c76a babd e389 793f
00000210: 9102 b43e b973 0cbd ba08 80be be05 463e
00000220: 443c 13be e57c cc3e 32af b4be 43b6 903e
00000230: 4a62 013f 5292 103e d617 94bd 3df8 9dbe
00000240: 7078 463e e2db 14bf 433f cabc 5aa1 8fbf
00000250: 04f0 d53d e12d 7fbe 7f4e 8f3e f8dc 83bf
00000260: 282c e7bd b322 bebe cbae c73d 7e7c 6abf
00000270: 60d4 22be 5319 033f 8ee9 9cbd db07 c9be
00000280: 15f0 a8be 4881 b03d db00 50bd 393d 443f
00000290: 7375 2f3e c983 f43b f073 a1be ea3a 673e
000002a0: b053 2b3e 5c87 2dbf 00f8 4bbf ef89 b4bd
000002b0: 461b bebc d825 bbbb 4509 503e 736c 15be
000002c0: 8dc7 823e 95f0 69be ef43 f73e 19ec 76bf
000002d0: 96ca 10bf a718 73bf dbba bfb8 6e10 5e3b
000002e0: 9445 28be 09c3 1ebe 4257 7f3e cdc3 2a3f
000002f0: 2966 643e d660 9b3e 15c2 f1bd e3f8 a1bf
00000300: 11fe 883d 7a2e eebe 0d34 bfbe 121f 1abe
00000310: 829d 833e b0de 25be f074 91bc 5bda 85bd
00000320: 7d57 84be 12d4 ee3e 87da 30be b56a 08bf
00000330: f8f9 8e3d a3da 053d 32cc 98bd 0ad4 3dbe
00000340: b434 8a3b d7db bebe e2b5 6cbf 5a67 f53e
00000350: 95bd d13e e0ad 1e3e 6bb1 203d 8751 babd
00000360: 0fa7 993e 7181 adbe fa50 26bf e913 1dbd
00000370: 1edd 8bbc 31ad 023c 2526 a73e eb77 94be
00000380: 5129 80bd 74cb 603d 0b61 843e 60fa e03e
00000390: a9b7 c0be 4de2 1bbf a3d5 513d 7fc5 53bc
000003a0: ef6a 70be fcae c13e 5c07 35b9 50b8 e73c
000003b0: a38e 133f cc8c 863e cfad 2cbf 487c d0bc
000003c0: 29a0 c5be 5156 f33e bff4 09bd 69cd a83d
000003d0: 9aa6 10be c18c 5639 58b8 5dbc 4d6b 6cbe
000003e0: 6fa3 f2bc 7b82 093d d5ba 0f3d 82de 0b3d
000003f0: f17a 323d 93a3 443e f5b0 2fbf b721 003e

fc1.bias f4 [230]
0.21807513 0.07052668 -0.33098325 -0.25560296 -0.19273344 -0.0027515169 -0.1832029 -0.37229878
0.19617979 0.9711319 -0.5925639 -0.05253468 -0.100856915 -0.6310592 -0.22312191 -0.18576466
-0.5306041 -0.044303358 -0.30872583 0.062799595 -0.5985754 0.26018977 -0.15087011 0.15930529
0.061848737 0.073218405 -0.4069838 -0.114824586 -0.5193371 0.29449284 0.27680403 -0.0026635071
-0.40217692 -0.117012225 0.08794672 -0.6002558 0.108371 0.15675461 0.06422594 0.37701002
-0.5966347 -0.25661534 0.35012043 0.246848 0.35733637 -0.64611274 -0.18795216 0.5576507
0.29193577 -0.14049758 0.35151565 -0.14376627 0.3917381 0.23670317 0.36390337 -0.20875727
-0.23073186 -0.5366572 0.011145356 -0.21321656 0.44054922 -0.3576619 0.100733936 -0.0054494063
0.13336115 0.047048677 0.099107414 -0.23433626 0.3825919 0.21337898 0.12380239 0.2698701
0.013045023 -0.38370934 0.1361776 -0.06462565 -0.51217353 0.2191548 0.44127166 -0.39080673
0.2697261 -0.5134162 0.22096716 -0.04803354 0.38422 0.014308661 0.095038325 0.5667768
-0.36555323 -0.46457168 0.5876309 -0.3478564 0.29673418 0.107770175 -0.4807751 -0.22645873
-0.22884135 -0.5023409 -0.13945827 0.6346707 0.08255673 -0.5428097 -0.038062133 -0.030676898
-0.46338388 0.051615164 -0.15078048 0.41664025 0.14615604 -0.31534418 -0.12637196 0.007650634
0.3088738 -0.21280336 0.18015622 -0.7530799 -0.66859746 -0.07983852 0.3514367 0.033170555
-0.80767685 -0.113674216 0.0726275 -0.40108225 -0.61921525 -0.59308946 0.22186783 0.54750884
-0.2031749 -0.6156111 -0.08392028 0.34906998 0.12778217 -0.4248018 -0.21460201 0.25586793
-0.4928874 0.3040374 -0.0022741237 0.19717804 -0.080533594 -0.86808425 0.44480282 0.26810586
-0.42332187 0.13759498 0.005071187 -0.25343242 -0.35193714 -0.09261567 -0.13847327 0.15889402
0.49729705 -0.14291133 -0.64175844 -0.59446174 0.3000999 -0.37040833 -0.7457549 -0.010040021
-0.013617529 -0.28489286 -0.27878794 -0.3195079 -0.032225683 -0.25913295 -0.10454638 -0.04786436
-0.102100305 0.1491841 -0.31169572 0.29070765 -0.2610897 -0.3284274 -0.44505385 0.8789508
-0.008735053 0.037696544 0.44414926 -0.61887944 -0.22253782 -0.10051931 -0.56754184 -0.58902985
0.28093898 0.0927143 0.2580353 0.094140925 0.31450433 -0.020345485 -0.33750182 -0.051453568
-0.22805662 -0.49190003 -0.24439602 -0.03891393 -0.16772024 0.08072283 0.41862774 -0.27879712
-0.20376591 -0.22263604 -0.35017145 0.44823387 0.35544723 -0.1624593 -0.2884017 0.42361754
-0.028218625 -0.110946655 -0.13275822 0.16294184 -0.13138123 -0.062257547 -0.3482757 0.30487448
0.26684168 0.37767166 -0.19196361 0.12454572 -0.5385551 -0.1786454 -0.28168094 -0.15020819
-0.4306049 0.06571296 0.31067255 0.24968757 0.09271735 -0.24523862
00000000: 164f 5f3e 4b70 903d a376 a9be 64de 82be
00000010: ea5b 45be cb52 34bb 8b99 3bbe f29d bebe
00000020: 5be3 483e 1a9c 783f 45b2 17bf 9b2e 57bd
00000030: 128e cebd 198d 21bf 127a 64be 1739 3ebe
00000040: acd5 07bf 7077 35bd 5011 9ebe 139d 803d
00000050: 3d3c 19bf 9837 853e b27d 1abe ed20 233e
00000060: 1a55 7d3d 88f3 953d 2e60 d0be 2729 ebbd
00000070: 47f3 04bf c4c7 963e 42b9 8d3e 3c8e 2ebb
00000080: 22ea cdbe 1ba4 efbd 691d b43d 5daa 19bf
00000090: 9df1 dd3d 4884 203e e488 833d 7507 c13e
000000a0: 0dbd 18bf 1663 83be fc42 b33e b9c5 7c3e
000000b0: cbf4 b63e a567 25bf 8876 40be 32c2 0e3f
000000c0: 9b78 953e 99de 0fbe dcf9 b33e 7737 13be
000000d0: e591 c83e 5162 723e 8b51 ba3e 77c4 55be
000000e0: f944 6cbe 5e62 09bf 039b 363c 7155 5abe
000000f0: ab8f e13e 761f b7be 984d ce3d ef90 b2bb
00000100: d38f 083e 1db6 403d d4f8 ca3d d8f5 6fbe
00000110: 16e3 c33e 0580 5a3e 1c8c fd3d 6a2c 8a3e
00000120: cbba 553c 8d75 c4be 2472 0b3e 745a 84bd
00000130: ce1d 03bf 1e6a 603e 5cee e13e d217 c8be
00000140: 8a19 8a3e 3e6f 03bf 3745 623e d1be 44bd
00000150: 7cb8 c43e e06e 6a3c 74a3 c23d 4918 113f
00000160: cb29 bbbe 57dc edbe fb6e 163f 3c1a b2be
00000170: 8bed 973e 9cb6 dc3d 2728 f6be cce4 67be
00000180: 6355 6abe 6a99 00bf 26ce 0ebe c779 223f
00000190: 8113 a93d 94f5 0abf 0ae7 1bbd 1e4e fbbc
000001a0: a740 edbe 6c6a 533d 3366 1abe df51 d53e
000001b0: eea9 153e cb74 a1be a767 01be 2bb2 fa3b
000001c0: b524 9e3e 20e9 59be df7a 383e d8c9 40bf
000001d0: 3429 2bbf 6182 a3bd 83ef b33e d9dd 073d
000001e0: e9c3 4ebf 07ce e8bd babd 943d a75a cdbe
000001f0: e484 1ebf b6d4 17bf 5231 633e 8a29 0c3f
00000200: 150d 50be b098 1dbf 65de abbd 4db9 b23e
00000210: 54d9 023e 9f7f d9be a1c0 5bbe 1f01 833e
00000220: bd5b fcbe caaa 9b3e 7709 15bb 0ae9 493e
00000230: ccee a4bd c53a 5ebf 32bd e33e 2c45 893e
00000240: a5bd d8be b3e5 0c3e 332c a63b e5c1 81be
00000250: 1b31 b4be 49ad bdbd f0cb 0dbe 1db5 223e
00000260: b89d fe3e 5957 12be 484a 24bf a52e 18bf
00000270: b2a6 993e 29a6 bdbe cbe9 3ebf e67e 24bc
00000280: 0e1c 5fbc 7add 91be 4bbd 8ebe 8a96 a3be
00000290: 14ff 03bd 13ad 84be 6a1c d6bd 6b0d 44bd
000002a0: f719 d1bd b7c3 183e 9596 9fbe a2d7 943e
000002b0: 8dad 85be a327 a8be 19de e3be eb02 613f
000002c0: 781d 0fbc b167 1a3d 8867 e33e e26e 1ebf
000002d0: f4e0 63be 11dd cdbd 6c4a 11bf a9ca 16bf
000002e0: 3cd7 8f3e ffe0 bd3d 341d 843e f5cc c03d
000002f0: b606 a13e 93ab a6bc 0acd acbe fac0 52bd
00000300: ad87 69be 52da fbbe f342 7abe 3764 1fbd
00000310: dbbe 2bbe 0352 a53d 6056 d63e 7fbe 8ebe
00000320: 03a8 50be b4fa 63be ac49 b3be e97e e53e
00000330: 2efd b53e bb5b 26be 63a9 93be 66e4 d83e
00000340: bf2a e7bc 0038 e3bd c5f1 07be 3ada 263e
00000350: cd88 06be c501 7fbd 3151 b2be 8218 9c3e
00000360: 799f 883e 2e5e c13e 1c92 44be d411 ff3d
00000370: bfde 09bf d2ee 36be 7c38 90be 2dd0 19be
00000380: 3f78 dcbe 8494 863d 7910 9f3e 19ae 7f3e
00000390: 98e2 bd3d d51f 7bbe

fc2.weight f4 [120, 230]
0.18254599 0.20495676 0.06552329 0.03263555 0.24098635 0.09044119 -0.02356673 0.23267668
-0.053770203 -0.16979285 0.027804907 0.23820025 -0.13203777 0.24329475 -0.065313786 0.18025798
0.19718057 -0.025512528 0.009255513 0.008647923 -0.13289437 -0.047883578 -0.20300773 -0.2439787
0.15879807 -0.09024442 0.027799817 0.18119422 -0.21981753 0.08927354 0.051972907 0.012491077
-0.20726131 -0.15777054 -0.10150385 0.037713993 0.08360444 -0.065843835 -0.089077465 -0.013737388
0.16564506 0.20678866 -0.12089733 0.056827106 0.15121822 -0.10347491 0.010480963 0.05322959
0.15700808 -0.024013273 -0.034848828 -0.053080015 0.43860266 0.12189035 0.01580361 -0.24158522
0.39765698 0.027156271 0.10309139 -0.046525322 0.10109701 -0.11800189 -0.11559263 0.028072352
-0.21042222 0.057644073 0.28830704 -0.33678132 -0.061681945 0.24315315 0.40257144 0.030966995
0.15582164 -0.028070644 0.37744984 -0.059320677 0.07234846 0.20451106 0.008818737 0.07825485
-0.1434207 -0.09699944 -0.16053745 -0.17655146 0.16149104 -0.07183572 -0.059354547 -0.17012236
0.0012388945 -0.14536323 0.0015447612 0.30528077 -0.03265459 0.12542965 0.054477505 -0.06982603
-0.011372551 0.22435834 0.45691675 0.080898516 0.032982785 -0.037571866 0.10937564 -0.030571051
0.06752335 0.18469125 -0.10069169 0.13688102 -0.020870874 0.087102376 -0.09162969 0.009862086
0.08529982 0.04416184 0.15446183 0.044280004 0.21933742 0.17622305 0.024747584 0.15598178
0.08839096 0.05547603 -0.052206576 0.048169833 0.24279118 -0.01563958 -0.12449136 0.017788444
0.16050223 0.07736338 0.019172708 0.0062843096 0.05510384 0.12330383 0.20139995 0.09984465
0.03978573 0.1102757 0.17364146 0.20147537 0.007635236 0.06058191 -0.10814238 -0.15865831
-0.095150314 -0.009939656 -0.010784623 0.6030758 0.08151618 0.28130776 0.017507877 -0.402177
0.056990888 -0.25722703 -0.04225938 0.08128048 -0.049548045 0.00092099915 0.11302219 0.14685403
-0.21823144 0.15157607 0.30260745 -0.14846633 -0.04018752 0.087330505 -0.011071374 -0.0050518843
-0.0884897 0.025096895 0.4223717 -0.0889006 0.17452691 0.20359361 0.17224926 -0.016031941
-0.06716062 -0.040908493 -0.11268614 0.14172642 -0.009972435 0.068565145 0.25680923 0.21582441
-0.047042053 0.005255832 0.12708902 -0.10210604 -0.03153346 -0.20330428 0.03939534 0.07368785
-0.122858554 0.010709561 -0.29844514 -0.12301977 0.26434958 0.05058021 0.19491756 0.32477385
-0.35883084 0.047027327 0.027916417 -0.1367689 0.05753905 0.08540387 0.05590629 0.07417638
-3.478521e-05 -0.086987466 -0.09909796 -0.0268144 0.05674797 0.10606008 0.09805709 0.014055006
0.033238046 0.028108902 -0.13997824 0.06692226 0.14442638 0.026151873 -0.28647542 -0.0756286
0.015884625 0.034168348 0.13288505 -0.10923508 0.20362787 0.23201834 -0.31648156 0.1564756
-0.0003445968 0.054101437 0.55937064 0.24262099 -0.14888111 0.14706194 0.017215857 0.21468534
0.0061847726 0.09577421 0.053504653 0.101396866 -0.09821953 0.6206587 0.051726464 0.03548333
0.021059 -0.20558362 -0.039758056 0.24704935 -0.0071292226 -0.07853252 0.39568323 0.35976028
00000000: 56ed 3a3e 2fe0 513e 1331 863d dbac 053d
00000010: 20c5 763e 3b39 b93d 040f c1bc cc42 6e3e
00000020: 253e 5cbd 2dde 2dbe 1ec7 e33c c4ea 733e
00000030: e934 07be 4222 793e 3cc3 85bd 8c95 383e
00000040: b4e9 493e a6ff d0bc 6fa4 173c 05b0 0d3c
00000050: 7615 08be 9221 44bd 42e1 4fbe 8dd5 79be
00000060: f69b 223e 11d2 b8bd 71bc e33c fa8a 393e
00000070: d917 61be 0cd5 b63d 8be1 543d 60a7 4c3c
00000080: 4f3c 54be 9a8e 21be 40e1 cfbd fd79 1a3d
00000090: ce38 ab3d 22d9 86bd 3f6e b6bd c812 61bc
000000a0: dc9e 293e 68c0 533e 0599 f7bd 8ac3 683d
000000b0: f3d8 1a3e a7ea d3bd 58b8 2b3c 4507 5a3d
000000c0: bac6 203e 7cb7 c4bc a5bd 0ebd 6e6a 59bd
000000d0: 8790 e03e a6a1 f93d 9376 813c 1e62 77be
000000e0: b299 cb3e d476 de3c 9421 d33d 5691 3ebd
000000f0: f30b cf3d faaa f1bd d4bb ecbd fdf7 e53c
00000100: ec78 57be 311c 6c3d fb9c 933e 9a6e acbe
00000110: 35a6 7cbd 24fd 783e d81d ce3e 7fae fd3c
00000120: b58f 1f3e 68f4 e5bc 1b41 c13e 3dfa 72bd
00000130: 6e2b 943d 596b 513e 777c 103c 1444 a03d
00000140: e0dc 12be a4a7 c6bd ee63 24be e8c9 34be
00000150: e85d 253e 9b1e 93bd c11d 73bd 8e34 2ebe
00000160: 6762 a23a 19da 14be 9679 ca3a c34d 9c3e
00000170: d2c0 05bd a170 003e ce23 5f3d f300 8fbd
00000180: f053 3abc 31be 653e fef0 e93e 1fae a53d
00000190: f518 073d f5e4 19bd 5600 e03d 2470 fabc
000001a0: af49 8a3d b41f 3d3e 7237 cebd 8a2a 0c3e
000001b0: 65f9 aabc bb62 b23d 59a8 bbbd 9694 213c
000001c0: acb1 ae3d 0ce3 343d 3e2b 1e3e f35e 353d
000001d0: fd99 603e d173 343e 72bb ca3c b0b9 1f3e
000001e0: 5206 b53d d53a 633d 90d6 55bd bb4d 453d
000001f0: 409e 783e 941e 80bc 53f5 febd 12b9 913c
00000200: b25a 243e b170 9e3d 1510 9d3c 9cec cd3b
00000210: 90b4 613d b886 fc3d ca3b 4e3e 5a7b cc3d
00000220: 5df6 223d 3ad8 e13d 11cf 313e 8f4f 4e3e
00000230: 0031 fa3b bd24 783d c179 ddbd 5377 22be
00000240: 2bde c2bd f0d9 22bc fdb1 30bc 2d63 1a3f
00000250: f4f1 a63d 9207 903e ae6c 8f3c 25ea cdbe
00000260: 476f 693d 43b3 83be 2c18 2dbd 6176 a63d
00000270: e4f2 4abd 356f 713a 2e78 e73d e760 163e
00000280: 1078 5fbe c236 1b3e 5def 9a3e 8f07 18be
00000290: ab9b 24bd 56da b23d b564 35bc 478a a5bb
000002a0: 163a b5bd 0198 cd3c 1a41 d83e 8511 b6bd
000002b0: 2fb7 323e d87a 503e 1c62 303e 6b55 83bc
000002c0: 828b 89bd aa8f 27bd fec7 e6bd bb20 113e
000002d0: 6d63 23bc e26b 8c3d 807c 833e 1301 5d3e
000002e0: 2baf 40bd 1d39 ac3b a023 023e f91c d1bd
000002f0: 3b29 01bd ff2e 50be 025d 213d a8e9 963d
00000300: 449d fbbd 2877 2f3c cdcd 98be caf1 fbbd
00000310: d458 873e 322d 4f3d 7898 473e c248 a63e
00000320: adb8 b7be ba9f 403d f8b0 e43c 260d 0cbe
00000330: 11ae 6b3d 39e8 ae3d fefd 643d c9e9 973d
00000340: 56e6 11b8 7c26 b2bd dff3 cabd dfa9 dbbc
00000350: 8f70 683d 0736 d93d 28d2 c83d f846 663c
00000360: 9e24 083d a444 e63c 7556 0fbe 8a0e 893d
00000370: 82e4 133e 743c d63c e8ac 92be 2be3 9abd
00000380: 7920 823c 1cf4 0b3d 0513 083e a4b6 dfbd
00000390: d383 503e 3796 6d3e df09 a2be 243b 203e
000003a0: 00ab b4b9 7899 5d3d ea32 0f3f a371 783e
000003b0: 4a74 18be 6897 163e 4508 8d3c 79d6 5b3e
000003c0: a2a9 ca3b 4525 c43d b227 5b3d 29a9 cf3d
000003d0: 5227 c9bd 7de3 1e3f 21df 533d f856 113d
000003e0: ed83 ac3c 8384 52be 58d9 22bd 81fa 7c3e
000003f0: 419c e9bb a8d5 a0bd fe96 ca3e 8032 b83e

fc2.bias f4 [120]
-0.17114538 0.09372208 -0.18151142 0.17175363 0.18298757 -0.25558203 -0.10964199 0.15987211
0.26371008 -0.27605033 -0.150861 -0.026783831 0.0055500516 -0.2792161 0.26380622 0.36144546
0.30435133 -0.08624415 0.22225349 0.21719229 0.055208758 0.18606329 -0.40879503 -0.18330398
0.38106954 -0.07778778 -0.28562012 -0.09636519 -0.1082025 0.049548704 -0.012114239 0.1845489
0.3032347 -0.20280312 0.052846905 -0.2612732 -0.062757336 0.33098522 -0.20645206 0.17685051
-0.04827674 -0.08796614 0.26061168 0.08848887 -0.1253137 0.11277214 0.26315004 -0.038390085
-0.3487902 0.3239325 -0.11519928 0.26227978 -0.1602462 0.11419006 0.18624252 0.24738793
0.30980253 -0.020922707 0.07463461 -0.23308797 0.14710683 -0.10877099 0.28126276 0.09879345
-0.16820145 0.21032138 -0.07173472 -0.15851282 -0.2554954 -0.3382045 0.43420035 -0.11882072
-0.050757915 -0.13735397 -0.25764847 0.115814395 0.2275778 0.16306463 0.19045185 -0.11104613
-0.20019595 0.21390261 -0.20048803 -0.29005507 0.05009012 -0.004832723 0.3125655 -0.049341165
0.25311708 -0.10599223 -0.12689969 -0.08464736 -0.066031635 -0.0113114705 0.20804097 -0.07664057
-0.04858693 -0.021542808 0.28317168 0.34472018 -0.07568519 -0.012611019 0.22002988 -0.15775496
0.21085662 -0.13808696 0.06854773 -0.11446516 -0.09382914 -0.35123846 0.2612401 -0.08676283
0.22469217 0.089060694 -0.08140118 -0.2537861 0.2703787 0.38415742 0.11455041 0.32208228
00000000: bc40 2fbe 5df1 bf3d 21de 39be 2fe0 2f3e
00000010: 1861 3b3e a6db 82be fb8b e0bd 84b5 233e
00000020: 0205 873e 7856 8dbe 4e7b 1abe c469 dbbc
00000030: 35dd b53b 6af5 8ebe 9c11 873e 610f b93e
00000040: f0d3 9b3e c6a0 b0bd 6b96 633e a867 5e3e
00000050: 9422 623d 6087 3e3e 954d d1be 0ab4 3bbe
00000060: 8c1b c33e 334f 9fbd cd3c 92be 1d5b c5bd
00000070: 4699 ddbd 95f3 4a3d cd7a 46bc 63fa 3c3e
00000080: 9441 9b3e 9fab 4fbe ff75 583d 9ac5 85be
00000090: eb86 80bd e576 a93e 2b68 53be 4d18 353e
000000a0: d5bd 45bd 9727 b4bd e56e 853e a739 b53d
000000b0: 3c52 00be 14f5 e63d 9abb 863e ec3e 1dbd
000000c0: a194 b2be 7bda a53e 9aed ebbd 8949 863e
000000d0: 9417 24be 7adc e93d 5cb6 3e3e 4353 7d3e
000000e0: 709e 9e3e 1966 abbc 08da 983d 9dae 6ebe
000000f0: 2ca3 163e 53c3 debd ac01 903e 3854 ca3d
00000100: 003d 2cbe 7d5e 573e a7e9 92bd 2f51 22be
00000110: 4bd0 82be 2429 adbe 824f de3e 4758 f3bd
00000120: 88e7 4fbd 85a6 0cbe 80ea 83be 1930 ed3d
00000130: 280a 693e 6afa 263e cf05 433e 276c e3bd
00000140: 2b00 4dbe 4909 5b3e bc4c 4dbe 1982 94be
00000150: 4c2b 4d3d d25b 9ebb 9608 a03e f619 4abd
00000160: 9098 813e 7412 d9bd fef1 01be 985b adbd
00000170: 983b 87bd bf53 39bc b108 553e bbf5 9cbd
00000180: 1703 47bd 8b7a b0bc e1fb 903e 2a7f b03e
00000190: d600 9bbd 739e 4ebc 834f 613e 848a 21be
000001a0: ccea 573e ab66 0dbe c162 8c3d b66c eabd
000001b0: 7e29 c0bd 87d5 b3be 43c1 853e b6b0 b1bd
000001c0: b415 663e 7465 b63d a9b5 a6bd 40f0 81be
000001d0: 146f 8a3e 48b0 c43e 6899 ea3d f8e7 a43e

fc3.weight f4 [2, 120]
-0.0005934889 0.008404372 0.060892448 0.062445283 -0.0007289508 0.038075212 -0.018391814 0.081261165
0.101910345 0.084351435 0.11734471 -0.031138249 -0.22075313 -0.022802098 0.023335485 0.037489027
-0.2928765 0.04179793 -0.1782472 -0.16285846 0.05801062 0.10820178 0.04074437 -0.07185799
0.015208544 -0.2423218 0.09986027 -0.02204187 0.04020274 -0.04836602 -0.1908277 -0.24474177
-0.16399983 0.00567466 0.030988425 -0.049952433 -0.23823927 -0.09058562 -0.03610085 -0.04464238
-0.022360194 -0.04417937 -0.18016951 0.04170675 0.04361755 -0.23941101 0.10762717 0.069045365
-0.022121314 0.10587553 0.011814548 -0.031380154 -0.10737316 -0.23828602 -0.063780345 0.06624641
-0.11670935 0.017418068 -0.19032833 0.027809659 -0.010899518 0.00844757 -0.05608329 -0.2661009
0.037523568 -0.12785006 0.028836152 0.08812111 -0.00053881045 0.016480125 -0.11829727 -0.08579195
0.019775348 -0.012528677 0.03351742 8.88014e-05 -0.14928035 -0.062232487 0.0023313023 -0.051156748
0.014483245 -0.4006769 -0.022514949 -0.010805454 0.008564477 -0.006998091 0.04508469 -0.023648636
-0.2308497 0.0584326 0.026202451 -0.0037604729 0.05655179 -0.11154065 0.027837342 -0.03798221
-0.049051598 -0.023996603 -0.15431494 0.17662473 0.033971604 -0.26290196 0.015490013 -0.16478062
-0.03718076 -0.024290057 0.057814907 -0.0024109948 -0.104809366 -0.040283725 -0.18834357 0.0074723405
-0.15615411 0.0013670836 -0.15553722 -0.03062543 0.16561003 0.12537417 -0.10105722 0.14093503
-0.01593748 -0.020846667 0.07930579 -0.11958745 -0.046728447 0.08140284 0.03141258 0.025477365
0.0179522 0.08696988 -0.028162956 0.13475622 0.17723349 -0.016363781 -0.095958404 -0.014862436
0.21508856 -0.037325136 0.083042085 0.14450806 0.062995225 0.02717537 -0.0036083097 0.033763632
-0.06329496 0.30111817 -0.05686461 -0.0077666887 -0.016622044 -0.051406458 0.20968051 0.16130328
0.11498457 0.028687758 -0.009566509 -0.039264705 0.18994811 0.091786616 0.028201483 0.090687394
-0.03119988 0.04510035 0.18302958 -0.05024726 0.014499374 0.2129474 -0.114920564 -0.16093923
-0.037987724 -0.10266849 0.007869986 -0.09229037 0.11286216 0.22029507 0.15878232 -0.0008434347
0.10443744 -0.07754093 0.12766276 0.010671631 -0.068686455 0.03402333 0.10234564 0.31628177
-0.02877548 0.06582695 0.026726058 0.045445777 0.014866445 -0.04707719 0.24709706 -0.074769504
0.034714814 -0.046342533 0.11895147 -0.027354874 0.15133421 0.17272925 -0.081472486 -0.09947748
0.025181398 0.3075928 -0.015947228 -0.046628725 -0.014970794 0.007812516 -0.112183094 0.014412835
0.14233987 0.047685638 -0.0032364835 -0.03720804 0.03479636 0.21274997 -0.04946437 -0.06220767
-0.05790808 0.16047572 0.29984188 -0.12838383 -0.039027754 0.21582136 -0.041780308 0.10444616
-0.109364025 -0.03541566 0.022114994 0.07471707 0.12619913 -0.029989917 0.21442623 0.059668113
0.08007176 -0.073089376 0.2979042 -0.025704516 -0.03055678 -0.12155681 0.090152614 -0.030916944
00000000: 5e94 1bba 7eb2 093c 5c6a 793d a0c6 7f3d
00000010: 0f17 3fba c1f4 1b3d 6eaa 96bc 416c a63d
00000020: 5fb6 d03d 72c0 ac3d 6c52 f03d a415 ffbc
00000030: 1c0d 62be 77cb babc 0f2a bf3c 188e 193d
00000040: e9f3 95be 4e34 2b3d 6f86 36be 5ec4 26be
00000050: 8b9c 6d3d e598 dd3d 92e3 263d 482a 93bd
00000060: 422d 793c 3523 78be 8b83 cc3d 2791 b4bc
00000070: a1ab 243d 731b 46bd 5668 43be 969d 7abe
00000080: 92ef 27be 80f2 b93b 70db fd3c ec9a 4cbd
00000090: fff4 73be f484 b9bd 7cde 13bd eeda 36bd
000000a0: ba2c b7bc 6df5 34bd 5b7e 38be b2d4 2a3d
000000b0: 51a8 323d 2928 75be a26b dc3d a867 8d3d
000000c0: c237 b5bc 45d5 d83d ce91 413c 7a88 00bd
000000d0: 76e6 dbbd 4001 74be 459f 82bd 33ac 873d
000000e0: 5005 efbd 56b0 8e3c 6ee5 42be 15d1 e33c
000000f0: e493 32bc ad67 0a3c 98b7 65bd 613e 88be
00000100: 50b2 193d 20eb 02be cb39 ec3c d778 b43d
00000110: f53e 0dba 5401 873c d745 f2bd b1b3 afbd
00000120: e9ff a13c 1445 4dbc 9049 093d e33a ba38
00000130: f3dc 18be 7ee7 7ebd c3c8 183b bd89 51bd
00000140: 224b 6d3c 8625 cdbe 4571 b8bc 5c09 31bc
00000150: 0552 0c3c 3e50 e5bb b9aa 383d c9ba c1bc
00000160: dd63 6cbe 0657 6f3d 86a6 d63c 4472 76bb
00000170: daa2 673d 6d6f e4bd 230b e43c 3c93 1bbd
00000180: 54ea 48bd 8694 c4bc bc04 1ebe 1ddd 343e
00000190: cf25 0b3d 169b 86be d3c9 7d3c 40bc 28be
000001a0: da4a 18bd f1fb c6bc 53cf 6c3d c801 1ebb
000001b0: 4ba6 d6bd 8c00 25bd 23dd 40be 89da f43b
000001c0: dde6 1fbe b72f b33a 2645 1fbe 2fe2 fabc
000001d0: ad95 293e 1662 003e 16f7 cebd 4651 103e
000001e0: 518f 82bc a1c6 aabc 136b a23d 44ea f4bd
000001f0: 5466 3fbd 88b6 a63d 7aaa 003d e8b5 d03c
00000200: 7e10 933c 441d b23d 00b6 e6bc 89fd 093e
00000210: b27c 353e 560d 86bc d785 c4bd 9381 73bc
00000220: 2d40 5c3e 3ee2 18bd f811 aa3d ecf9 133e
00000230: a403 813d e29e de3c 6479 6cbb bc4b 0a3d
00000240: caa0 81bd 292c 9a3e deea 68bd b57f febb
00000250: f42a 88bc 948f 52bd 7db6 563e b02c 253e
00000260: 087d eb3d 9702 eb3c d9bc 1cbc 07d4 20bd
00000270: c281 423e 9ffa bb3d cc06 e73c 50ba b93d
00000280: e496 ffbc 25bb 383d 1b6c 3b3e 12d0 4dbd
00000290: c88e 6d3c e20e 5a3e 795b ebbd 41cd 24be
000002a0: 0499 1bbd db43 d2bd 1df1 003c bc02 bdbd
000002b0: 4724 e73d 0895 613e d597 223e f219 5dba
000002c0: 4ce3 d53d c7cd 9ebd 07ba 023e 11d8 2e3c
000002d0: 7cab 8cbd 0c5c 0b3d 979a d13d afef a13e
000002e0: 8eba ebbc 48d0 863d 9bf0 da3c 5a25 3a3d
000002f0: 6492 733c 03d4 40bd 0307 7d3e c120 99bd
00000300: 1f31 0e3d abd1 3dbd d49c f33d 5417 e0bc
00000310: 5bf7 1a3e f0df 303e 0cdb a6bd d9ba cbbd
00000320: 3849 ce3c ce7c 9d3e c3a3 82bc c3fd 3ebd
00000330: 1048 75bc 1100 003c 40c0 e5bd d023 6c3c
00000340: 8bc1 113e 0452 433d 2f1b 54bb 7567 18bd
00000350: a186 0e3d 21db 593e 279b 4abd 78cd 7ebd
00000360: 0631 6dbd bf53 243e e084 993e 0d77 03be
00000370: 91db 1fbd 4600 5d3e d421 2bbd dee7 d53d
00000380: 3ffa dfbd 0310 11bd 812a b53c 4305 993d
00000390: 583a 013e 6aad f5bc 8d92 5b3e 8d66 743d
000003a0: aafc a33d e2af 95bd e686 983e 4792 d2bc
000003b0: 3652 fabc c7f2 f8bd efa1 b83d 8845 fdbc

fc3.bias f4 [2]
0.56548315 -0.52446324
00000000: 81c3 103f 3943 06bf

exp_avg f4 [230, 8]
-6e-45 0.00019139086 0.00012118951 -1.7115997e-07 3.8299117e-05 0.00039915883 0.00015134657 0.0012878933
-0.00593034 -0.0013171775 -2.776429e-07 -2.644399e-05 -0.0028135073 -0.0026840116 -0.014394182 -0.0074689616
0.0 0.0 0.0 0.0 0.0 0.0 0.0 0.0
0.00036056802 0.00010423549 -3.820139e-05 -0.00026839803 -0.00048846577 -0.0016102446 0.00040999337 -0.00037062378
-0.0040045576 -0.0037590463 -0.00078429916 -0.0009762471 -0.0016729857 -0.003356224 -6e-45 -0.016045868
0.0003853061 -2.1604836e-05 -0.00033950497 -2.8019504e-05 0.00088302774 -0.0006197344 0.0012220612 0.0014057559
-0.00662214 -0.00452954 -0.0020708924 2.6393473e-05 -0.00023646945 0.0011274429 -0.004816427 -0.013845282
0.0009954754 -0.00031530813 -6.932793e-05 -0.00026709505 0.0011664218 0.0024419643 0.0027819078 0.01131346
-0.0022834546 -0.001429557 6.823454e-05 -0.00067021797 -0.0024003084 -0.0015133825 -0.00790008 -0.005260073
0.00511867 0.0069480967 -0.0012993878 0.00032193138 0.003624348 0.0034159462 0.009879856 0.03285836
0.03723837 0.01564965 0.0052562226 -0.00019546384 -0.0012404263 0.0062735956 0.023863362 0.07005931
-0.00134489 -2.3930565e-06 -4.0859045e-06 2.4270337e-05 -0.0012656527 -0.0025719162 -0.0054852767 -0.0043519777
-0.00031429192 -0.00010823742 0.00033924525 8.463495e-05 0.00024948074 0.0009755832 0.00020385782 0.0026136811
0.0012815392 -0.0028353445 0.00043177576 -0.00030749757 0.00068386004 0.003087572 -0.006126539 -0.011364489
0.0011016699 0.0036649406 0.0020702304 5.7988473e-05 0.0033310612 -0.00033223748 0.015562119 0.02642459
-0.0005334712 -0.0004835423 -0.00029464642 -2.3515995e-06 -1.0345607e-05 -0.0010294524 6e-45 -0.0023071882
0.0006035276 0.0006384825 -0.0003896876 -7.090189e-05 0.0011676089 0.0033254363 0.009070836 0.01569726
-0.0002862527 0.00023253757 0.00030325245 -8.711878e-05 -0.0008513432 -0.001640152 -0.0022694424 -0.00069929945
-9.2924194e-05 -6.756479e-05 9.79875e-06 6e-45 1.2709596e-05 1.4918263e-05 -0.00012322792 7.737398e-06
-6.715837e-05 -4.342726e-05 3.804354e-05 2.3123967e-07 3.6325524e-05 -0.00012288798 -3.0484587e-06 -1.8949064e-05
5.529069e-05 -0.0016689046 -0.0012055594 -0.00023841113 -0.0007679613 0.0005031967 -0.0015292242 -0.0035149788
0.00028009337 0.0007278891 0.0005764708 -3.1887863e-05 -0.00060703943 -0.00014064058 -0.0016015831 -0.0062341606
-0.0053172475 -0.0011002492 0.0006217749 6e-45 -0.0001995402 6e-45 -0.005534328 -0.018183462
0.00032585932 0.0004222128 0.00022137407 0.00028562776 0.00025137633 0.0012391878 0.001266928 0.00014706879
-0.0013388426 6e-45 -1.0966906e-26 -2.3817329e-05 -0.0013348938 -7.479864e-05 -0.00211379 -0.0062918076
-0.0005872584 -0.0020489756 -0.001371187 -1.17508584e-07 -0.0015735087 -0.001972235 -0.0060141194 -0.001270848
6.1863415e-05 -0.000107601314 -1.0735268e-12 -6.0339506e-05 0.00014561176 -0.00015211529 0.00085646886 0.00014110336
-0.0064968974 -0.004338306 -0.00062854664 1.8082869e-06 -0.0020115913 -0.0037561997 -0.010000812 -0.010806993
-1.0980007e-06 -3.5126188e-05 -2.8104538e-05 -3.4591867e-05 -8.561783e-12 -6e-45 -0.00010229043 -0.00021197634
-2.4897943e-05 -0.000293237 -0.00014828981 -1.537857e-05 9.293982e-05 -2.5288007e-05 -3.0099243e-05 -0.000104590006
-0.0015032771 -0.0031697757 -0.00048374204 -0.00014851247 -0.000254942 -0.0008463958 -0.0077098412 -0.0049820268
-0.00068568846 -0.00040516647 -0.0005060175 -5.855331e-05 -0.00039544218 -0.001260862 -0.0009066825 -0.0041287825
00000000: 0400 0080 18b0 4839 1f27 fe38 18c8 37b4
00000010: 5da3 2038 3146 d139 c9b2 1e39 87ce a83a
00000020: 4c53 c2bb 25a5 acba f30e 95b4 09d4 ddb7
00000030: d262 38bb 3ee6 2fbb 93d5 6bbc 31be f4bb
00000040: 0000 0000 0000 0000 0000 0000 0000 0000
00000050: 0000 0000 0000 0000 0000 0000 0000 0000
00000060: 9f0a bd39 0199 da38 6e3a 20b8 c6b7 8cb9
00000070: 620c 00ba d80e d3ba 61f4 d639 4850 c2b9
00000080: aa38 83bb 555a 76bb 6d99 4dba d5ea 7fba
00000090: 1648 dbba 18f4 5bbb 0400 0080 a072 83bc
000000a0: e902 ca39 083c b5b7 96ff b1b9 6d0b ebb7
000000b0: fd7a 673a ac75 22ba 922d a03a 5741 b83a
000000c0: 89fe d8bb 896c 94bb cfb7 07bb 8d67 dd37
000000d0: c9f4 77b9 b5c6 933a 1ed3 9dbb 52d7 62bc
000000e0: 9d7a 823a f14f a5b9 2664 91b8 e408 8cb9
000000f0: 9fe2 983a 5d09 203b ab50 363b 175c 393c
00000100: 03a6 15bb f95f bbba 2419 8f38 91b1 2fba
00000110: 7e4e 1dbb b15c c6ba 566f 01bc b15c acbb
00000120: 84ba a73b dcac e33b 3850 aaba e6c8 a839
00000130: 7886 6d3b 11de 5f3b 1fdf 213c 7d96 063d
00000140: 4387 183d b233 803c 643c ac3b 6df5 4cb9
00000150: cd95 a2ba bc92 cd3b 197d c33c 417b 8f3d
00000160: 0547 b0ba 6698 20b6 a719 89b6 2798 cb37
00000170: 42e4 a5ba 988d 28bb d6bd b3bb 099b 8ebb
00000180: 8cc7 a4b9 86fd e2b8 badc b139 0b7e b138
00000190: bdcc 8239 48be 7f3a abc2 5539 4b4a 2b3b
000001a0: 52f9 a73a 30d1 39bb f65f e239 a037 a1b9
000001b0: 1245 333a dd58 4a3b 22c1 c8bb 1f32 3abc
000001c0: e865 903a 802f 703b b4ac 073b a638 7338
000001d0: ef4d 5a3b 2930 aeb9 42f8 7e3c 6278 d83c
000001e0: a5d8 0bba f383 fdb9 c67a 9ab9 2cd0 1db6
000001f0: 0b92 2db7 b1ee 86ba 0400 0000 3234 17bb
00000200: 0d36 1e3a d65f 273a fc4e ccb9 2ab1 94b8
00000210: 740a 993a 90ef 593b d89d 143c 8a97 803c
00000220: 3014 96b9 54d5 7339 dbfd 9e39 8ab3 b6b8
00000230: ad2c 5fba 5efa d6ba edba 14bb 3151 37ba
00000240: 4ce0 c2b8 92b1 8db8 5065 2437 0400 0000
00000250: 4d3b 5537 7449 7a37 be36 01b9 dfcf 0137
00000260: 60d7 8cb8 aa25 36b8 f190 1f38 ad4a 7834
00000270: 3c5c 1838 7edb 00b9 1f94 4cb6 cef4 9eb7
00000280: ede7 6738 25bf daba dc03 9eba 00fe 79b9
00000290: 0351 49ba f5e8 033a 4070 c8ba 8f5b 66bb
000002a0: 7fd9 9239 d0cf 3e3a 4d1e 173a 55bf 05b8
000002b0: ba21 1fba eb78 13b9 36ec d1ba ee47 ccbb
000002c0: 4e3c aebb 3d36 90ba 9bfe 223a 0400 0000
000002d0: aa3b 51b9 0400 0000 4f59 b5bb 7cf5 94bc
000002e0: 19d8 aa39 715c dd39 a620 6839 4fc0 9539
000002f0: 29cb 8339 3e6c a23a 0d0f a63a 7a36 1a39
00000300: 1a7c afba 0400 0000 d238 5994 53cb c7b7
00000310: 9af7 aeba 37dd 9cb8 8387 0abb 822b cebb
00000320: 3ef2 19ba 1b48 06bb 67b9 b3ba 0759 fcb3
00000330: 313e ceba 9d40 01bb 1712 c5bb 9592 a6ba
00000340: abbc 8138 04a8 e1b8 e115 97ab 0d15 7db8
00000350: 5caf 1839 2381 1fb9 a784 603a 25f5 1339
00000360: ede3 d4bb 5928 8ebb 0dc5 24ba 44b4 f235
00000370: e7d4 03bb 932a 76bb 72da 23bc d00f 31bc
00000380: 045f 93b5 7554 13b8 09c2 ebb7 bc16 11b8
00000390: d89e 16ad 0400 0080 c284 d6b8 f745 5eb9
000003a0: eddb d0b7 9bbd 99b9 3e7e 1bb9 3a01 81b7
000003b0: b0e8 c238 9521 d4b7 a27d fcb7 5557 dbb8
000003c0: 9c09 c5ba 03bc 4fbb c29e fdb9 03ba 1bb9
000003d0: bca9 85b9 a9e0 5dba d6a2 fcbb 4540 a3bb
000003e0: c6bf 33ba 866c d4b9 42a6 04ba 2397 75b8
000003f0: 5a53 cfb9 8243 a5ba 6fae 6dba bd4a 87bb

exp_avg_sq f4 [230, 8]
1.0358092e-09 1.0151919e-05 4.6580676e-06 1.0237319e-06 8.331228e-06 9.8179014e-05 9.0487985e-05 0.00037871252
0.0005095544 5.3452066e-05 9.873066e-06 8.795985e-06 0.00018423644 0.00022858904 0.005169562 0.006165276
0.0 0.0 0.0 0.0 0.0 0.0 0.0 0.0
0.0006138358 0.00042131566 8.909726e-05 1.4502273e-05 5.2323223e-05 0.00044667846 0.0038975037 0.00096169364
0.00035145727 0.0002158907 4.9651884e-05 1.7042945e-05 4.7417463e-05 0.00022960799 2.2734743e-05 0.002887724
7.2181705e-05 2.3618e-06 8.716483e-06 7.126938e-07 5.848577e-05 0.0006037431 0.0008751944 0.0019654399
0.00047729546 0.00022073266 4.817697e-05 4.0969695e-07 8.683738e-06 0.0002829727 0.00060339115 0.0028961943
0.0002441551 8.19569e-05 2.2243023e-06 1.6414067e-05 9.8727e-05 0.0010837034 0.0014621868 0.003444279
0.0008137816 0.00043596057 8.7501154e-05 2.2745127e-05 0.00017647278 0.0008811587 0.0019982406 0.0021226052
0.0076204557 0.0048266826 0.00080708077 1.2899336e-05 0.00087832724 0.0036367418 0.0068373703 0.046386212
0.0028787479 0.00145947 0.0002732689 6.5261115e-06 0.0001050652 0.00087631325 0.0084738005 0.02454049
2.4293839e-05 1.49971565e-05 6.6731095e-06 6.441364e-07 7.81451e-06 0.00020237436 0.0002986747 0.00019574827
0.0001408739 7.414005e-05 3.2300988e-05 3.7082916e-06 3.1742202e-05 0.0006683682 0.00044306138 0.00060215336
0.00014875724 0.00025190946 0.00025880383 3.0139094e-05 0.00021967638 0.0046198037 0.006167804 0.016771354
0.00017107805 6.928807e-05 2.217792e-05 1.7385e-05 0.00016601311 0.00020864459 0.0026567949 0.009315792
0.00021155583 0.00012015456 3.0110246e-05 1.2004685e-05 2.4525201e-05 0.00010485378 3.521299e-07 0.00030466222
0.00028684986 0.00015643759 6.922183e-05 7.172085e-06 7.4278374e-05 0.00025492214 0.0014749583 0.007149457
0.0002469328 0.00020142278 3.4725315e-05 6.417199e-07 8.891462e-05 0.0008662427 0.0010243476 0.0005274892
2.461828e-05 1.7027543e-05 3.057357e-06 3.9719443e-30 4.9626633e-06 9.8810915e-06 0.00016475788 1.4234071e-06
2.5405114e-05 1.596507e-05 7.929396e-06 1.28686e-06 8.747331e-06 0.00022363166 0.00018514472 5.721163e-05
0.00020517688 0.00018694242 6.76477e-05 3.3614306e-06 2.36692e-05 0.000104893275 0.0007422613 0.0051454115
0.0005345204 0.00015723631 5.5059063e-05 1.0140832e-05 0.00013231012 0.0011581653 0.0051276465 0.006590033
0.001175153 0.0005663931 0.00016108817 1.0822159e-12 3.0358739e-05 2.5048632e-11 0.0039021354 0.009136964
0.00011915909 0.00011213443 2.9465844e-05 1.40845605e-05 3.9005605e-05 0.00058881514 0.00065715605 5.5508376e-06
0.00010018249 1.2469819e-15 1.3072289e-06 1.6306362e-06 8.4706866e-05 0.000101856924 0.0009797255 0.0015384626
0.00039355014 0.00035220844 6.695946e-05 2.5498048e-06 0.00010853251 0.0005362298 0.0016785254 0.00040058795
4.102402e-05 3.889306e-06 1.0356346e-07 1.4888545e-06 3.6395722e-05 0.00032625356 0.0004386759 0.00066690333
0.003604766 0.0017253805 0.00023477033 9.189298e-07 0.00021401826 0.0007866525 0.014261424 0.009439767
2.581407e-05 1.6406715e-05 2.8022832e-06 4.045104e-06 7.606539e-08 1.066848e-09 9.561773e-05 0.00025169217
0.000103851096 7.794009e-05 2.0414791e-05 1.1618728e-05 3.3670596e-05 0.00046506932 0.00019940452 0.00057913875
0.00058897666 0.0005585537 0.00022979017 6.4658984e-06 7.214521e-05 0.00042932772 0.004150261 0.001686114
0.00044015766 0.00032448932 6.9945614e-05 6.6679365e-07 3.8455095e-05 0.0003145237 0.00018064119 0.0038921419
00000000: 4c5c 8e30 2952 2a37 7f4c 9c36 2967 8935
00000010: 5ac6 0b37 75e5 cd38 5ec4 bd38 ef8d c639
00000020: 9e93 053a b831 6038 7fa4 2537 7892 1337
00000030: 982f 4139 67b1 6f39 6e65 a93b 1506 ca3b
00000040: 0000 0000 0000 0000 0000 0000 0000 0000
00000050: 0000 0000 0000 0000 0000 0000 0000 0000
00000060: d3e9 203a 08e4 dc39 bad9 ba38 ca4e 7337
00000070: a275 5b38 2b30 ea39 436d 7f3b 2b1a 7c3a
00000080: cc43 b839 b860 6239 4e41 5038 72f7 8e37
00000090: 1de2 4638 edc2 7039 7db6 be37 f83f 3d3b
000000a0: 4260 9738 6a7f 1e36 023d 1237 f24f 3f35
000000b0: 9e4e 7538 8344 1e3a 4d6d 653a 9cce 003b
000000c0: 833d fa39 7974 6739 a111 4a38 52f4 db34
000000d0: 5fb0 1137 f45b 9439 e52c 1e3a 14ce 3d3b
000000e0: f101 8039 47e0 ab38 3945 1536 f1b0 8937
000000f0: a80b cf38 0d0b 8e3a d9a6 bf3a 6ab9 613b
00000100: f553 553a a391 e439 d380 b738 cacc be37
00000110: 8d0b 3939 8ffd 663a eaf4 023b 681b 0b3b
00000120: 04b5 f93b 2629 9e3b 4692 533a 3a6a 5837
00000130: 8b3f 663a 6756 6e3b 050c e03b 78ff 3d3d
00000140: 60a9 3c3b b04b bf3a 8845 8f39 dffa da36
00000150: 7356 dc38 63b8 653a b2d5 0a3c 2309 c93c
00000160: 9fca cb37 4c9c 7b37 93e9 df36 b7e8 2c35
00000170: 111b 0337 7434 5439 7197 9c39 c741 4d39
00000180: 8db7 1339 a37b 9b38 ec7a 0738 f7db 7836
00000190: ee22 0538 6e35 2f3a b14a e839 d4d9 1d3a
000001a0: b8fb 1b39 b712 8439 10b0 8739 36d3 fc37
000001b0: ee58 6639 b961 973b 4a1b ca3b 1464 893c
000001c0: 6a63 3339 c04e 9138 b80a ba37 01d6 9137
000001d0: ce13 2e39 9bc7 5a39 9f1d 2e3b 43a1 183c
000001e0: 16d5 5d39 7dfb fb38 4395 fc37 bb67 4937
000001f0: 78bb cd37 f2e4 db38 5d0c bd34 12bb 9f39
00000200: 5664 9639 6509 2439 302b 9138 bea7 f036
00000210: e6c5 9b38 12a7 8539 6353 c13a fe45 ea3b
00000220: c276 8139 0435 5339 06a6 1138 a842 2c35
00000230: ac77 ba38 9014 633a 6743 863a 3347 0a3a
00000240: 5b83 ce37 5fd6 8e37 fe2c 4d36 071f a10e
00000250: f484 a636 f7c6 2537 dbc2 2c39 e50b bf35
00000260: 111d d537 baec 8537 7f08 0537 2cb8 ac35
00000270: 80c1 1237 ab7e 6a39 6823 4239 85f6 6f38
00000280: c024 5739 f905 4439 15de 8d38 f094 6136
00000290: 388d c637 26fa db38 5094 423a d79a a83b
000002a0: 0f1f 0c3a cddf 2439 38ef 6638 8b22 2a37
000002b0: babc 0a39 94cd 973a d105 a83b 34f1 d73b
000002c0: 9707 9a3a ff79 143a c7e9 2839 f04e 982b
000002d0: e5aa fe37 8154 dc2d f8ba 7f3b 34b3 153c
000002e0: 0de5 f938 b729 eb38 6b2d f737 ba4c 6c37
000002f0: f399 2338 b75a 1a3a ff44 2c3a 5541 ba36
00000300: 1119 d238 83b5 b326 0b74 af35 3cdc da35
00000310: a7a4 b138 059c d538 226a 803a 3da6 c93a
00000320: 6855 ce39 9ea8 b839 966c 8c38 501d 2b36
00000330: f39b e338 c691 0c3a f701 dc3a 0106 d239
00000340: 3511 2c38 e280 8236 9d66 de33 a7d4 c735
00000350: 9ca7 1838 030d ab39 15fe e539 20d3 2e3a
00000360: f03d 6c3b 2a26 e23a ae2c 7639 60ac 7635
00000370: 176a 6039 5b37 4e3a bfa8 693c 41a9 1a3c
00000380: 4b8b d837 27a1 8937 dc0e 3c36 2ebb 8736
00000390: 6459 a333 61a0 9230 6186 c838 8df5 8339
000003a0: a2ca d938 c473 a338 6e40 ab37 0fee 4237
000003b0: 8739 0d38 8cd4 f339 3e17 5139 58d1 173a
000003c0: 8e65 1a3a e76b 123a d4f3 7039 a5f5 d836
000003d0: aa4c 9738 6417 e139 eafe 873b 9900 dd3a
000003e0: f6c4 e639 3820 aa39 c4af 9238 b6fd 3235
000003f0: d84a 2138 a8e6 a439 806a 3d39 4e13 7f3b

exp_avg f4 [230]
0.00019139086 -0.004613163 0.0 -7.7650475e-06 -0.00248851 0.0003975264 -0.0019584813 0.0012773352
-0.0024945815 0.0035717278 0.006347596 -0.001305547 0.000270611 -0.0015538052 0.0047666105 -0.00030222477
0.0018139827 -0.00088083587 -2.3436884e-05 -2.2061407e-05 -0.000716123 -0.00048871065 -0.0019207038 0.00032968784
-0.0013388426 -0.0017076281 0.00013972717 -0.0019061192 -3.4579945e-05 2.7789161e-05 -0.002431117 -0.00042934995
-0.0038969165 0.0009737703 -0.0012928477 0.0047535477 0.00017403538 -2.884057e-05 0.00057493773 -9.806252e-05
-0.0016888874 -9.350599e-05 -0.00025179563 -0.004576999 0.0012254751 -0.00035391262 -0.000215494 0.013974539
-0.00086221343 -0.00093170616 0.0042654774 -0.003947194 -0.00095035974 0.00029810244 0.0010368063 -0.0002732127
-0.00061294733 0.0007626737 -7.915423e-05 -0.00076522626 -0.0009342427 -0.00060159806 -0.0010099342 -0.00019674466
-0.0005713957 2.5741227e-05 -0.00045042933 -0.0008840268 -0.0023919318 -0.00013995044 -0.00023430515 -0.0034171029
-2.9473114e-05 -4.942592e-06 -0.00014349642 0.0 -0.00057702087 0.0003322667 -0.0004925608 0.006498773
0.00015214924 -0.0023547306 0.0018361759 -0.0007235358 -0.0010964551 -0.0013934636 -0.00064216333 -0.00012512524
0.00027949293 -0.0037116224 -0.0036535172 -0.0008085747 -0.00034480394 -0.0015330642 0.0023376 0.00096487824
6e-45 -0.0006409669 -0.0014910034 0.00060612307 0.00064694753 0.00068791595 -3.4763263e-05 -0.0007945379
0.0018393438 -0.0014530609 0.0009577087 -0.0011897638 0.004284714 -0.00022692118 -0.00010337182 0.0019056634
-3.071866e-05 -0.00011240319 0.00031976204 -0.0025617627 -0.0016627959 -0.0013675215 -0.0018483915 -0.0027801506
-0.0014271137 -0.0007074524 0.00023747949 -0.0004897044 -0.0011941805 -3.676967e-05 -0.0021342093 -0.0014275316
-0.0004092148 -0.00027575545 9.992942e-06 -0.002266546 0.00097535586 -0.00033770344 -0.000466445 0.00032873516
-0.000903241 -0.005459871 0.00046101937 0.00042333786 0.0 -0.00083206926 -0.00021070823 -0.00014135936
-0.0016293188 -0.001884839 -0.0006018793 -0.00012329956 0.0021993157 3.5586952e-05 6e-45 0.00014468572
-0.0014901289 0.0032952263 0.0007492001 0.011790399 -8.426513e-05 0.0024048344 0.0010962533 -0.00010343756
-0.00081479334 -0.00074568606 0.0005642862 -0.00043474732 -0.001734616 0.00069417356 -0.0057628145 0.0013721413
6e-45 -0.0018913794 0.00017608445 -0.0020493518 8.6891385e-05 0.0015989369 -8.5034535e-06 -0.002138548
0.0008547074 -8.943658e-05 0.003428361 -0.0020277274 0.0009952468 -0.0021590083 0.0030172109 -0.0012185278
0.00031633867 0.0003351779 -0.00015896164 0.0029901345 -0.00094943703 -4.472912e-05 -3.334464e-05 0.0019713698
-0.0007032492 -0.0028467753 0.0057714796 -0.0034255378 -0.00026591602 2.194791e-05 0.001919629 -4.685717e-06
-0.0020220485 0.0 0.0 0.0047319583 0.00024438792 0.00015829332 0.0 0.00022180533
-0.0014429187 -0.0016093979 -0.00046029786 -0.00022412761 -0.00087335473 -0.0009148174 0.0012560866 -0.00024523065
0.0014125307 -0.0004692402 0.0003085434 0.00018089892 0.0025962 -0.002883203 0.0039012919 -0.00045194017
-0.005822927 0.0015446551 0.0016965092 0.0032254742 0.0004983135 -0.0011219141
00000000: 18b0 4839 042a 97bb 0000 0000 a046 02b7
00000010: 4516 23bb 176b d039 dd59 00bb 426c a73a
00000020: 227c 23bb a613 6a3b 7fff cf3b e31e abba
00000030: cbe0 8d39 0da9 cbba 3a31 9c3b ec73 9eb9
00000040: 29c3 ed3a e5e7 66ba 539a c4b7 8310 b9b7
00000050: 33ba 3bba d11c 00ba 20c0 fbba f4d9 ac39
00000060: 1a7c afba 7ed2 dfba ba83 1239 bfd6 f9ba
00000070: ef09 11b8 c51c e937 6053 1fbb 601a e1b9
00000080: 6963 7fbb 9e44 7f3a c574 a9ba a6c3 9b3b
00000090: 447d 3639 a7ee f1b7 6bb7 163a eaa6 cdb8
000000a0: a85d ddba a518 c4b8 7003 84b9 a7fa 95bb
000000b0: 1fa0 a03a 598d b9b9 3bf6 61b9 77f5 643c
000000c0: 2a06 62ba be3d 74ba 6bc5 8b3b 7757 81bb
000000d0: 9021 79ba a24a 9c39 72e5 873a fd3d 8fb9
000000e0: 33ae 20ba 2aee 473a 9bff a5b8 7799 48ba
000000f0: f7e7 74ba 90b4 1dba c55f 84ba 3e4d 4eb9
00000100: b7c9 15ba ddee d737 9a27 ecb9 09be 67ba
00000110: f5c1 1cbb a9bf 12b9 cfaf 75b9 79f1 5fbb
00000120: 083d f7b7 8bd8 a5b6 8777 16b9 0000 0000
00000130: 3743 17ba 1534 ae39 321f 01ba a9f3 d43b
00000140: 408a 1f39 d351 1abb d7ab f03a aaab 3dba
00000150: eeb6 8fba e1a4 b6ba da56 28ba 0d34 03b9
00000160: e888 9239 b13e 73bb d96f 6fbb 88f6 53ba
00000170: cdc6 b4b9 19f1 c8ba 6c32 193b e2ef 7c3a
00000180: 0400 0000 8f06 28ba c66d c3ba 3be4 1e3a
00000190: ea97 293a 4255 343a c5ce 11b8 8948 50ba
000001a0: 2316 f13a a274 beba be0e 7b3a d9f1 9bba
000001b0: c966 8c3b b1f1 6db9 53c9 d8b8 74c7 f93a
000001c0: e9d7 00b8 01ba ebb8 bca5 a739 3fe3 27bb
000001d0: 2cf2 d9ba 683e b3ba ba45 f2ba 3033 36bb
000001e0: fd0d bbba 5474 39ba ea03 7939 825f 00ba
000001f0: 0c86 9cba 2239 1ab8 17de 0bbb 031c bbba
00000200: e18b d6b9 4593 90b9 5ca7 2737 558a 14bb
00000210: 06af 7f3a ca0d b1b9 308d f4b9 165a ac39
00000220: 7ac7 6cba b8e8 b2bb f9b4 f139 72f3 dd39
00000230: 0000 0000 391f 5aba 8ff1 5cb9 dd39 14b9
00000240: de8e d5ba b40c f7ba 70c7 1dba f949 01b9
00000250: 6522 103b 3343 1538 0400 0000 c7b6 1739
00000260: 6e50 c3ba b9f4 573b f865 443a 852c 413c
00000270: 7fb7 b0b8 6d9a 1d3b 28b0 8f3a 9eec d8b8
00000280: db97 55ba 257a 43ba 9bec 133a ccee e3b9
00000290: 0e5c e3ba 33f9 353a fed5 bcbb 6cd9 b33a
000002a0: 0400 0000 29e8 f7ba 4fa3 3839 6b4e 06bb
000002b0: 7539 b638 6b93 d13a 0eaa 0eb7 e226 0cbb
000002c0: 710e 603a e68f bbb8 5aae 603b 9fe3 04bb
000002d0: f172 823a 267e 0dbb 66bc 453b 02b7 9fba
000002e0: 42da a539 d1ba af39 f1ae 26b9 22f6 433b
000002f0: a4e3 78ba 879b 3bb8 89db 0bb8 1932 013b
00000300: 415a 38ba f790 3abb ae1e bd3b fd7e 60bb
00000310: a56a 8bb9 c71c b837 109c fb3a 013a 9db6
00000320: 5884 04bb 0000 0000 0000 0000 8b0e 9b3b
00000330: 3121 8039 8afb 2539 0000 0000 6a94 6839
00000340: 5120 bdba 6ff2 d2ba 2254 f1b9 cc03 6bb9
00000350: d8f1 64ba 5bd0 6fba 46a3 a43a 4d92 80b9
00000360: aa24 b93a 5b04 f6b9 fec3 a139 afaf 3d39
00000370: 0225 2a3b 1ff4 3cbb d1ac 7f3b 62f2 ecb9
00000380: 41ce bebb 0676 ca3a 675d de3a 7a62 533b
00000390: 41a1 023a 310d 93ba
