save/new3.pt (torch_old, 357690 bytes, 18 tensors)

fc1.weight f4 [230, 6]
0	0x3b06534b	0.0020496424
1	0x3e0b1d2b	0.13585345
2	0xbf9b666b	-1.214063
3	0x3c07c14e	0.0082858335
4	0xbd25a8ba	-0.040444113
5	0xbba6144f	-0.005068339
6	0xbca926a6	-0.020648312
7	0x3d265f79	0.040618394
8	0x3f128dd2	0.5724765
9	0xbcdacc16	-0.026708644
10	0xbf1fe1f7	-0.6245417
11	0xbe710a8d	-0.23539181
12	0x3e37409b	0.17895739
13	0x3ed65af1	0.41866258
14	0xbf098ec4	-0.5373347
15	0xbc52d25e	-0.012867538
16	0x3b5a159e	0.0033277045
17	0xbef3e4dc	-0.47635543
18	0xbce7ca51	-0.028294714
19	0xbe506cfe	-0.20354077
20	0xbe5b31c7	-0.21405707
21	0x3d279d78	0.04092166
22	0x3dface35	0.12246362
23	0xbf134763	-0.575308
24	0x3e77d55d	0.24202485
25	0xbf057108	-0.52125597
26	0x3c93571e	0.017985877
27	0x3e2ca264	0.16858822
28	0x3a8d8f06	0.0010800071
29	0x3c9a18d2	0.018810663
30	0xbe339ccd	-0.17540284
31	0xbf019471	-0.5061713
32	0x3d070581	0.032964233
33	0x3e75b50b	0.23994844
34	0xbe248f51	-0.16070296
35	0xbea5215e	-0.3225202
36	0xbe333e94	-0.1750434
37	0xbea46705	-0.32109848
38	0x3cc87925	0.024471829
39	0xbe159336	-0.14606938
40	0x3dddfac8	0.10838848
41	0x3e15c681	0.14626504
42	0xbca5b1f3	-0.020226454
43	0xbe3a6cf2	-0.18205622
44	0xbe2fea27	-0.17179166
45	0xbe354cb4	-0.17705041
46	0x3cbf2337	0.023332221
47	0xbed8aa9f	-0.42317674
48	0xbf8cee87	-1.1010293
49	0x3e1546eb	0.14577834
50	0x3bc4796a	0.005995919
51	0xba39aa81	-0.0007082597
52	0xbe59c800	-0.212677
53	0x3e24f59d	0.16109319
54	0x3e1da22e	0.15393898
55	0xbe4fc5fa	-0.20290366
56	0xbe441dff	-0.19152068
57	0xbd8eb803	-0.06968691
58	0x3e914f1d	0.2838067
59	0x3d038c3f	0.03211617
60	0xbddb3260	-0.10702968
61	0x3eb81330	0.3595214
62	0x3e0347a8	0.12820303
63	0x3d313f78	0.04327342
64	0xbe4de5e5	-0.20107229
65	0xbd9b3da0	-0.075801134
66	0xbea4bf6d	-0.32177296
67	0x3e23d7fe	0.16000363
68	0x3e0dae52	0.13836029
69	0xbe198417	-0.14991795
70	0x3ec36870	0.38165617
71	0xbd2d7c81	-0.042355064
72	0xbadc8f69	-0.0016827408
73	0xbedcb2e5	-0.43105236
74	0xbde09788	-0.10966402
75	0xbe14ab9b	-0.14518587
76	0xbbca0af0	-0.0061658546
77	0xbe179890	-0.14804292
78	0xbea6d618	-0.32585216
79	0x3ec38156	0.38184613
80	0xbeb439aa	-0.35200244
81	0xbe25e3e7	-0.16200219
82	0xbd9ec3a0	-0.07752156
83	0xbe5be80d	-0.21475239
84	0xbca64915	-0.02029852
85	0xbf187bfe	-0.595642
86	0xbe87e2c6	-0.26540202
87	0xbc06b543	-0.008221927
88	0xbefdc5fc	-0.49565113
89	0x3e1d082b	0.15335147
90	0x3e1ccf3e	0.15313432
91	0xbf034f5e	-0.5129298
92	0xbe6a3b6d	-0.22874232
93	0xbda251d8	-0.07925767
94	0xbe10e463	-0.14149623
95	0xbd89dd13	-0.0673162
96	0xbedeb73c	-0.43499172
97	0x3f12e9ac	0.57387805
98	0x3ccd7da9	0.025084333
99	0x3ed8bd83	0.42332086
100	0x3d0bf0bd	0.034165133
101	0xbeeabeee	-0.45848793
102	0xbf935d77	-1.1512898
103	0xbe5c0c14	-0.21488982
104	0xbe7b94c5	-0.2456847
105	0x3defbeb3	0.11706295
106	0x3e4586d8	0.1928972
107	0x3d0a3fe2	0.03375233
108	0xbde452c8	-0.11148602
109	0x3df84346	0.121222064
110	0xbe891968	-0.26777196
111	0x3da7d798	0.08195418
112	0xbae21156	-0.0017247598
113	0x3e0f65a6	0.1400362
114	0x3eb850d6	0.35999173
115	0xbe219d7d	-0.15782733
116	0xbc2872d0	-0.01028128
117	0xbe160c52	-0.14653137
118	0xbf65825f	-0.89652056
119	0xbab70322	-0.0013962726
120	0xbdf459d6	-0.11931197
121	0xbe5d91ff	-0.21637724
122	0x3ee96617	0.455857
123	0x3e21539e	0.15754554
124	0xbe69c8ab	-0.22830455
125	0xbeb1b78d	-0.3471035
126	0xbf973be5	-1.1815153
127	0x3d4cd5db	0.050008636
128	0xbe15e17d	-0.14636798
129	0x3e0f65ae	0.14003631
130	0xbb0a107e	-0.002106696
131	0x3e255be8	0.1614834
132	0xbe1c2de0	-0.15251875
133	0x3e1118b8	0.14169586
134	0x3d3bb6a8	0.04582849
135	0xbeae119c	-0.3399781
136	0xbe9e5952	-0.3092752
137	0xbec76374	-0.38943064
138	0xbe2d3b58	-0.16917169
139	0xbe015c38	-0.12632835
140	0xbe43fef3	-0.19140224
141	0xbe67d56a	-0.22640005
142	0x3edcc105	0.43116012
143	0xbd83e58b	-0.06440266
144	0xbf845cb2	-1.0340788
145	0xbcfc67ed	-0.030811274
146	0x3d526fcb	0.051376145
147	0x3c6d7574	0.014493335
148	0xbe0e201c	-0.13879436
149	0x3e14b8db	0.14523642
150	0x3eed2c16	0.46322697
151	0xbe446261	-0.19178154
152	0xbeca1965	-0.394725
153	0x3c9e9872	0.019359801
154	0xbf38ca33	-0.7218353
155	0x3c4adebd	0.0123822065
156	0x3dc3165f	0.09525751
157	0xbe11ac92	-0.14225987
158	0xbe99ac85	-0.30014434
159	0x3d8ee615	0.069774784
160	0xbe09ac87	-0.1344472
161	0x3df86662	0.12128903
162	0x3ee51f2f	0.44750354
163	0x3cc2f69e	0.023799237
164	0x3d8da67b	0.06916519
165	0xbdd0c574	-0.10193911
166	0xbf3c4264	-0.73538804
167	0xbca0e991	-0.019642623
168	0x3d8ebb19	0.0696928
169	0xbd487320	-0.048937917
170	0xbf3e5785	-0.74352294
171	0x3dfbaf98	0.12289351
172	0x3de20c56	0.11037509
173	0x3c91ddc3	0.01780594
174	0xbe4be1fc	-0.19910425
175	0xbeccade9	-0.39976433
176	0xbd0816c0	-0.03322482
177	0x3e9c1414	0.30484068
178	0xbea514c6	-0.3224241
179	0xbdfe28e8	-0.12410146
180	0x3b505c29	0.0031793213
181	0x3d2ff459	0.042957637
182	0xbf8b9d22	-1.0907328
183	0x3d9b542c	0.07584414
184	0xbc2b68a0	-0.010461956
185	0x3af8feab	0.0018996795
186	0xbe7e9e82	-0.24865153
187	0x3dedd148	0.11612183
188	0xbe6086bf	-0.21926402
189	0xbe19b402	-0.15010074
190	0xbe72dec3	-0.2371779
191	0xbeb9281c	-0.36163414
192	0x3be26680	0.0069091916
193	0x3e3c88c4	0.18411547
194	0xbec85d6a	-0.3913377
195	0x3d8e0e0c	0.06936273
196	0xbe9a82f6	-0.3017804
197	0xbea6019f	-0.32423112
198	0xbd4eed51	-0.05051929
199	0xbe949edb	-0.29027447
200	0xbde16bc4	-0.11006883
201	0xbd9c2574	-0.07624331
202	0x3e9cc3d8	0.30618167
203	0xbc8d8f09	-0.017280119
204	0x3e5cd59e	0.21565863
205	0xbf24bf07	-0.64353985
206	0x3e990402	0.2988587
207	0xbce2d862	-0.02769107
208	0x3d4c1224	0.049821988
209	0xbeefcf24	-0.46837723
210	0xbb19cde8	-0.0023468677
211	0xbe5d9aab	-0.21641032
212	0x3e9527ce	0.2913193
213	0x3d1a8f04	0.037734047
214	0x3e8ad1a3	0.27113065
215	0x3c1594d0	0.009129718
216	0xbf548363	-0.8301298
217	0x3e5eb28a	0.21747795
218	0xbe695339	-0.22785653
219	0x3c382cc4	0.011241142
220	0xbe9d77bf	-0.30755422
221	0x3dd953c5	0.10611681
222	0xbbb4cada	-0.005517346
223	0x3d2d4aa6	0.04230752
224	0xbe21ccdc	-0.15800804
225	0x3b22c616	0.0024837307
226	0xbd81e8f7	-0.06343263
227	0x3e0ed146	0.13947019
228	0x3d7f6f48	0.062361985
229	0xbecadd24	-0.39621842
230	0xbe4b61b8	-0.19861495
231	0x3caa9568	0.020823196
232	0xbe545c3a	-0.20738307
233	0x3e0ed965	0.13950117
234	0xbdb946aa	-0.09046681
235	0xbea32c1e	-0.31869596
236	0x3f10f703	0.5662691
237	0xbde35bbf	-0.111014836
238	0xbf432136	-0.7622255
239	0xbd09ad4f	-0.033612546
240	0xbca608d3	-0.02026788
241	0x3e9a956b	0.30192122
242	0xbf3b4ffc	-0.7316892
243	0xbdee8af5	-0.11647598
244	0xbcb80c67	-0.022466851
245	0xbbfaafde	-0.0076503595
246	0xbe7555ec	-0.23958558
247	0xbee4442d	-0.44583264
248	0xbdead4f0	-0.11466396
249	0xbdaae304	-0.08344081
250	0x3e306371	0.17225434
251	0xbee70e7b	-0.45128235
252	0xbe886e1c	-0.26646507
253	0xbe327222	-0.1742635
254	0xbddbaffe	-0.10726927
255	0x3f04133c	0.5159185

fc1.bias f4 [230]
0	0x3ebda436	0.37039346
1	0x3db17797	0.08665388
2	0xbe08dcf1	-0.13365532
3	0xbe759d21	-0.23985721
4	0xbf03be53	-0.51462287
5	0x3d54f7a4	0.05199398
6	0xbf19ae5e	-0.6003169
7	0xbd2a770d	-0.041617442
8	0xbe62bff3	-0.22143535
9	0xbf600fc8	-0.8752408
10	0xbeaf8666	-0.34282225
11	0xbe94e977	-0.2908437
12	0x3d0f60c2	0.035004385
13	0xbe3bcbe2	-0.18339494
14	0xbf075404	-0.5286257
15	0x3e996da7	0.2996647
16	0xbe192480	-0.1495533
17	0x3cd98e02	0.026556972
18	0xbf445ae7	-0.76701206
19	0xbda21011	-0.07913221
20	0x3ebe5fab	0.37182364
21	0xbf1ad09c	-0.6047456
22	0xbec3a83c	-0.3821429
23	0xbe970d82	-0.29502493
24	0xbefc7a27	-0.49311945
25	0xbee02588	-0.43778634
26	0xbf619530	-0.8811827
27	0xbe9ab37b	-0.30215058
28	0xbe40b238	-0.18817985
29	0xbe953fd6	-0.29150265
30	0x3ea61440	0.32437325
31	0xbeb323a8	-0.3498814
32	0xbe135dd4	-0.14391261
33	0xbf1f5717	-0.62242264
34	0xbe0ce343	-0.13758568
35	0xbf345606	-0.7044376
36	0xbcb89216	-0.022530597
37	0xbf5a7d12	-0.8534709
38	0xbf33d52b	-0.70247144
39	0x3ed18af8	0.40926337
40	0x3e7a6b63	0.24455027
41	0xbe7c7f67	-0.24657975
42	0xbd9f274b	-0.077711664
43	0xbeba8c44	-0.3643514
44	0x3ebb98fb	0.36640152
45	0xbcdfabe2	-0.02730364
46	0xbef08029	-0.46972778
47	0x3e21ae3d	0.15789123
48	0x3e9712bb	0.29506478
49	0x3f02634a	0.50932753
50	0x3f054de1	0.5207196
51	0x3ed19365	0.40932766
52	0x3a0c2f4c	0.0005347624
53	0x3ebbbbd7	0.36666748
54	0x3c859945	0.016308436
55	0xbf1b4c76	-0.60663545
56	0xbecc556e	-0.39908928
57	0xbec4b238	-0.3841722
58	0x3e885589	0.26627758
59	0xbd092ddf	-0.03349101
60	0xbe8d12bc	-0.27553356
61	0xbd6ecfca	-0.05830363
62	0xbebb45f7	-0.36576816
63	0xbf098e4f	-0.5373277
64	0x3e4cfe43	0.20018868
65	0x3e823615	0.25431886
66	0xbeec32c9	-0.46132496
67	0x3ecf28c6	0.40460795
68	0x3f25377b	0.6453778
69	0xbed1e35a	-0.40993768
70	0xbf166ede	-0.5876292
71	0xbf02e7e8	-0.5113511
72	0xbdc48eca	-0.09597547
73	0x3e15f74c	0.14645118
74	0xbf05ffff	-0.52343744
75	0xbe9e788a	-0.3095134
76	0xbe048d40	-0.12944508
77	0x3e057483	0.13032727
78	0x3ea6a6f8	0.32549262
79	0xbeae247e	-0.34012216
80	0xbeab8f72	-0.33507878
81	0xbd6afe72	-0.057371564
82	0xbde08aa4	-0.109639436
83	0x3da920ab	0.08258184
84	0x3f1123bd	0.5669516
85	0xbea0f630	-0.31437826
86	0xbe815590	-0.25260592
87	0xbd210086	-0.03930714
88	0x3e1edaad	0.15513106
89	0xbec38f51	-0.3819528
90	0x3e29d9a8	0.16586936
91	0xbe558e71	-0.20855118
92	0x3e0fb4ab	0.14033763
93	0xbe71f91b	-0.23630182
94	0x3df92f9c	0.12167284
95	0xbe817a4f	-0.25288627
96	0xbe48f045	-0.19622906
97	0xbd596658	-0.05307612
98	0xbda2adcf	-0.079433076
99	0x3ef3e830	0.47638083
100	0x3e6bd4cd	0.23030396
101	0x3e4ae44d	0.19813652
102	0x3ea25975	0.31708875
103	0x3d7f3227	0.06230369
104	0xbebce46c	-0.36893022
105	0xbeeee326	-0.46657676
106	0x3e25e38a	0.1620008
107	0x3e9e81f7	0.3095853
108	0xbf3aa1a7	-0.7290291
109	0xbe36cd9b	-0.1785187
110	0xbf582cec	-0.84443545
111	0x3e086ef0	0.1332357
112	0x3ea8d1c4	0.32972538
113	0xbe68ddba	-0.22740832
114	0x3eb8fe8d	0.36131707
115	0x3e576052	0.21032837
116	0x3eaa1d38	0.33225417
117	0x3f108bf2	0.5646354
118	0xbe5f3b58	-0.21799982
119	0xbf085452	-0.5325366
120	0xbe990fc3	-0.29894838
121	0xbf1cc3db	-0.6123635
122	0x3dd0ed3d	0.102014996
123	0x3e8a9161	0.2706404
124	0xbebbc814	-0.36676085
125	0xbe92033f	-0.28518102
126	0xbe24877c	-0.16067308
127	0xbe83a7f6	-0.25714082
128	0xbd12f34e	-0.035876565
129	0xbe78d21e	-0.24298903
130	0x3b828e45	0.003984245
131	0x3eaa4b5c	0.3326062
132	0xbe80876a	-0.25103313
133	0xb886f719	-6.4356434e-05
134	0xbf1de112	-0.61671555
135	0xbe506c12	-0.20353726
136	0xbe7ce4e9	-0.24696697
137	0xbf29532f	-0.66142553
138	0xbe3e45fb	-0.18581383
139	0xbea10a74	-0.31453288
140	0xbecc459e	-0.39896864
141	0xbe472286	-0.19446763
142	0xbdf9f6d9	-0.122052856
143	0xbe273be0	-0.16331434
144	0xbe00cc42	-0.12577918
145	0xbe99ee21	-0.3006449
146	0x3f176657	0.59140533
147	0xbdd9c1d7	-0.10632675
148	0xbd32344b	-0.0435069
149	0x3ec1ef11	0.37877706
150	0x3ec3fc44	0.382784
151	0xbf42fbc7	-0.7616543
152	0x3ee2acd2	0.44272476
153	0xbe873fb2	-0.26415783
154	0xbd19eb05	-0.037577648
155	0xbf3756be	-0.71616733
156	0xbf2f8dd6	-0.685758
157	0x3e340b9f	0.17582558
158	0x3e945f62	0.2897902
159	0xbda814d6	-0.08207099
160	0xbd8a9262	-0.067662016
161	0x3e061404	0.13093573
162	0x3e99fe9d	0.30077067
163	0xbe8d5f26	-0.27611655
164	0x3e7b3d0d	0.24535008
165	0x3f14283e	0.57873905
166	0x3e9f0b93	0.31063518
167	0x3edd91ac	0.432752
168	0xbee1f288	-0.4413035
169	0xbee4b28a	-0.44667464
170	0xbd886325	-0.06659535
171	0x3ed55835	0.4166886
172	0x3e3cf25d	0.18451829
173	0x3df860c2	0.1212783
174	0x3f07e815	0.53088504
175	0xbf566b56	-0.8375753
176	0x3e36da10	0.17856622
177	0xbf41bcb6	-0.75678575
178	0x3d205f6f	0.039153513
179	0x3e7e3527	0.24824964
180	0xbeecdde9	-0.46263054
181	0xbf3ced1a	-0.7379929
182	0xbe9ca4d7	-0.30594513
183	0xbdffebaa	-0.12496121
184	0x3ec22860	0.3792143
185	0xbe0f736f	-0.14008878
186	0x3d72766b	0.059194963
187	0x3f0b3387	0.543755
188	0xbd6931e8	-0.05693236
189	0x3db5c88c	0.08876142
190	0xbf2b70d5	-0.66969043
191	0x3e7cd171	0.2468927
192	0x3ef78312	0.48342186
193	0x3d5d6f11	0.054061
194	0x3eb6ac08	0.35678124
195	0x3d948f4d	0.07253895
196	0x3e556876	0.2084063
197	0x3eb5769f	0.35442063
198	0x3ecfd23d	0.40590087
199	0xbf57a826	-0.8424095
200	0xbe0c4c86	-0.13701066
201	0xbe77610d	-0.24158116
202	0xbe27dba7	-0.16392384
203	0xbe8f5d1d	-0.28000727
204	0x3e7a6c57	0.24455391
205	0xbf033b77	-0.5126261
206	0xbef9933c	-0.48745143
207	0xbf1f594e	-0.62245643
208	0x3eaf30cb	0.34216914
209	0xbe00b9ac	-0.12570828
210	0x3ebc4925	0.36774555
211	0x3ebda41f	0.37039277
212	0xbeae1f5f	-0.3400831
213	0xbf009824	-0.5023215
214	0x3ea0fb44	0.314417
215	0x3e191afe	0.14951703
216	0xbeadd058	-0.33948016
217	0x3eebc976	0.4605214
218	0xbebc8d53	-0.36826572
219	0x3c4cd839	0.012502723
220	0xbe820826	-0.25396842
221	0x3e3ee043	0.18640237
222	0x3e42dc92	0.19029453
223	0xbf0517a9	-0.5198923
224	0x3e0570e8	0.13031352
225	0xbeeb2f30	-0.4593444
226	0x3e1fbe82	0.15600017
227	0x3e92946b	0.2862886
228	0xbf27acb6	-0.6549791
229	0xbf38d68c	-0.7220237

fc2.weight f4 [120, 230]
0	0xbed6a130	-0.4191985
1	0x3e8ca4a5	0.27469364
2	0x3ec59914	0.38593352
3	0x3d313ad4	0.043268993
4	0xbe57cc32	-0.21073988
5	0x3e00cf7a	0.12579146
6	0x3d471e4d	0.04861288
7	0x3df76be0	0.120811224
8	0xbd207f1e	-0.03918373
9	0xbf17273f	-0.5904426
10	0xbd81f929	-0.06346352
11	0x3e1db860	0.15402365
12	0xbd14455b	-0.036198955
13	0xbd49a1f6	-0.049226724
14	0x3e2e09b6	0.16995892
15	0xbdadd1d1	-0.08487285
16	0x3e049169	0.12946095
17	0x3e219329	0.15778793
18	0x3da4d9df	0.08049368
19	0xbe30bddc	-0.17259926
20	0x3e174fe4	0.1477657
21	0x3d1d7b17	0.038447466
22	0x3d527940	0.051385164
23	0xbe8e5e34	-0.27806246
24	0x3d423e21	0.047422532
25	0x3ed88fe6	0.42297286
26	0xbdaf1f1c	-0.085508555
27	0xbce517da	-0.027965475
28	0xbeb3c890	-0.35113955
29	0x3d09c772	0.03363747
30	0xbf127bea	-0.5722033
31	0x3d296396	0.04135474
32	0x3cd56efc	0.026053898
33	0xbe2f0d4c	-0.17094916
34	0x3dbd22a0	0.0923512
35	0x3d0ebca0	0.034847856
36	0x3decae51	0.11556686
37	0x3d045047	0.03230312
38	0x3e45d9ff	0.1932144
39	0x3ebeda50	0.37275934
40	0xbe786295	-0.24256356
41	0x3cb1a574	0.02168534
42	0x3f04213f	0.5161323
43	0xbdf5e188	-0.12005907
44	0xbf1d2d6d	-0.6139744
45	0xbe0d79f9	-0.1381606
46	0xbebc5a36	-0.36787575
47	0x39bc68b2	0.00035936158
48	0x3cbaf69f	0.022822676
49	0x3e5f0bb5	0.2178181
50	0xbb5385da	-0.0032275827
51	0x3d9c0dea	0.076198414
52	0x3e928491	0.28616765
53	0x3da6250c	0.08112535
54	0x3bc2bb72	0.0059427554
55	0xbe1f5841	-0.1556101
56	0xbd25044e	-0.04028731
57	0xbf017463	-0.5056822
58	0xbf069f8f	-0.5258722
59	0x3e675677	0.22591577
60	0x3d87c835	0.06629983
61	0x3e33f1a2	0.17572644
62	0x3df55cf7	0.11980622
63	0xbcd0bc9a	-0.025480557
64	0xbe0c8d74	-0.13725835
65	0xbdd182ae	-0.10230003
66	0x3e17a087	0.1480733
67	0x3dc25455	0.09488741
68	0xbe3f6342	-0.18690208
69	0xbe31fb7b	-0.17381088
70	0xbdd12859	-0.10212774
71	0x3da60c46	0.0810781
72	0xbcb494f7	-0.022043688
73	0xbc0db5bd	-0.008649287
74	0xbe7746ee	-0.24148151
75	0x3c2ba480	0.010476232
76	0x3cf5a834	0.029987432
77	0x3dc9edc9	0.09859807
78	0xbea1e88b	-0.3162273
79	0xbd885643	-0.06657078
80	0xbd933628	-0.07188064
81	0x3efdb0bb	0.49548897
82	0xbd55d451	-0.052204434
83	0xbcf38176	-0.029724818
84	0x3cef10a1	0.029182734
85	0x3e15774d	0.14596291
86	0xbd806f17	-0.06271189
87	0xbe997a17	-0.2997596
88	0xbda1d3ba	-0.07901712
89	0x3d8927d6	0.06697051
90	0x3d8bd28f	0.0682727
91	0xbc25f084	-0.010128144
92	0x3e131cf1	0.14366509
93	0x3d2306c7	0.039801385
94	0x3e21eb87	0.15812503
95	0xbc9a05c7	-0.018801583
96	0xbcbf7786	-0.023372423
97	0xbe6d11fc	-0.23151392
98	0x3d329fbc	0.043609366
99	0x3e8ac89b	0.27106175
100	0x3e8c07f7	0.27349827
101	0xbd646ec6	-0.055769704
102	0xbe48b031	-0.19598462
103	0x3e223ccf	0.15843509
104	0xbd372021	-0.044708375
105	0xbee86e7b	-0.4539679
106	0x3e24a273	0.16077594
107	0xbcd74a61	-0.026280584
108	0xbeaf2f1a	-0.34215623
109	0x3ec5f7ec	0.38665712
110	0x3d8f7140	0.070040226
111	0x3ca20cdc	0.019781522
112	0x3df665f1	0.120311625
113	0x3d148a09	0.036264453
114	0xbeb681bb	-0.35645851
115	0xbf293b91	-0.66106516
116	0x3e30e22b	0.17273776
117	0x3e094a70	0.13407302
118	0x3da7aaa5	0.08186845
119	0xbe0069a4	-0.12540299
120	0x3defcd4d	0.1170908
121	0xbd6726e9	-0.056433592
122	0x3e0d449b	0.13795702
123	0x3e345fb2	0.1761463
124	0x3e0c03ff	0.136734
125	0xbd540ce6	-0.051770113
126	0x3cd652ae	0.026162472
127	0x3e97440d	0.29544106
128	0x3d259d17	0.040433016
129	0xbcf1b176	-0.029503565
130	0x3e69823c	0.22803587
131	0xbd653979	-0.055963013
132	0x3bf53c07	0.0074839625
133	0x3d89a012	0.06719984
134	0x3d418cf9	0.047253583
135	0xbd2df583	-0.042470466
136	0x3e5c0c8f	0.21489166
137	0xbed74549	-0.42045048
138	0x3dcc3854	0.09971681
139	0x3de0e2e0	0.10980773
140	0x3d69fb81	0.05712462
141	0xbe205045	-0.1565562
142	0x3edbf6c6	0.4296171
143	0x3e4146f5	0.18874724
144	0x3e0e6a00	0.13907623
145	0xbcd29d68	-0.025709823
146	0x3d252862	0.040321715
147	0xbefe7e08	-0.4970553
148	0x3d2a4a6c	0.04157488
149	0xbdd9e140	-0.10638666
150	0xbccb5884	-0.024822481
151	0x3e444a98	0.1916908
152	0x3cd9a209	0.026566522
153	0xbdc3a9a8	-0.09553844
154	0xbcacd5ef	-0.021098105
155	0x3d76c5e4	0.060247317
156	0xbe1b354b	-0.15157048
157	0xbd0dcabf	-0.034617182
158	0xbcaf0785	-0.02136589
159	0xbd57c150	-0.05267459
160	0xbe473baf	-0.19456361
161	0x3d973262	0.07382657
162	0x3d0b5b17	0.034022417
163	0x3d750158	0.059815735
164	0xbc83032a	-0.01599272
165	0xbd465e35	-0.048429687
166	0xbe9135b2	-0.2836128
167	0x3e1c3a7b	0.15256684
168	0xbe7966ec	-0.24355668
169	0xbcaecee3	-0.021338886
170	0x3d148eb7	0.036268916
171	0x3dbcdc7c	0.092217416
172	0x3ee84e41	0.45372203
173	0x3d1eee79	0.038801644
174	0xbe36f2c3	-0.17866044
175	0xbda8c52f	-0.08240735
176	0xbdf53863	-0.119736455
177	0x3e1d42ba	0.15357485
178	0x3d6624af	0.056187328
179	0x3e934bea	0.28768855
180	0xbde9dac5	-0.1141868
181	0x3e218193	0.15772085
182	0x3e19defd	0.1502647
183	0x3e49bd09	0.19701017
184	0x3d9dc9fa	0.077045396
185	0xbe43f48b	-0.19136254
186	0x3e22815a	0.15869656
187	0x3cbae7d2	0.022815619
188	0x3e393cc6	0.1808959
189	0x3d587475	0.052845437
190	0xbe733f83	-0.23754697
191	0x3dc23da2	0.09484412
192	0x3e7b2638	0.24526298
193	0x3c08207e	0.008308528
194	0xbd62a742	-0.05533529
195	0x3d364031	0.04449481
196	0x3e712281	0.23548318
197	0x3dcfe6dc	0.10151455
198	0xbefc82e8	-0.49318624
199	0xbefa7f09	-0.48925045
200	0x3f02686d	0.5094059
201	0x3f14b3ef	0.58087057
202	0xbe59d9bc	-0.21274465
203	0xbe37e66b	-0.17958991
204	0xbd174cc9	-0.036938462
205	0xbe781a1a	-0.24228707
206	0xbe1506fe	-0.14553449
207	0xbdff7871	-0.12474144
208	0x3c6ecf87	0.014575846
209	0xbd086e52	-0.033308335
210	0x3cb6b2ce	0.022302058
211	0x3cc969f1	0.02458665
212	0x3d132652	0.035925217
213	0x3d33c16b	0.04388563
214	0xbd7eb2be	-0.06218218
215	0xbdff5945	-0.12468199
216	0xbd6ae5aa	-0.05734793
217	0xbd083d69	-0.03326169
218	0xbebce667	-0.36894533
219	0xbd3d7e3f	-0.046262976
220	0x3ec087a9	0.376035
221	0xbe3cc1ca	-0.184333
222	0xbe83d19a	-0.2574585
223	0xbdccb4cc	-0.09995422
224	0x3e0699c0	0.13144588
225	0x3d2e590b	0.042565387
226	0x3dda0624	0.106457025
227	0x3e366372	0.17811373
228	0xbcc51ffc	-0.024063103
229	0x3e50f058	0.20404184
230	0xbf405061	-0.7512265
231	0x3ec5aca3	0.38608274
232	0xbe2d5ee9	-0.16930737
233	0x3d347d7f	0.044064995
234	0xbe20e5fd	-0.15712734
235	0xbd081112	-0.033219405
236	0xbe312b2e	-0.17301628
237	0x3d3238dc	0.043511257
238	0x3df0f7cd	0.11766014
239	0xbec1e1ef	-0.37867686
240	0xbd74bd93	-0.059751105
241	0x3cde7239	0.027154075
242	0xbcd947e3	-0.026523536
243	0xbce0d1ee	-0.027443852
244	0x3d842780	0.064528465
245	0x3df2ecf2	0.118616
246	0xbe6fc35a	-0.23414364
247	0xbf1d3a91	-0.6141749
248	0x3dabfdd9	0.08398027
249	0x3dd47af0	0.10375011
250	0x3b74dadd	0.0037361898
251	0xbe143aa1	-0.1447549
252	0xba911a40	-0.0011070445
253	0x3dd93acc	0.10606918
254	0xbdcc5df5	-0.099788584
255	0x3e34983c	0.17636198

fc2.bias f4 [120]
0	0xbe6bcab5	-0.23026545
1	0xbd29dbe9	-0.04146949
2	0x3e18041c	0.14845318
3	0xbde0f881	-0.10984898
4	0x3e08d513	0.13362531
5	0xbd9d146c	-0.07669911
6	0x3ea073fe	0.31338495
7	0x3e17b60e	0.14815542
8	0xbd6f91cc	-0.058488652
9	0x3e3a87be	0.18215844
10	0xbe4124ea	-0.18861738
11	0xbe24917d	-0.16071124
12	0xbd5ea79e	-0.05435907
13	0xbdbe40d4	-0.09289709
14	0xbd42ca87	-0.047556426
15	0xbd9d4dea	-0.076808766
16	0xbda28c33	-0.07936897
17	0xbea0c2bc	-0.3139857
18	0xbb8c4f69	-0.0042819274
19	0xbe3b561f	-0.18294571
20	0x3e5f81f2	0.21826914
21	0x3e0ed64a	0.13948932
22	0x3e0048b8	0.1252774
23	0xbebfda00	-0.37471008
24	0xbe98c45d	-0.29837313
25	0x3e62ef5b	0.2216162
26	0xbe7f05b7	-0.24904524
27	0x3d9baa36	0.076008245
28	0x3e8e7834	0.27826083
29	0x3ec95bcd	0.3932785
30	0x3e4d6cc4	0.20061022
31	0xbd543242	-0.051805742
32	0x3e032d6d	0.12810297
33	0xbdb90aa2	-0.09035231
34	0xbe0cc60d	-0.13747425
35	0xbe340843	-0.17581277
36	0xbe8842c2	-0.26613432
37	0xbe67e34d	-0.22645302
38	0x3d6c41eb	0.05768005
39	0x3e7c9fcd	0.24670334
40	0xbd1d2c77	-0.038372483
41	0xbdd040b7	-0.101685934
42	0x3eabc06e	0.3354525
43	0xbe4ee9bf	-0.20206355
44	0xbc237134	-0.00997572
45	0xbd63edd1	-0.05564672
46	0x3e593a39	0.21213616
47	0x3e9db789	0.3080409
48	0x3e9e960c	0.30973852
49	0xbcf12f81	-0.029441597
50	0x3e531abc	0.20615667
51	0x3e5b606b	0.214235
52	0x3eac4c7b	0.336521
53	0x3ea67fa5	0.3251926
54	0xbe0ed608	-0.13948834
55	0x3c3ae113	0.011406201
56	0xbcb41aa2	-0.021985356
57	0xbe8bddca	-0.2731765
58	0x3e83a79f	0.25713822
59	0xbc37f933	-0.011228847
60	0xbd8892cf	-0.066686265
61	0x3eb4b511	0.35294393
62	0x3e19dec3	0.15026383
63	0x3cea6435	0.028612236
64	0xbe2cab5d	-0.16862245
65	0xbe81f3a0	-0.25381184
66	0xbdacb93f	-0.084337704
67	0xbe8695ad	-0.2628607
68	0x3c62a5ce	0.013833476
69	0x3e9541ce	0.29151767
70	0x3ed25716	0.41082066
71	0xbd12dd24	-0.035855427
72	0x3e919c68	0.2843964
73	0xbd808a4c	-0.06276378
74	0x3e19ab66	0.1500679
75	0x3e0c47a9	0.13699211
76	0x3edba5f0	0.42900038
77	0x3e8e4994	0.2779051
78	0x3e28f479	0.16499509
79	0xbe38a3e9	-0.18031277
80	0x3daff692	0.085919514
81	0x3e461df0	0.19347358
82	0xbe264b50	-0.16239667
83	0xbe1f8540	-0.15578175
84	0x3dbf879c	0.09352037
85	0xbe259dfe	-0.1617355
86	0xbde24e6a	-0.110501125
87	0x3e8685f9	0.26274088
88	0xbd0b19be	-0.033960097
89	0xbd6c8d8d	-0.05775218
90	0x3e8e80d7	0.27832672
91	0xbe1a8748	-0.15090668
92	0x3ea62459	0.32449606
93	0x3db14d1c	0.086572856
94	0xbdc4eea9	-0.09615833
95	0xbe84dd82	-0.25950247
96	0x3ec10b08	0.3770373
97	0x3da5b65b	0.08091422
98	0x3e996f50	0.29967737
99	0xbda87c03	-0.08226778
100	0xbe42290d	-0.18960972
101	0x3dfcd566	0.1234539
102	0x3ed33a2b	0.41255316
103	0x3ebd6bc8	0.36996293
104	0x3ebc0e0b	0.36729464
105	0xbe3e0fa1	-0.1856065
106	0xbbc886a5	-0.0061195665
107	0xbd0a3e45	-0.03375079
108	0x3d3cabd0	0.04606229
109	0xbe9cfe6d	-0.3066286
110	0x3d6ed54d	0.05830889
111	0xbebe464b	-0.37163004
112	0x3ecf5e20	0.405015
113	0x3e20c1d5	0.15698941
114	0x3ea102d2	0.31447464
115	0xbd9a23a9	-0.07526333
116	0xbc9a644b	-0.018846652
117	0xbe3ffdcf	-0.18749164
118	0xbdd8f8a0	-0.105942965
119	0x3e90bfa3	0.28271207

fc3.weight f4 [2, 120]
0	0xbd8861b2	-0.06659259
1	0xbe0985d2	-0.13429955
2	0x3dc51c74	0.09624568
3	0xbcc8fc0a	-0.024534244
4	0xbd87a0a4	-0.06622437
5	0xbb6687ca	-0.0035176151
6	0x3cbf1368	0.023324683
7	0xbd3006ae	-0.04297512
8	0xbce55eef	-0.02799937
9	0x3d7c903e	0.061660998
10	0xbceb1fd4	-0.0287017
11	0xbdfc3189	-0.123141356
12	0x3d20392b	0.03911702
13	0x3d6c9fd0	0.057769597
14	0xbddf7c90	-0.1091243
15	0xbd196b6c	-0.03745596
16	0xbdfd9808	-0.12382513
17	0xbd0329c5	-0.032022256
18	0xbdbb9411	-0.09159101
19	0x3de42e6e	0.11141668
20	0x3dea62f0	0.11444652
21	0x3e0662af	0.13123582
22	0x3c936a3d	0.017994994
23	0xbd9c6d0b	-0.07637986
24	0xbd962f17	-0.073332004
25	0x3d74820e	0.059694342
26	0x3e735d8d	0.23766156
27	0xbe19941f	-0.1499791
28	0x3d4b1c54	0.049587563
29	0x3df8dc46	0.12151389
30	0x3dab7df2	0.083736315
31	0x3dad37f1	0.084579356
32	0x3d884645	0.06654028
33	0xbdab2b10	-0.08357823
34	0x3deed44d	0.11661587
35	0x3d3f3ec1	0.046690706
36	0x3d8ca9c5	0.068683185
37	0xbd9c415e	-0.07629655
38	0xbd3a5cb5	-0.04549857
39	0x3dacbf5b	0.08434936
40	0x3dfe1b7b	0.12407585
41	0xbd7845d8	-0.060613483
42	0x3d8fb8fc	0.07017705
43	0xbdb78f43	-0.08962872
44	0x3bc37c5b	0.005965752
45	0x3d8f3d00	0.06994057
46	0x3d1aa026	0.037750386
47	0x3d46f656	0.048574768
48	0x3cc2a65d	0.023760969
49	0xbd71d15c	-0.05903755
50	0xbb5d3d07	-0.00337583
51	0x3dd280fc	0.10278508
52	0x3d8b033a	0.06787725
53	0x3e1610c6	0.14654836
54	0x3c9855a9	0.018595533
55	0xbcacb3c2	-0.021081809
56	0x3d643a06	0.055719398
57	0xbc9c1b68	-0.019056037
58	0x3daab36b	0.083350025
59	0xbdc8ac18	-0.09798449
60	0x3d49fcce	0.04931336
61	0xbc4b041e	-0.012391118
62	0x3dcec557	0.10096233
63	0xbdc57fd7	-0.09643524
64	0xbdb3092a	-0.08741982
65	0xbec5fc17	-0.38668892
66	0x3c0a712d	0.008449835
67	0xbe0d1b76	-0.13780007
68	0x3d3e86b8	0.046515197
69	0x3e0af5c6	0.13570318
70	0x3c89ccde	0.016821321
71	0x3c8f79df	0.017514167
72	0x3dd3a34b	0.1033388
73	0x3d1102ed	0.03540318
74	0xbd2e1bdf	-0.04250705
75	0x3d9f82ff	0.077886574
76	0x3e109718	0.14120138
77	0x3e0ed6dc	0.1394915
78	0x3da404e3	0.080087446
79	0x3d8700fe	0.06591986
80	0x3c1916ef	0.009343847
81	0x3d86571c	0.065595835
82	0xbddb021a	-0.1069376
83	0xbdf5583b	-0.11979719
84	0x3de94c38	0.11391491
85	0xbd411528	-0.047139317
86	0x3bc61994	0.0060455296
87	0x3da5a8e0	0.08088851
88	0x3b772771	0.0037712718
89	0xbe2c4f51	-0.16827132
90	0x3d7cbe91	0.061705176
91	0x3c42ca2e	0.011889024
92	0x3d8bc877	0.06825345
93	0x3d984ea0	0.074368715
94	0xbcd8c741	-0.0264622
95	0xbdc7b08f	-0.09750473
96	0x3d5733d3	0.052539658
97	0x3d03bc5e	0.032162063
98	0x3d0baa97	0.034098234
99	0xbd7ff53c	-0.062489733
100	0xbdcb6c57	-0.099327736
101	0x3e1bcdec	0.15215272
102	0x3db92124	0.09039524
103	0x3dbf1be3	0.09331491
104	0x3de15778	0.110030115
105	0x3e24f105	0.16107567
106	0xbdc342fa	-0.09534259
107	0xbe26e758	-0.16299188
108	0x3da7b6f1	0.0818919
109	0xbca4511e	-0.020058211
110	0x39305bd9	0.00016818884
111	0xbe8ca381	-0.27468494
112	0xbc6790fb	-0.014133687
113	0x3d4702d7	0.048586693
114	0x3d4afbda	0.04955659
115	0xbd5a03d1	-0.053226296
116	0xbdf4da2e	-0.11955677
117	0x39ff35f3	0.00048677585
118	0x3b6b30d8	0.0035887267
119	0x3e0610c0	0.13092327
120	0x3d923158	0.07138318
121	0x3daf022b	0.085453354
122	0xbe1578bc	-0.14596838
123	0xbc5abb48	-0.013350315
124	0x3e4c4c14	0.19950897
125	0x3c2896ff	0.0102899065
126	0xbe2d239c	-0.16908115
127	0xbd9adebf	-0.07562017
128	0x3d640f3e	0.0556786
129	0xbcf0c658	-0.029391453
130	0xbd18e02b	-0.03732316
131	0x3ba71a61	0.00509958
132	0xbca16a62	-0.019704048
133	0xbdcb641d	-0.099312045
134	0x3dc482db	0.09595271
135	0xbd5e85db	-0.054326873
136	0x3e32bcfe	0.17454907
137	0x3c611e36	0.013740113
138	0x3df0c843	0.11756947
139	0xbe1e9420	-0.15486193
140	0xbe0c3ed2	-0.13695839
141	0xbe0a8a56	-0.13529333
142	0xbe0605cf	-0.13088153
143	0x3c4d24ce	0.012520982
144	0xbdc6e6a9	-0.09711964
145	0xbd6d6671	-0.057959024
146	0xbe90bcc2	-0.2826901
147	0x3cd81b52	0.026380215
148	0xbdcd4d3f	-0.10024499
149	0xbca6ffa9	-0.02038558
150	0xbe3ba95a	-0.18326321
151	0xbd23767f	-0.03990793
152	0xbda708de	-0.08155988
153	0x3c34d7e7	0.011037803
154	0xbdc0e531	-0.09418715
155	0xbbd7b3e3	-0.0065827235
156	0xbde94e57	-0.11391895
157	0x3d538e9b	0.05164967
158	0xbd9f0c43	-0.077660106
159	0xbbe05e04	-0.006847145
160	0xbd4eadd6	-0.05045875
161	0xbd8bd48b	-0.06827649
162	0xbda6ecc1	-0.08150626
163	0x3dbdba16	0.09264009
164	0x3dc13847	0.09434562
165	0x3db010f7	0.08596986
166	0xbdf6a707	-0.12043577
167	0xbdad6bca	-0.08467825
168	0xbd578a3d	-0.05262207
169	0x3dcfa1b9	0.10138268
170	0xbd86a717	-0.065748386
171	0xbdf99c5a	-0.12188025
172	0xbd82ddd2	-0.06389965
173	0xbd8e2d6a	-0.06942256
174	0xbca3b38a	-0.019983072
175	0x3dd12429	0.10211975
176	0x3cd3f303	0.025872713
177	0x3dc740d0	0.09729159
178	0xbd35eae3	-0.04441346
179	0x3de9d4ac	0.11417517
180	0x3d654e45	0.055982847
181	0xbdfc2a4a	-0.123127535
182	0xbd2a2636	-0.041540347
183	0x3dbaea96	0.09126775
184	0x3dbe9fb8	0.09307808
185	0x3e9038f2	0.28168446
186	0xbdc605ac	-0.096690506
187	0x3d50072c	0.05078809
188	0xbdb47017	-0.08810442
189	0xbccafd2e	-0.024778929
190	0xbde721bf	-0.112857334
191	0x3ccc3a54	0.024930157
192	0xbd7c1ed4	-0.061552837
193	0x3cb3c2be	0.021943446
194	0x3dd5d605	0.104412116
195	0xbdd18a77	-0.10231488
196	0xbd17d32e	-0.03706663
197	0xbdc860c8	-0.097840846
198	0xbd6e57e6	-0.058189295
199	0x3d348489	0.044071708
200	0xbd399d81	-0.045316223
201	0xbc77ade5	-0.015117143
202	0x3db50b59	0.08840055
203	0x3e0659a7	0.13120137
204	0x3c0c5ad1	0.008566574
205	0x3c1f844c	0.009736132
206	0x3cdd4a3e	0.02701294
207	0xbc4c225f	-0.012459367
208	0x3c253483	0.010083321
209	0x3dc5dc8b	0.09661206
210	0xbd7edaa6	-0.06222024
211	0x3c31398b	0.010816942
212	0xbe1c4ea5	-0.15264376
213	0x3d755dd9	0.059903953
214	0xbbd9dcf5	-0.0066486546
215	0x3e2824e0	0.16420317
216	0xbde9c8a0	-0.11415219
217	0xbdd87b7c	-0.10570428
218	0xbdccf414	-0.10007492
219	0x3d4f40c6	0.050598882
220	0x3e13a138	0.14416969
221	0xbd26f966	-0.04076519
222	0x3c8947e9	0.016757922
223	0xbccfe83a	-0.025379289
224	0xbd4beedc	-0.04978834
225	0xbdbc5ecd	-0.09197769
226	0x3de5f7bf	0.112288944
227	0x3e599a64	0.21250302
228	0xbdba1456	-0.0908591
229	0x3d95892a	0.073015526
230	0xbd850b9c	-0.06496355
231	0x3e75fac1	0.24021436
232	0xbe14ce33	-0.14531784
233	0xbcd50400	-0.026002884
234	0xbe334079	-0.17505063
235	0xbd022cab	-0.03178088
236	0x3dbfb0f5	0.09359924
237	0x3d850882	0.06495763
238	0x3d0246f2	0.03180594
239	0xbd6bf91e	-0.057610624

fc3.bias f4 [2]
0	0x3eaabd63	0.33347616
1	0xbe81d0cc	-0.25354612

exp_avg f4 [230, 6]
0	0xbac06ea3	-0.001468141
1	0xb8474ac1	-4.7514917e-05
2	0xba9b74ab	-0.0011860331
3	0xbb319787	-0.0027098374
4	0x3a80a83e	0.0009815765
5	0xbca12f4f	-0.019675879
6	0x3906b985	0.00012848347
7	0x36cdf9f6	6.1385754e-06
8	0x3817057d	3.6006317e-05
9	0xb601c478	-1.9336858e-06
10	0x00000004	6e-45
11	0x00000004	6e-45
12	0x3a3b7161	0.00071503787
13	0x38085a00	3.2508746e-05
14	0x3899e3e0	7.3380535e-05
15	0x3916742a	0.00014348389
16	0x3a387745	0.00070368155
17	0x00000004	6e-45
18	0x36b51d28	5.3976146e-06
19	0x350e2a31	5.296052e-07
20	0x3527a638	6.245423e-07
21	0x37436e1a	1.1648541e-05
22	0x3787d374	1.619172e-05
23	0x00000004	6e-45
24	0xbc27611c	-0.010216024
25	0xba64e1a2	-0.00087311317
26	0xba87925a	-0.0010343299
27	0x3aed5180	0.0018105954
28	0xbb32df91	-0.00272939
29	0xbd0131a2	-0.031541474
30	0xb3e3621c	-1.0588357e-07
31	0xb828e8b8	-4.0271058e-05
32	0xb86a5704	-5.5870987e-05
33	0xb9317180	-0.00016922317
34	0xb931550f	-0.00016911722
35	0x00000004	6e-45
36	0xbb9ce12c	-0.0047875848
37	0xba50b2fa	-0.000796124
38	0xbaf98889	-0.0019037883
39	0xba74b5b7	-0.0009334939
40	0xbc52b787	-0.012861139
41	0xbce4df88	-0.02793862
42	0x00000004	6e-45
43	0x00000004	6e-45
44	0x00000004	6e-45
45	0x80000004	-6e-45
46	0x00000004	6e-45
47	0x00000004	6e-45
48	0x38444c8e	4.680134e-05
49	0xbabcb701	-0.0014397801
50	0x39b4de73	0.00034498013
51	0xbac03cc6	-0.0014666549
52	0xbb4dd6a1	-0.0031408446
53	0xbb8108ca	-0.0039378153
54	0xbbe9972f	-0.007128618
55	0xba74d951	-0.0009340244
56	0xbb344c5c	-0.0027511334
57	0x3a4a7265	0.00077227346
58	0xbc827651	-0.015925558
59	0xbcc1f1c3	-0.023674851
60	0x00000000	0.0
61	0x00000000	0.0
62	0x00000000	0.0
63	0x00000000	0.0
64	0x00000000	0.0
65	0x00000000	0.0
66	0xbb09e721	-0.0021042305
67	0xba60d337	-0.00085763953
68	0xbace0ecc	-0.0015720963
69	0xba5c6ea0	-0.00084088184
70	0xbc2d7e63	-0.010589215
71	0xbcb17968	-0.021664336
72	0x00000004	6e-45
73	0x00000004	6e-45
74	0x00000004	6e-45
75	0x00000004	6e-45
76	0x00000004	6e-45
77	0x00000004	6e-45
78	0x00000000	0.0
79	0x00000000	0.0
80	0x00000000	0.0
81	0x00000000	0.0
82	0x00000000	0.0
83	0x00000000	0.0
84	0xbab8e5a6	-0.0014106527
85	0xb9529412	-0.00020082321
86	0xb9aea09c	-0.0003330753
87	0xb9904588	-0.00027517625
88	0x2de12f2e	2.560049e-11
89	0xbbc84c02	-0.0061125765
90	0x3aa77554	0.0012776055
91	0x38fd5043	0.0001207893
92	0x39943126	0.00028265378
93	0x3992b2c8	0.00027980492
94	0x3a250b6e	0.00062959536
95	0x3aa77b29	0.0012777793
96	0x33489f04	4.6710753e-08
97	0xb8b2705c	-8.50863e-05
98	0xb93922df	-0.00017655965
99	0xb8179a6b	-3.614502e-05
100	0xba5bf832	-0.0008391171
101	0x00050b4d	4.63231e-40
102	0x1742d010	6.2947393e-25
103	0xb96afb8b	-0.00022409686
104	0x3a2d75f2	0.00066170015
105	0x3aa73460	0.0012756698
106	0xb9f1ca1a	-0.0004611768
107	0x3b34d4bc	0.002759262
108	0x3bd97883	0.0066366806
109	0xb9768afd	-0.00023512165
110	0x3a38420b	0.0007028884
111	0x3b383f0e	0.0028113755
112	0x396afe41	0.00022410696
113	0x3c5f16c0	0.013616264
114	0x3b83cabf	0.004021972
115	0xb7bf0225	-2.2769973e-05
116	0x3ac89822	0.0015304128
117	0x3b1e3ab7	0.0024143883
118	0x00000004	6e-45
119	0x3b65e248	0.00350775
120	0x377d9da9	1.5116683e-05
121	0xb908bf2d	-0.00013041189
122	0xb98a0edb	-0.0002633248
123	0xb8a37f7d	-7.796192e-05
124	0xbaa233a5	-0.001237501
125	0x22454bcc	2.6738605e-18
126	0x00000004	6e-45
127	0xbb0ca3b3	-0.0021459877
128	0xbab2ff36	-0.0013656381
129	0xbb9b3daa	-0.0047375755
130	0xbbe0b450	-0.0068574324
131	0xbca074f2	-0.019587014
132	0x00000000	0.0
133	0x00000000	0.0
134	0x00000000	0.0
135	0x00000000	0.0
136	0x00000000	0.0
137	0x00000000	0.0
138	0x3a243249	0.00062635966
139	0x391b1c53	0.00014792503
140	0x396b177a	0.00022420092
141	0xba8303dc	-0.0009995657
142	0xb9253b40	-0.00015757699
143	0x3c4b42b9	0.012406045
144	0x00000004	6e-45
145	0xba21a656	-0.00061664486
146	0xba88a4c2	-0.0010425078
147	0xb9c1e3ac	-0.00036981457
148	0xbba9ba24	-0.0051796604
149	0xbc848928	-0.016178682
150	0x3c257fed	0.010101301
151	0x38b0666b	8.411411e-05
152	0x3b6d4eb4	0.003621024
153	0x3bbc9d3e	0.0057560494
154	0x00000004	6e-45
155	0x3bd5a47d	0.0065198527
156	0xbb4fa013	-0.0031681105
157	0xb9c7caa1	-0.00038107208
158	0xba150844	-0.00056851306
159	0xb9db8ef1	-0.00041877435
160	0x38cb8491	9.704487e-05
161	0xbc72f28c	-0.0148283355
162	0x3c0ac40c	0.008469593
163	0x39a33efc	0.0003113671
164	0x3b300857	0.002686044
165	0x3b51096f	0.0031896492
166	0x00000004	6e-45
167	0x3cb9f1a3	0.02269823
168	0xbb2f28f8	-0.00267273
169	0xb9a7a44f	-0.00031975142
170	0xba21c9e1	-0.0006171745
171	0xbac34d49	-0.0014900352
172	0xbbabb423	-0.00523998
173	0xbc9d8d95	-0.01923255
174	0x00000000	0.0
175	0x00000000	0.0
176	0x00000000	0.0
177	0x00000000	0.0
178	0x00000000	0.0
179	0x00000000	0.0
180	0x3cf882a6	0.030335736
181	0x3ac4bc61	0.0015009755
182	0x3a3eca9a	0.0007278115
183	0xbb95b919	-0.0045691845
184	0x3cde2f21	0.027122082
185	0x3d97cbe1	0.07411934
186	0x00000000	0.0
187	0x00000000	0.0
188	0x00000000	0.0
189	0x00000000	0.0
190	0x00000000	0.0
191	0x00000000	0.0
192	0x00000000	0.0
193	0x00000000	0.0
194	0x00000000	0.0
195	0x00000000	0.0
196	0x00000000	0.0
197	0x00000000	0.0
198	0xb88ed537	-6.810802e-05
199	0xb9090c56	-0.00013069934
200	0xba8a1bcd	-0.001053685
201	0xba8caa61	-0.0010731929
202	0xbbe5f1fa	-0.0070173712
203	0x3b856d06	0.0040718345
204	0xba1154a5	-0.0005543924
205	0x35b25d1f	1.3289135e-06
206	0xb8fa180f	-0.0001192541
207	0x3a1ff20e	0.00061014376
208	0xb9966e94	-0.00028692617
209	0x325e7cac	1.2950448e-08
210	0xbb86effc	-0.004117964
211	0xb945ab66	-0.00018851235
212	0xba743adc	-0.0009316632
213	0xbaeb92e2	-0.0017972852
214	0xbbcd4c99	-0.0062652347
215	0xbc8bd9d0	-0.017071635
216	0x37f543a0	2.9237766e-05
217	0xbadd9905	-0.0016906565
218	0xba375677	-0.000699378
219	0xbb79f889	-0.0038142523
220	0xbb4f87d7	-0.003166666
221	0xbb99a397	-0.004688691
222	0xbb407549	-0.0029366782
223	0xb93f75ec	-0.00018259109
224	0xb9ed3a48	-0.00045247586
225	0x39ba88a2	0.00035578484
226	0x3ad2ad30	0.0016073342
227	0xbb795e9a	-0.0038050772
228	0xbb2a2845	-0.0025963944
229	0xb9a4597b	-0.00031347186
230	0xba02df08	-0.00049923407
231	0xb8968e6c	-7.1790855e-05
232	0xba050e45	-0.00050756737
233	0xbc10446c	-0.008805376
234	0x3c3f615b	0.011680926
235	0xb85358a8	-5.0388888e-05
236	0x3b843edf	0.004035815
237	0x3bdba03b	0.0067024506
238	0x00000924	3.279e-42
239	0x3ca6c4c8	0.020357504
240	0x3c348fc4	0.0110206045
241	0x3bc73b4a	0.006080066
242	0x3b43e6e7	0.0029892267
243	0x3c5f22ed	0.013619167
244	0x3cc541c4	0.024079211
245	0x3d3b46d5	0.045721848
246	0x221fd732	2.1662442e-18
247	0xa9c10e70	-8.573426e-14
248	0xab2c4d89	-6.1214277e-13
249	0x9c03d8cf	-4.3624483e-22
250	0xacfd62fa	-7.201681e-12
251	0x00000004	6e-45
252	0x3806a5a4	3.2102354e-05
253	0x3817a4db	3.615474e-05
254	0x39807d3f	0.00024507378
255	0x3a47de00	0.0007624328

exp_avg_sq f4 [230, 6]
0	0x3c29f6a5	0.010373746
1	0x397bc9f0	0.00024012453
2	0x39b7971e	0.0003501707
3	0x3b327930	0.0027232878
4	0x3c534914	0.012895841
5	0x3e24c921	0.1609235
6	0x392b94d1	0.00016363269
7	0x35b03611	1.3128757e-06
8	0x3787f968	1.6209393e-05
9	0x3845dff1	4.717702e-05
10	0x26339664	6.230692e-16
11	0x3216168e	8.7362775e-09
12	0x384d376d	4.8927428e-05
13	0x34fd2652	4.7152804e-07
14	0x35dcfede	1.6465453e-06
15	0x36dffd19	6.6753823e-06
16	0x37ff6af7	3.0448178e-05
17	0x1239a5af	5.857993e-28
18	0x360ddc15	2.1138742e-06
19	0x33107cc2	3.364108e-08
20	0x3422274b	1.510172e-07
21	0x35355838	6.755613e-07
22	0x374e7fab	1.2308282e-05
23	0x260d97b8	4.912482e-16
24	0x3b00bea4	0.001964488
25	0x37cd5993	2.4479616e-05
26	0x38e872ad	0.00011083982
27	0x39dd7c49	0.00042245004
28	0x3b06e767	0.0020584704
29	0x3cbb950d	0.022898221
30	0x366e0ca9	3.5472133e-06
31	0x345c8084	2.053585e-07
32	0x3515b764	5.5773694e-07
33	0x36c44019	5.848717e-06
34	0x3622a49b	2.4235694e-06
35	0x1f8e8c2b	6.037123e-20
36	0x39fa2278	0.00047709397
37	0x36d53087	6.353544e-06
38	0x38209fb3	3.8295704e-05
39	0x38a3a0ef	7.802422e-05
40	0x3aae3380	0.0013290495
41	0x3c1d9920	0.009619027
42	0x2a776271	2.1972161e-13
43	0x26c0497a	1.3342592e-15
44	0x27de87f9	6.17648e-15
45	0x26931b09	1.0207502e-15
46	0x2b216270	5.73353e-13
47	0x1a2bc279	3.5519065e-23
48	0x36468587	2.9582022e-06
49	0x37a2ac9d	1.9392284e-05
50	0x38407919	4.5889148e-05
51	0x3941176e	0.00018414643
52	0x39e0cb88	0.00042876252
53	0x3bb4fd98	0.005523395
54	0x3b1a00b0	0.0023498945
55	0x37dd6014	2.6389993e-05
56	0x38a7d385	8.002579e-05
57	0x39906284	0.0002753922
58	0x3b82fec7	0.003997657
59	0x3cc8d23f	0.024514316
60	0x00000000	0.0
61	0x00000000	0.0
62	0x00000000	0.0
63	0x00000000	0.0
64	0x00000000	0.0
65	0x00000000	0.0
66	0x39c08c97	0.0003672584
67	0x37846a7e	1.5785216e-05
68	0x387644ad	5.871493e-05
69	0x38f69ed2	0.00011759777
70	0x3afc6ca7	0.0019258455
71	0x3c0d96c5	0.008641903
72	0x29586781	4.805141e-14
73	0x25279b24	1.4537505e-16
74	0x26f6375d	1.7084685e-15
75	0x25568ef0	1.860997e-16
76	0x293c003c	4.174459e-14
77	0x24c24ad2	8.426084e-17
78	0x00000000	0.0
79	0x00000000	0.0
80	0x00000000	0.0
81	0x00000000	0.0
82	0x00000000	0.0
83	0x00000000	0.0
84	0x379ab324	1.844165e-05
85	0x348570b1	2.4855174e-07
86	0x3597c41e	1.1307454e-06
87	0x366393da	3.3911697e-06
88	0x34254c85	1.539466e-07
89	0x3a11ce1f	0.00055620255
90	0x38815ec3	6.16885e-05
91	0x350cfb14	5.251943e-07
92	0x36715e16	3.5966564e-06
93	0x3711a693	8.681457e-06
94	0x380683b4	3.2070748e-05
95	0x39265ff6	0.00015866742
96	0x368b484a	4.1509384e-06
97	0x3533d21e	6.6988457e-07
98	0x35c694e1	1.4795479e-06
99	0x36e21541	6.737799e-06
100	0x384f9f26	4.9500864e-05
101	0x339cf004	7.307975e-08
102	0x321896c4	8.881845e-09
103	0x36c5a362	5.890078e-06
104	0x37b9f0fe	2.216594e-05
105	0x387d2b9c	6.0360515e-05
106	0x39c99555	0.0003844897
107	0x3b071f68	0.0020618085
108	0x3b0db7a3	0.0021624349
109	0x37db6324	2.6153e-05
110	0x390397d9	0.00012549701
111	0x3a044a3d	0.0005046463
112	0x3b4d6d01	0.003134549
113	0x3d54c195	0.051942427
114	0x38f8ce27	0.000118639604
115	0x35d9f308	1.6238491e-06
116	0x36f31169	7.243991e-06
117	0x3831a485	4.235331e-05
118	0x329c3152	1.8183218e-08
119	0x3b161517	0.0022900754
120	0x3802ceb3	3.118692e-05
121	0x35827787	9.720542e-07
122	0x36a77e16	4.991666e-06
123	0x378fc022	1.7136397e-05
124	0x38b26a72	8.5075284e-05
125	0x33fc177c	1.1738936e-07
126	0x3028ad97	6.136473e-10
127	0x376d2e05	1.4137016e-05
128	0x384657db	4.72887e-05
129	0x3931eab7	0.00016967473
130	0x3a79b121	0.00095249905
131	0x3ba30fe6	0.0049762605
132	0x00000000	0.0
133	0x00000000	0.0
134	0x00000000	0.0
135	0x00000000	0.0
136	0x00000000	0.0
137	0x00000000	0.0
138	0x3a732293	0.00092748663
139	0x374f9b94	1.2374385e-05
140	0x38643f66	5.441848e-05
141	0x38d09daf	9.947584e-05
142	0x3b3f1745	0.0029158157
143	0x3c42ff4d	0.011901689
144	0x324f1968	1.20547625e-08
145	0x371a1f08	9.18634e-06
146	0x37e5fc16	2.7416314e-05
147	0x38a64069	7.927494e-05
148	0x39914e3d	0.00027714847
149	0x3b6ffe2a	0.003662
150	0x39c8675c	0.0003822398
151	0x368a9e3a	4.1311405e-06
152	0x37672dbc	1.3779321e-05
153	0x38ac3296	8.2110215e-05
154	0x337c1529	5.8692567e-08
155	0x3b883c2c	0.0041575637
156	0x3b664026	0.003513345
157	0x381b1b9f	3.6980604e-05
158	0x3920785b	0.00015303625
159	0x3a452b1f	0.0007521379
160	0x3ae55ae9	0.0017498407
161	0x3d850a2c	0.06496081
162	0x39a8e7b9	0.00032216104
163	0x3695378a	4.4470116e-06
164	0x37bc22fc	2.2427637e-05
165	0x3855609a	5.0873125e-05
166	0x20f7ed4a	4.2000452e-19
167	0x3bbd3318	0.005773913
168	0x39d8eda9	0.000413758
169	0x36a089f8	4.7844333e-06
170	0x3799db43	1.8341123e-05
171	0x38b2d6dc	8.527722e-05
172	0x3a77a719	0.0009447202
173	0x3ba23553	0.0049502044
174	0x00000000	0.0
175	0x00000000	0.0
176	0x00000000	0.0
177	0x00000000	0.0
178	0x00000000	0.0
179	0x00000000	0.0
180	0x3bd82860	0.00659661
181	0x3915f17b	0.00014299706
182	0x397fdba0	0.00024400512
183	0x3b1132e1	0.002215557
184	0x3c15f02a	0.009151498
185	0x3daadaf0	0.0834254
186	0x00000000	0.0
187	0x00000000	0.0
188	0x00000000	0.0
189	0x00000000	0.0
190	0x00000000	0.0
191	0x00000000	0.0
192	0x00000000	0.0
193	0x00000000	0.0
194	0x00000000	0.0
195	0x00000000	0.0
196	0x00000000	0.0
197	0x00000000	0.0
198	0x3afd15fb	0.0019308919
199	0x37ad3bff	2.0651145e-05
200	0x3919f4c1	0.00014682395
201	0x3979b862	0.00023815178
202	0x3bf61eab	0.00751098
203	0x3cad474e	0.021152165
204	0x3904a42b	0.00012649658
205	0x359dbc11	1.1752146e-06
206	0x36e3d668	6.7900874e-06
207	0x37959d60	1.7835468e-05
208	0x396935d7	0.00022240668
209	0x3600dbf2	1.9201511e-06
210	0x3b51d5d4	0.003201832
211	0x3855a50b	5.0936866e-05
212	0x39215636	0.00015386273
213	0x3a2c38d2	0.0006569746
214	0x3ba96857	0.005169909
215	0x3d35998d	0.04433589
216	0x3683d33f	3.9286965e-06
217	0x37873efb	1.6122582e-05
218	0x3821b807	3.855678e-05
219	0x391f8a99	0.00015215053
220	0x399be478	0.00029734126
221	0x3ba4e7af	0.0050325016
222	0x3af2e1a4	0.0018530381
223	0x379805d4	1.8122526e-05
224	0x38b4bd7c	8.618363e-05
225	0x39a167a4	0.0003078553
226	0x3abcb83b	0.0014398167
227	0x3d1bd2bf	0.03804278
228	0x3a1d5b04	0.0006002637
229	0x369467d6	4.422832e-06
230	0x380ba624	3.3294913e-05
231	0x39015dcd	0.00012337342
232	0x3983a97e	0.0002511255
233	0x3c50e9a5	0.012751018
234	0x3a76de57	0.00094172865
235	0x379acae4	1.8452709e-05
236	0x38d1ec91	0.000100099605
237	0x39c82bc8	0.00038179592
238	0x344d9029	1.9144558e-07
239	0x3cbce845	0.023059973
240	0x3b6249c1	0.0034528824
241	0x38e7f7a7	0.00011061067
242	0x393d11f3	0.00018031131
243	0x3a0d9763	0.00054012815
244	0x3b9cee0a	0.0047891187
245	0x3d73b051	0.05949432
246	0x34a3acdd	3.048689e-07
247	0x324cd884	1.1923593e-08
248	0x333ceb1a	4.3985985e-08
249	0x33cbdb72	9.492841e-08
250	0x36912464	4.325573e-06
251	0x19c185d0	2.0009779e-23
252	0x3846b867	4.7378617e-05
253	0x365155d4	3.1193385e-06
254	0x37162995	8.950378e-06
255	0x38b7f71d	8.7721484e-05

exp_avg f4 [230]
0	0xbb3f008e	-0.0029144618
1	0x39081b55	0.00012980153
2	0x39bb7161	0.00035751893
3	0x36b519ec	5.397238e-06
4	0xbb9b3375	-0.0047363588
5	0xb9317180	-0.00016922317
6	0xbb939ace	-0.004504538
7	0x00000004	6e-45
8	0xbac74a81	-0.0015204699
9	0xbb98de49	-0.0046651703
10	0x00000000	0.0
11	0xbb55f1e9	-0.003264541
12	0x00000004	6e-45
13	0x00000000	0.0
14	0xba60ed69	-0.0008580299
15	0x3a2a2c1d	0.0006491559
16	0xb9e5756c	-0.0004376577
17	0x39cd1b7a	0.0003912112
18	0x3b0a28b8	0.00210814
19	0x3b252de3	0.0025204353
20	0xba2bf947	-0.00065602775
21	0xbbb66978	-0.005566772
22	0x00000000	0.0
23	0x3a64f765	0.00087343744
24	0xbb2bcc3f	-0.002621427
25	0x3ba8e056	0.005153696
26	0xbae60ffc	-0.0017552371
27	0x3bbc70b0	0.005750738
28	0xbafa7926	-0.0019109591
29	0x00000000	0.0
30	0x3c18b972	0.009321557
31	0x00000000	0.0
32	0x00000000	0.0
33	0xba97501d	-0.0011544261
34	0xb9921e38	-0.00027869805
35	0xbb1bf448	-0.0023796726
36	0xbb42d0c0	-0.0029726475
37	0xb9bb2115	-0.00035692067
38	0xba8d64ce	-0.0010787488
39	0x3bffdbf4	0.007808203
40	0x3c7755a1	0.015096099
41	0xabfd62fa	-1.8004203e-12
42	0x3a47de00	0.0007624328
43	0xbc07d466	-0.008290386
44	0x3d0be34c	0.034152314
45	0xb976ee63	-0.00023549194
46	0xbafc6418	-0.0019255904
47	0xb16b3e70	-3.4232492e-09
48	0xbab7cc0a	-0.00140226
49	0x392106be	0.00015356668
50	0x3baf028d	0.0053408802
51	0x3a0871e2	0.0005204958
52	0xbb168447	-0.0022967027
53	0xb8949b99	-7.086172e-05
54	0xba8be2de	-0.001067247
55	0xbb6674c3	-0.003516481
56	0x00000004	6e-45
57	0x3b78a3db	0.0037939462
58	0x3cbfb315	0.023400823
59	0x3897e434	7.242747e-05
60	0xbb294dcb	-0.0025833722
61	0xbab430df	-0.0013747475
62	0x3a538417	0.0008068694
63	0xbc69e6d4	-0.014276225
64	0xb9c1f7a7	-0.00036996344
65	0x3b275f20	0.0025538877
66	0xbbb5cc23	-0.0055480166
67	0x3a2eef0b	0.00066731934
68	0x3bf85d87	0.0075795087
69	0xbac45209	-0.0014978062
70	0xbb2408d1	-0.002502967
71	0xbba2ace7	-0.004964459
72	0x3721fd1c	9.655279e-06
73	0x38a5d248	7.906981e-05
74	0xbbff4075	-0.0077896663
75	0x00000000	0.0
76	0x00000004	6e-45
77	0xb9fb3d99	-0.00047920345
78	0x3b4e3021	0.0031461793
79	0xbba3635b	-0.0049862093
80	0xb8ba7b31	-8.892117e-05
81	0x3ad4e48f	0.0016242432
82	0x00000000	0.0
83	0xb9892a91	-0.0002616239
84	0x3b88995e	0.0041686734
85	0x38571ebb	5.1288614e-05
86	0x00000000	0.0
87	0x3ba461b9	0.0050165323
88	0xb9a0d0e2	-0.00030673208
89	0x3b25bff5	0.0025291417
90	0xb9936220	-0.00028111134
91	0x00000004	6e-45
92	0xb891846a	-6.938803e-05
93	0x39685d41	0.00022159984
94	0x3b565aca	0.0032707923
95	0x00000004	6e-45
96	0x00000000	0.0
97	0xba2b0ff1	-0.0006525508
98	0x3c04678b	0.008081327
99	0xb8ef98b5	-0.00011424852
100	0xb91850b5	-0.00014525915
101	0xb7840996	-1.574009e-05
102	0x3a2dc04e	0.0006628082
103	0x3ab255e8	0.0013605924
104	0xb9a9d57f	-0.0003239326
105	0x3aa86e13	0.0012850187
106	0x3a261d5d	0.0006336773
107	0xbb010356	-0.0019685826
108	0xbb0ccf24	-0.002148577
109	0x3b2fcf26	0.002682635
110	0xbb520d6e	-0.0032051462
111	0x3b002247	0.001955168
112	0xbc4c10a4	-0.012455139
113	0xba4ea2ce	-0.0007882536
114	0x3cbb455f	0.022860227
115	0x3d245db1	0.040128414
116	0xba88341e	-0.0010391509
117	0xb84744aa	-4.7509246e-05
118	0x3bd6696d	0.0065433295
119	0xbc6ee53a	-0.014581019
120	0xb9258ef7	-0.00015788885
121	0xbb4d8ea4	-0.0031365538
122	0xba41921c	-0.0007384138
123	0x39bca53b	0.0003598126
124	0xbb81c8f8	-0.003960725
125	0x00000004	6e-45
126	0x3a1c2992	0.0005957122
127	0xbaf97f6e	-0.0019035169
128	0x3b39ce6f	0.0028351804
129	0x00000004	6e-45
130	0x39adf3e6	0.0003317885
131	0x3a3f7632	0.0007303684
132	0x00000004	6e-45
133	0xbb8dd844	-0.0043287594
134	0xbc438b32	-0.011935042
135	0xbb04bc7b	-0.0020253945
136	0xbb83e7b2	-0.004025423
137	0xbc2f026c	-0.01068173
138	0x38f8053f	0.00011826539
139	0xbb9ebc23	-0.004844205
140	0xbad78ebb	-0.0016445735
141	0x39e68d4c	0.00043974293
142	0x38e71ebb	0.00011020662
143	0xba5817a8	-0.0008243271
144	0x3c518284	0.012787465
145	0x00000000	0.0
146	0x3bfd2364	0.007725166
147	0x3c992a55	0.018696943
148	0x399a65b1	0.00029448935
149	0xbb564873	-0.0032696992
150	0x3a9ea99d	0.0012104992
151	0x38a722b9	7.969648e-05
152	0x3b87dfb2	0.0041465396
153	0x00000004	6e-45
154	0x3a5e5318	0.000848101
155	0xba846a31	-0.0010102448
156	0xbc55e06c	-0.013053995
157	0x387972f0	5.947327e-05
158	0xb91f6be0	-0.00015203608
159	0xb87cab83	-6.0241215e-05
160	0x3a063aa6	0.00051204336
161	0x3a0aa3d0	0.0005288692
162	0xba98129e	-0.0011602228
163	0x00000004	6e-45
164	0x3b7b8062	0.0038376083
165	0x3bb17e4c	0.005416667
166	0x3a872333	0.0010310173
167	0xb8cda5fe	-9.80608e-05
168	0xba4b12e7	-0.0007746652
169	0x3ab04dea	0.0013450955
170	0x00000004	6e-45
171	0x3adde48b	0.0016929073
172	0x3a4a2f53	0.00077127403
173	0x3814930c	3.5422898e-05
174	0x3b35fe38	0.0027769934
175	0x39977f7c	0.00028895948
176	0xb9dc2b09	-0.00041993734
177	0xbb8aa690	-0.0042312816
178	0x3afe3fbb	0.0019397655
179	0x390afd61	0.00013255097
180	0x38995019	7.310528e-05
181	0xbb046b28	-0.0020205472
182	0xbb059e70	-0.0020388626
183	0x3a39f8e0	0.0007094275
184	0xbaf7daba	-0.001890979
185	0x39896cfe	0.00026211882
186	0x36edcf8c	7.087312e-06
187	0x3bed3f36	0.0072402013
188	0xba933e8d	-0.0011233852
189	0x3c8d5f7d	0.017257446
190	0xbcb90705	-0.022586355
191	0xbaab791b	-0.0013082357
192	0x3941c967	0.00018480943
193	0xbbd5ffbe	-0.006530731
194	0xbb4fb0cb	-0.003169107
195	0xba7b0113	-0.000957505
196	0x3b9d237a	0.004795489
197	0xbbd39de4	-0.006458031
198	0x3d0b13e2	0.03395451
199	0xbb800443	-0.003906758
200	0x3a763c09	0.0009393101
201	0x3a8166eb	0.0009872591
202	0xba0482ae	-0.0005054873
203	0xbb24efbb	-0.0025167305
204	0xbb63c18a	-0.003475281
205	0xbaffac36	-0.0019506279
206	0xbbb05a13	-0.0053818314
207	0xbb5d0268	-0.0033723358
208	0x3b2e2ef3	0.0026578277
209	0xb1ad9bef	-5.0526903e-09
210	0x3bc6086f	0.006043486
211	0x3b0fb73b	0.0021929282
212	0xba1a56e1	-0.000588758
213	0xba97b86e	-0.001157535
214	0xb9550d51	-0.00020318224
215	0x3783eca4	1.5726611e-05
216	0x00000000	0.0
217	0x3a99fb41	0.0011747853
218	0xbbc53496	-0.0060182316
219	0x39dc5be9	0.00042030148
220	0xbb3cc568	-0.0028804187
221	0x3a06427a	0.00051216
222	0xbb940adb	-0.0045178956
223	0xbae04023	-0.0017108958
224	0xb9e307a1	-0.00043302498
225	0xbabdb71e	-0.0014474129
226	0xb6f0aeab	-7.1728914e-06
227	0x3b2f9930	0.0026794188
228	0xbcc1fa90	-0.023679048
229	0xbbd98ecd	-0.0066393376
