save/new4.pt (torch_old, 354942 bytes, 18 tensors)

fc1.weight f4 [230, 5]
000000 1b 88 e2 be b2 d5 d0 3d 32 16 0a be 5c 35 59 3e
       -0.44244465 0.10197009 -0.1348503 0.21211761
000010 3c a1 c1 be 4a 2b c5 3e 48 97 60 bf 17 d1 ec 3d
       -0.37818325 0.3850959 -0.87730837 0.11563318
000020 f0 95 23 bd 70 d9 2a 3e 8e 7c 56 be d4 0b b8 bf
       -0.039937913 0.16684508 -0.20945951 -1.437861
000030 9a f4 a8 3d a6 a0 a7 bb 1a 39 88 3c 26 b0 29 bf
       0.08249779 -0.0051155863 0.01662879 -0.66284406
000040 c9 39 8c 3e a5 ec e9 be ca 6d d1 be 10 96 dc be
       0.27387837 -0.45688358 -0.40904075 -0.4308324
000050 78 0c dd bd 2e 97 06 3e cc ad e1 3d cc 81 82 3e
       -0.10793394 0.13143608 0.11019477 0.25489652
000060 68 d3 ee 3b 2c 59 00 bf 29 31 20 bf cd e0 34 3d
       0.007288385 -0.50136065 -0.6257501 0.0441597
000070 1e ac 8f be 24 f6 6f 3d c7 53 3b 3e 9d 86 d5 be
       -0.28061002 0.058584347 0.18293677 -0.41704264
000080 f4 1b 58 3d 8d 0d fb bd 37 29 78 3e 51 b8 61 3f
       0.052761033 -0.12258444 0.24234472 0.8817187
000090 52 16 1e bf c5 b2 f4 3d 54 18 88 3e dd 52 90 be
       -0.6175281 0.1194816 0.2658106 -0.2818822
0000a0 b3 43 19 be 54 d7 ad bd 37 f6 95 3c f1 9b 19 be
       -0.14967231 -0.08488336 0.018305881 -0.15000893
0000b0 33 21 25 bf 5e 00 2e bf ca 93 04 bf c7 91 86 3e
       -0.64503783 -0.6796931 -0.5178801 0.26283094
0000c0 ec 23 d8 be 60 fc 0f 3d a1 f4 52 be 2d a1 92 bf
       -0.42214906 0.035152793 -0.20601131 -1.1455437
0000d0 39 04 c3 bd 2c 0b 14 3e 17 20 fc 3b cc 6c fe 3e
       -0.0952229 0.14457387 0.007694255 0.4969238
0000e0 bb ee b7 bd 21 c0 6d be 7e 0b d1 be 39 1f 28 3e
       -0.08981081 -0.23217823 -0.4082908 0.1641816
0000f0 42 43 a5 bf 81 93 5b bf cf 77 49 3e 1e f3 fa be
       -1.291115 -0.8577195 0.1967461 -0.4901361
000100 ef d2 5e 3d 9f f2 18 bf f0 2f cf be 7a ef 53 3c
       0.05440038 -0.5974521 -0.4046626 0.012935514
000110 18 e2 60 3e fc 41 d7 3d 88 df d6 be 31 03 55 3e
       0.21961248 0.105106324 -0.41967416 0.20801999
000120 af 19 4c be 92 6c 2f be 48 97 55 be 91 70 0a bf
       -0.19931673 -0.1713126 -0.2085849 -0.5407801
000130 5c b1 a9 be 15 f3 ca be 01 1e f7 3d 72 1c d5 3c
       -0.33143127 -0.39638582 0.1206627 0.02601454
000140 5b f1 86 bf 48 24 11 be 60 7c aa bd f8 ed 26 bf
       -1.0542406 -0.14173996 -0.08324504 -0.6520686
000150 87 c2 a0 3c 9f ce cd be 51 65 66 bf 0e d2 59 3e
       0.019624008 -0.40196702 -0.89998347 0.21271536
000160 55 88 c0 3d 61 3b da bd 12 c1 a5 3c 25 7c 98 be
       0.09401003 -0.10655857 0.020233665 -0.29782215
000170 c6 a9 2b bd 91 c2 56 3d e2 c5 0f 3e ca 58 18 3e
       -0.041909955 0.052431647 0.1404033 0.1487762
000180 d9 af d8 bf dc f5 93 bd 7e 87 67 ba e4 fb f8 3a
       -1.6928664 -0.07224628 -0.00088321406 0.0018995968
000190 59 77 2d bf 17 a4 58 bf a3 52 a4 3d c8 5a d5 3c
       -0.67760235 -0.8462538 0.08023574 0.026044264
0001a0 e6 ef 07 3e 27 dc 8c bf eb eb 85 3e 0c 83 09 3e
       0.13275108 -1.1004685 0.26156554 0.13428897
0001b0 42 53 a3 be a2 c1 24 bd 96 15 72 be 3b 56 07 bf
       -0.31899458 -0.040223725 -0.23641047 -0.5286595
0001c0 9f 73 b7 3d 34 40 9c 3c 03 3d 6f bd 87 c7 81 bf
       0.089576 0.019073583 -0.058407795 -1.0139016
0001d0 2b d3 7f 3e 3e 48 81 be e8 65 0a 3e b4 a6 10 bf
       0.24982898 -0.2525043 0.13515437 -0.5650437
0001e0 90 63 a1 be f3 77 e1 be c5 0a d3 3d 7e 45 88 be
       -0.31521273 -0.44036826 0.103047885 -0.26615518
0001f0 a9 83 b7 3c 1f 15 08 3f 72 1c f7 be 25 80 80 3e
       0.022401648 0.5315723 -0.4826389 0.25097767
000200 d4 9f 00 bd 09 10 01 be 13 58 01 be d6 a3 eb be
       -0.031402424 -0.12603773 -0.12631254 -0.46023434
000210 43 9c c2 be 3e 41 5e 3c bb 3a c3 be 71 c9 7e be
       -0.38009843 0.01356536 -0.38130745 -0.24881531
000220 a9 0e da bd 87 5f f1 bc fd da 5c bb 4b c8 85 3e
       -0.106473275 -0.029464496 -0.0033699863 0.26129374
000230 b4 70 b5 3e 98 d5 77 be 61 66 cf be 55 a4 df bd
       0.35437548 -0.24202573 -0.40507796 -0.10920016
000240 58 d0 c6 be d8 b5 a9 be db 21 88 be 4b bc 86 be
       -0.3883083 -0.33146548 -0.2658833 -0.2631553
000250 e6 36 89 3e 77 08 c8 be c8 42 9d 3e a9 35 c9 bf
       0.26799697 -0.39068958 0.30715013 -1.5719501
000260 9f 14 89 bd f3 b2 58 3c 1b b0 00 3c d3 21 b3 be
       -0.06693386 0.013226259 0.007854487 -0.34986743
000270 70 44 62 be 51 f6 cc 3d a7 ab 6f 3e ae e3 9a 3d
       -0.2209642 0.100079186 0.23405324 0.07562958
000280 db d8 b0 3c 20 58 8f 3e 9d fd 6c 3c 41 0c c4 be
       0.02158778 0.27996922 0.014464763 -0.382906
000290 19 30 be 3a 59 6f 87 be 4d 5c 21 be 5c 0b 27 3e
       0.0014510184 -0.2645214 -0.15757866 0.16312927
0002a0 70 1f 73 bd a3 40 64 bd 98 f8 9a 3e 2d c3 96 3e
       -0.059356153 -0.055725705 0.30267787 0.29445782
0002b0 01 ff 12 3d bc e1 5a bd 38 61 4f bf 30 7f 30 3e
       0.035887722 -0.053437933 -0.8100772 0.17236018
0002c0 01 c4 2e bc 3c 3f d5 bd bb 3b 79 3e 0f 84 14 bf
       -0.010666848 -0.104124516 0.24339192 -0.58014005
0002d0 83 58 a8 3e c8 62 af bf ab 5b f6 3c 8f eb 3b bc
       0.3288003 -1.3702021 0.030073008 -0.011469736
0002e0 8a 03 6c 3b a6 95 bf 3e fe e3 d6 3e e2 33 13 be
       0.0036012852 0.3741886 0.4197082 -0.1437526
0002f0 83 3e de be 87 f6 4c bf 6f cf 51 bf 1d 7e 31 be
       -0.43407068 -0.8006367 -0.81957144 -0.17333265
000300 40 66 e5 bc 75 07 08 3e 8f ac ea bb c7 f3 23 3e
       -0.028002858 0.13284095 -0.007161684 0.16010962
000310 96 fd 98 3e 32 d4 91 bc b0 6c a1 be 9c 62 67 3c
       0.2988097 -0.017801378 -0.31528234 0.014122631
000320 05 cd 51 be 66 9d 65 bf c1 ba 31 3e c3 27 e4 be
       -0.20488365 -0.89693296 0.17356397 -0.44561586
000330 48 74 3b bc d0 9c 85 bf ba 99 61 bf 56 c0 ea 3d
       -0.011441298 -1.043848 -0.88125193 0.114624664
000340 10 b7 cc be 88 7c d7 3d b3 5e 4c be c1 35 a1 3e
       -0.39983416 0.10521799 -0.19958 0.31486323
000350 0e a3 94 be 43 5a aa 3e 95 c5 1f be cf 45 8a be
       -0.2903065 0.3327199 -0.15602715 -0.27006385
000360 9a e1 11 be 93 56 ba be 4a de c9 be 0d 6d c6 be
       -0.14246216 -0.36394176 -0.39427406 -0.38755074
000370 99 54 aa bf c6 23 f0 3d 11 c5 21 3e 7a cb c7 be
       -1.3307067 0.11725573 0.15797831 -0.39022428
000380 7c f9 42 bd c3 02 4a 3e a7 d9 9c bd d0 0b 61 3c
       -0.047601208 0.19727616 -0.076587014 0.0137357265
000390 8a fe 83 3e e3 41 f7 3c 1a 7a 15 bf 8b 87 87 be
       0.25780135 0.030182784 -0.5838944 -0.264706
0003a0 a8 07 ac 3d ab c3 9f 3e 7c 2f e0 bd d1 9c 80 be
       0.08399898 0.3120397 -0.10946557 -0.2511964
0003b0 a7 1e fb 3d ff c5 5a 3d e8 81 53 3d 10 e0 25 bd
       0.12261706 0.05341148 0.05163756 -0.040496886
0003c0 22 0a e6 be 17 c4 7c bf 13 cf 5b bd 8d 3c 2b be
       -0.44929606 -0.9873671 -0.05366428 -0.16722317
0003d0 15 03 34 3c 92 b8 57 bf 67 c8 e1 3d a9 09 63 bc
       0.010987063 -0.84266007 0.11024552 -0.013857284
0003e0 8d e2 b5 be af 26 9a 3c b0 2e fc 3d 2a df 96 3e
       -0.35524407 0.018817274 0.123135924 0.29467136
0003f0 e2 a9 ab be 10 6a 2d bd 6d c9 ab be a2 1f df be
       -0.33528048 -0.042337477 -0.33552113 -0.4357882

fc1.bias f4 [230]
000000 31 a8 ac 3e 28 2f 38 bf e1 f7 a5 3e ea 97 03 bc
       0.3372207 -0.71946955 0.3241568 -0.008031825
000010 00 9d 38 bf 78 43 9a 3e 98 95 44 bf a7 fa 21 be
       -0.72114563 0.301296 -0.7679076 -0.15818273
000020 82 13 f8 3e 0b 28 e6 be b4 5c 04 be 37 5b 00 bf
       0.48452383 -0.44952425 -0.12925988 -0.5013918
000030 18 30 2a b8 78 7e 61 bf 1e bc 3b be 38 2d 45 bf
       -4.057595e-05 -0.880836 -0.1833348 -0.77022123
000040 20 28 38 3e 70 f0 7e 3d ee fc 60 bf 4e 1f c9 3e
       0.17984056 0.062241018 -0.8788594 0.39281696
000050 1a 4c 65 bf 52 9a 0b be cc 3f c3 bd 25 c3 95 3d
       -0.89569247 -0.13633087 -0.09533653 0.073126115
000060 77 cc c0 3e 90 9d af 3e 3a 6d 79 3e 70 20 3e bf
       0.37655994 0.34299898 0.24358073 -0.74268246
000070 d3 a6 0c bc 2a 86 37 bf bf 93 a0 3e af aa 72 bf
       -0.008584696 -0.71689093 0.3136272 -0.9479169
000080 5d 77 59 3f b8 f2 00 be 84 46 c4 3d 04 d4 56 bf
       0.8494776 -0.1259259 0.09583762 -0.8391726
000090 48 b0 bf 3e 0e 01 20 be 7c bf cc be d1 75 23 3f
       0.3743918 -0.15625402 -0.3998984 0.6385165
0000a0 be fa b0 3e 92 f6 3a be 4d c8 1d be 8f a8 86 be
       0.345663 -0.18258122 -0.1540844 -0.26300475
0000b0 a6 44 49 bd 6b 19 52 bf 51 11 01 be 8a fa c7 be
       -0.049137734 -0.82070035 -0.12604262 -0.39058334
0000c0 00 26 db 3e 9f 89 67 be de 94 a4 be ec f5 23 be
       0.4280243 -0.22611092 -0.32144827 -0.1601178
0000d0 cb 44 22 bf e2 71 63 be 4f 25 19 be 23 01 96 be
       -0.6338622 -0.22211412 -0.14955638 -0.29297742
0000e0 46 83 2d bf 48 3a d9 be da 99 29 bf 38 ce 66 bf
       -0.6777843 -0.42427278 -0.66250384 -0.90158415
0000f0 d4 87 ab be ce 6e 12 bf 7b 21 d3 bd 3a 40 50 bf
       -0.33502066 -0.57200325 -0.1030912 -0.81348
000100 75 6a 03 bf f2 c0 aa 3e 7b 86 13 3f 55 37 ba 3e
       -0.51334316 0.3335033 0.57627076 0.3637034
000110 b7 47 38 bd 4e 3d e0 be f2 4e 25 3f 78 65 eb be
       -0.044990268 -0.43796772 0.64573586 -0.45975852
000120 c5 fa 70 3e f0 1a 52 bf f8 f9 1d 3d 00 0c 95 be
       0.23533161 -0.82072353 0.038568467 -0.29110718
000130 6f 26 8c bf 77 ca 10 bf 30 eb 86 3e 6a 49 3a 3f
       -1.0949229 -0.56558937 0.2635131 0.7276827
000140 0f d8 f6 3e e6 81 32 be 61 39 3c 3f 4f e4 15 bf
       0.48211715 -0.17432365 0.73525053 -0.58551496
000150 04 ae 6d be 31 c6 f4 3e ee 57 0a bf 7a 61 0e bf
       -0.23210913 0.47807458 -0.5404042 -0.5561749
000160 48 f9 f9 bd 64 1b 32 bf a1 a3 32 bf 47 66 a1 be
       -0.1220575 -0.69573045 -0.6978093 -0.31523344
000170 48 a1 d4 be f6 ae bc bd 8f 61 22 3e 0f fe 17 3f
       -0.41529298 -0.09213059 0.15857528 0.5937204
000180 a6 8b 62 be f6 03 7e 3c ad 17 00 3f c0 13 5d bf
       -0.22123584 0.015503874 0.50036126 -0.8635826
000190 ec 0f 04 be 24 20 3c 3e 01 dc b4 3c 1c aa c0 be
       -0.12896699 0.18371636 0.022077562 -0.37629783
0001a0 d4 78 07 3d 4a a5 c5 3e c1 af 3d be c9 8c 8d be
       0.033074215 0.38602668 -0.18524076 -0.27646473
0001b0 e5 51 59 be db 3d a9 3d 7b d0 5d 3f 50 6e df be
       -0.21222647 0.08263751 0.8664624 -0.4363885
0001c0 23 4f 32 be cc 02 a2 3e b6 7d 11 3e d8 33 c8 be
       -0.17413001 0.3164276 0.14208111 -0.39102054
0001d0 a0 f0 ff be 16 7e bc be 46 17 53 3e 8d 3b 81 bf
       -0.4998827 -0.36814946 0.20614347 -1.0096298
0001e0 e5 d9 64 bf e1 d3 d8 3e 5e ac ff be b1 01 12 bf
       -0.8939498 0.4234915 -0.49936193 -0.5703383
0001f0 7e b5 03 3f 45 14 d3 3e a8 7a 73 3f a5 82 3a 3f
       0.5144881 0.41226402 0.95109034 0.728556
000200 30 58 26 bf 44 e7 37 bc 4c 79 34 be ae fb 0d 3d
       -0.64978313 -0.011224572 -0.17624396 0.03466385
000210 4b c6 44 bf 48 a3 0d be 56 19 26 be 5f 7f 00 bf
       -0.7686507 -0.13831818 -0.16220602 -0.5019435
000220 27 e1 cb be fe fb af be 70 92 95 3d 9c 9a 4d 3f
       -0.39820215 -0.34371942 0.07303321 0.8031404
000230 5c 38 1c be 4e ac 31 3d a3 ad af be db 20 53 bf
       -0.15255874 0.043377213 -0.34312162 -0.8247201
000240 08 eb 4e bf 38 e1 d0 be 5b e0 cc be cf 42 86 bf
       -0.8082738 -0.40796828 -0.4001492 -1.0489138
000250 c7 98 3e be e4 3a b8 3e 6b eb d0 be 82 04 3d be
       -0.18612967 0.3598243 -0.4080461 -0.18458751
000260 29 5b 8b be 1a f1 a4 be eb 19 40 be 8c 3c a8 3d
       -0.27217987 -0.32215196 -0.18759887 0.082146734
000270 af 2a 1f be ab ae e3 be 60 9a e8 bc 57 ad 02 3f
       -0.15543626 -0.444692 -0.028393924 0.51045746
000280 cb 55 1d bf 8c ab df bd 46 44 05 3f 16 30 56 be
       -0.61459035 -0.10921392 0.520573 -0.20916781
000290 b6 d2 17 3e 20 82 96 3e 54 f4 b4 be ba dc 34 bf
       0.14826474 0.29396152 -0.35342658 -0.706493
0002a0 a2 4b 46 bf 78 59 aa be 2a ec c3 bd 81 52 0b 3e
       -0.77459157 -0.33271384 -0.09566529 0.13605691
0002b0 dc f8 23 bf 08 ec eb bd 66 b1 04 3a 35 78 96 be
       -0.64051604 -0.11519629 0.0005061835 -0.29388586
0002c0 68 26 30 bd d9 c4 8b 3e 7f 52 6d be 03 fa 75 3f
       -0.043005377 0.2729862 -0.23176001 0.9608461
0002d0 c1 d4 7c bf b6 0e 95 3e b8 26 3b be 87 78 b1 3d
       -0.98762137 0.29112786 -0.18276489 0.08665567
0002e0 ba 5c 54 bd 04 f2 a6 3e 14 3c ff 3e 23 df 4a bf
       -0.051846243 0.32606518 0.49850523 -0.7924673
0002f0 75 0a 0a be f1 a5 2e bc 45 1c a9 bd c2 73 67 bf
       -0.13480552 -0.010659681 -0.08257345 -0.9041101
000300 32 8a 23 3f f8 cb 38 be de 4a 8e be da 58 a3 3e
       0.63882744 -0.18046558 -0.27791494 0.31903726
000310 da 5f 6f bd 57 46 2c be 7e 5e b1 3e 56 3c 95 3e
       -0.05844102 -0.16823708 0.34642404 0.29147595
000320 96 50 30 bf 00 52 56 bd 14 1d 08 bf ea 82 7f bb
       -0.68872964 -0.052324295 -0.5316937 -0.0038987943
000330 45 e8 5e be 9e 36 4d bd 7c 4b 33 3e 93 f9 0e bf
       -0.21768291 -0.050100915 0.17509264 -0.5584957
000340 5d 1e e1 3e 27 6d c3 be f0 58 d8 3d 32 d8 af be
       0.43968478 -0.38169214 0.105638385 -0.3434463
000350 d7 1d 04 3e 17 85 59 bf 80 74 0a bf 3b 1c 3e bf
       0.12902008 -0.84968704 -0.54084015 -0.74261826
000360 56 37 da bd d5 5d 03 3f e0 36 a0 bf b5 0f ca be
       -0.10655086 0.5131505 -1.2516747 -0.3946511
000370 47 8f b8 be 19 ae 3f bf db 03 e4 bd 36 85 c6 be
       -0.36046812 -0.74875027 -0.11133548 -0.38773507
000380 39 4c 37 bc 9b 6c 4c bf 9d 58 f7 3d 1f 1a a4 bd
       -0.0111876065 -0.7985322 0.120774485 -0.08012795
000390 57 f7 c9 3d 10 d2 8d bf
       0.098616295 -1.1079731

fc2.weight f4 [120, 230]
000000 3a e3 42 bc 7e 66 c3 3d fd 97 12 3f 47 fa cf bc
       -0.011894995 0.09541033 0.57263166 -0.025387896
000010 ea d3 38 3d 8e 34 86 3d 9b 45 56 bb ea ae 72 3d
       0.045123972 0.06552993 -0.0032695297 0.059248842
000020 b7 5f ae 3c 4d 4c 6c 3e d2 8a ce 3e b0 ae c8 3d
       0.021285875 0.23075981 0.40340286 0.09798944
000030 99 4a 80 3e f6 c2 67 3c dc 7e 8c 3c a4 75 b6 bd
       0.25056913 0.014145603 0.017150335 -0.08909157
000040 d9 a6 d6 bc df 6a 1a 3d 7d 11 58 bd f6 19 88 3f
       -0.026202606 0.037699576 -0.052751053 1.0632923
000050 9e 99 91 bd 41 6f 2c 3e cf ad 5c 3e 36 fc e1 be
       -0.07109378 0.16839315 0.21550678 -0.44137734
000060 11 ca fe 3d 09 4b 62 3e 62 24 3c 3e 33 d5 c3 3d
       0.12440885 0.22098936 0.18373254 0.09562149
000070 37 b9 07 3e cf 32 89 3e fb 69 85 3f 11 21 b6 3d
       0.13254248 0.26796576 1.0422968 0.08893026
000080 b9 d7 36 3b 6a 32 9c bd 41 4b 47 3b b7 e3 7b 3e
       0.0027899577 -0.07626803 0.0030409845 0.24598585
000090 ba 28 43 3f 88 11 f2 3d 85 c3 a4 3d 0e 66 9b 3c
       0.7623402 0.1181975 0.08045105 0.018969562
0000a0 fb 7f 04 3e 87 60 82 3e 5b 27 5f bd 10 f6 75 bc
       0.12939446 0.2546427 -0.05448089 -0.015012279
0000b0 d3 cf 15 3f a6 b0 ed 3d c0 bb cc 3d d7 29 1a bd
       0.5852024 0.11605959 0.09996748 -0.037637558
0000c0 04 cb 93 3e 39 6f 5c 3e f0 46 b0 3b 19 38 b9 3d
       0.28865826 0.21526803 0.00537955 0.09043903
0000d0 54 69 34 bd 38 4c 9e bd db bd 88 3e 45 74 cc 3d
       -0.04404576 -0.07729381 0.26707348 0.09983114
0000e0 5a 7d 84 3d e4 1b 15 bd 72 78 8b 3d 62 b4 42 be
       0.064692214 -0.03640355 0.068100825 -0.19014123
0000f0 cc b9 b3 3e d3 df 55 bd 02 08 d1 bb 27 53 23 be
       0.3510269 -0.05221541 -0.0063791284 -0.15949689
000100 72 62 4c 3c d5 a7 47 3e 2b c0 6b 3d cd 50 28 be
       0.012474643 0.19497617 0.057556313 -0.16437073
000110 03 c3 da bd 8d 47 1d 3e ea f1 22 bd ce 5c c2 3e
       -0.10681727 0.15359326 -0.03978149 0.3796143
000120 6a 3b 69 3f 22 1b 28 3d ea cb 01 3e 87 a7 d7 3e
       0.91106284 0.0410415 0.12675443 0.4212
000130 55 a5 04 3e 3a 64 15 3c 68 54 04 be 4f 92 c0 be
       0.12953694 0.009118134 -0.12922823 -0.37611625
000140 1f a4 cd bd dd 80 a7 bc 9c 86 30 3e a4 64 ed 3c
       -0.10041069 -0.020447189 0.1723885 0.028978653
000150 c2 48 56 be a1 a3 11 3d 5d ea a3 3d 72 8b 24 3e
       -0.20926192 0.03555644 0.080036856 0.16068819
000160 90 53 23 3e 7a 7d df 3d e5 b2 16 3d e8 a8 43 bb
       0.15949845 0.10912605 0.0367917 -0.0029855315
000170 a0 10 85 3e b7 47 5c 3d e1 64 3b 3e 11 58 4e 3e
       0.25989246 0.05377933 0.18300201 0.20150782
000180 45 7e b0 3d 58 b8 c5 3e 51 16 63 3e dc d2 40 be
       0.08617834 0.38617206 0.22176482 -0.18830436
000190 07 ed f2 3d d6 50 25 bd 64 64 cb 3b b0 b6 a7 3c
       0.11861616 -0.040360294 0.006207036 0.020472854
0001a0 17 cd be bd 66 63 26 be ff 41 06 bd 5b b9 c0 3b
       -0.093164615 -0.16248855 -0.032777783 0.005881471
0001b0 6d 76 f9 be 78 64 9f 3c ad 37 7b bd b0 7a 2e 3e
       -0.48723164 0.019457087 -0.061332393 0.17038989
0001c0 e2 69 f6 3d 6f 9f a5 3e 00 e9 ae 3d 36 ec 0a 3d
       0.12031914 0.323482 0.08540535 0.033916675
0001d0 1c 76 0e 3e 74 ae 39 bd d2 4b bb 3b 25 9c d3 3d
       0.13912243 -0.045332387 0.0057158256 0.103325166
0001e0 75 73 a0 bd ce 2a 94 b9 4f 9e 11 be 58 d8 50 3d
       -0.07834522 -0.00028260652 -0.14220546 0.05098757
0001f0 24 98 52 be 49 45 8e bd 05 0c ec 3c f0 f3 c3 be
       -0.2056585 -0.06946809 0.028814325 -0.38272047
000200 d8 ae 49 bc f2 5f be 3c 10 a9 c3 bc 28 11 94 3f
       -0.012309752 0.02323911 -0.023884326 1.1567736
000210 2f c2 cd 3c b2 60 55 bd 38 e4 26 3d fb d9 10 3e
       0.025117008 -0.05209417 0.04074499 0.14145653
000220 18 02 1f bc 43 cd d2 3e 7c d0 57 be 42 2c 1c ba
       -0.009705089 0.41172227 -0.21075624 -0.00059575227
000230 90 88 93 3d 0c 43 3f 3e 6a 7c e0 bd 54 b6 36 3e
       0.072037816 0.1867792 -0.1096123 0.1784299
000240 81 95 cb 3d 35 20 bd 3d ff f5 b8 3d 5e 45 07 3e
       0.09940625 0.09234659 0.09031295 0.13210055
000250 1b eb cc bc 6f 76 95 3f 7c 8c 08 3d 2c 60 75 bd
       -0.02501445 1.1676768 0.0333371 -0.05990617
000260 98 b9 b8 3e 1b 78 92 bd e4 26 99 bb e1 bd 86 be
       0.36079097 -0.071518146 -0.0046738256 -0.2631674
000270 93 5a a3 3e c2 4d 63 3f 36 2a 55 3d 1d 06 80 3c
       0.3190504 0.88790524 0.05204221 0.015627915
000280 ff 6b 8e 3e 90 12 95 bb d2 7e a2 3d 5d a0 43 be
       0.2781677 -0.004549332 0.07934345 -0.19104142
000290 e4 f7 ab 3d 86 fa 07 3f cc 26 96 3e f2 e9 35 3d
       0.08396891 0.53116643 0.29326475 0.04441256
0002a0 8b 2f 9c 39 d2 42 8c 3d 5a 4d 5b bd ea 05 24 3e
       0.0002979006 0.068486825 -0.053540565 0.16017881
0002b0 d7 5f 54 bc 20 b3 20 bd 45 d2 f5 3e 06 63 9f bd
       -0.012962303 -0.039233327 0.48011985 -0.07782559
0002c0 c8 d4 0a be 7e 7b 8a ba c4 36 39 3d 3e 49 06 be
       -0.13557732 -0.0010565368 0.045218244 -0.13113877
0002d0 2a 96 a2 3d ba ee 9b 3e 1a b1 78 3d bd 5d 27 3f
       0.07938798 0.3045557 0.060715772 0.6537741
0002e0 5d e1 14 3e af fb ae bc b1 c0 36 3f d4 d1 44 3e
       0.14539094 -0.021360246 0.71387774 0.19220668
0002f0 ad c2 42 3d 0b 2e 72 3d e7 95 76 bd 2a fc 32 be
       0.04754894 0.05912594 -0.06020155 -0.17479005
000300 43 c7 88 be c8 07 7b bd de aa 3f 3e 12 28 c7 bd
       -0.26714525 -0.061286718 0.18717524 -0.0972444
000310 8d b4 89 bd c7 c6 70 3e 7d 47 ae 3e 88 a6 c9 3d
       -0.067238905 0.23513328 0.34038916 0.098462164
000320 35 6a c9 bd f0 b0 ce 3b 8b a7 35 3d 08 4e cb bc
       -0.098347105 0.0063077137 0.044349235 -0.024817482
000330 41 0b 19 bc 66 d7 ab 3d 89 03 ff 3c 7d bc 5e 3c
       -0.009341062 0.08390693 0.031129615 0.013594744
000340 d1 3f ac bd fb 05 7c 3e cf f7 67 3d f9 1a c1 3d
       -0.084106095 0.24611656 0.056632813 0.09428973
000350 98 de b4 be 6e ec ef 3d 1a c4 f8 bd ab 00 37 be
       -0.35326076 0.11715017 -0.121467784 -0.17871349
000360 7e 26 16 3e d9 de 6d 3b a8 fb 93 bb ec a7 68 3d
       0.14663121 0.0036296158 -0.0045160837 0.056800768
000370 cd 3b f5 be 3b f6 5d bd 4d 84 36 3f 3c bc 02 3d
       -0.47897187 -0.0541899 0.71295625 0.031917796
000380 8e 19 c9 3e 30 c7 46 3d ac f5 09 3e a6 f2 54 3d
       0.3927731 0.048529804 0.13472623 0.05198922
000390 ec 01 f4 3d cc 3b 53 be 1a e6 b7 be 58 5d 99 bc
       0.11914429 -0.2062828 -0.3591774 -0.018721268
0003a0 b3 b8 cf be 34 ae ea 3d 5f b3 a9 bd 09 c1 11 3d
       -0.40570602 0.11459008 -0.082861654 0.035584483
0003b0 06 c4 d5 be ec 04 f4 be d9 74 9d be 1f 36 1d be
       -0.41751117 -0.47660005 -0.3075321 -0.15352677
0003c0 3e 71 36 3e 42 e6 f1 bd c6 aa fd 3d ca 43 c4 be
       0.17816636 -0.11811496 0.12386088 -0.3833297
0003d0 67 61 b8 3c a8 d1 85 bd ce 72 83 3d 7d 04 99 bd
       0.022507383 -0.065341294 0.06418382 -0.07471559
0003e0 09 71 c2 bc 23 b2 81 bd c1 c9 39 be ad 96 4b 3e
       -0.02373554 -0.06332805 -0.1814337 0.19881697
0003f0 a3 e3 e4 3c e1 1a 76 3d 7c 3d 26 bd 67 ef 43 3e
       0.027940577 0.060084227 -0.04058598 0.19134293

fc2.bias f4 [120]
000000 f5 9c da bd ea 53 93 3e 00 4f 89 bd 51 77 8a 3c
       -0.106744684 0.2877496 -0.06704521 0.016902598
000010 3a 3b b9 3e 3d 82 54 be a2 85 f7 bc fd 75 e8 3e
       0.36178 -0.20752807 -0.030215088 0.45402518
000020 8f fd 93 3e 9a b7 80 bd 7c 00 d9 bd e5 1a 14 3e
       0.28904387 -0.06285019 -0.105957955 0.14463384
000030 ab 67 85 bd 8c a4 c9 3e 73 63 96 3e 8b 36 f2 3e
       -0.06513914 0.39383352 0.2937275 0.47307238
000040 ec 4d e9 bd 79 c0 5d bd 73 6e f9 bd 78 c4 b1 3e
       -0.113918155 -0.054138634 -0.1217927 0.34720206
000050 72 b5 95 bd 5b df 87 bd 5a 61 da 3e b4 12 2a 3f
       -0.073099986 -0.066343985 0.42652398 0.6643479
000060 be c5 0d 3f f9 5b c3 bd 0f 49 93 bd 74 64 a1 3d
       0.55379856 -0.09539027 -0.07191669 0.07880488
000070 d1 f5 d2 bc f2 6d 0c 3f 5d 9e 90 bd f1 ba 9b be
       -0.02575198 0.54855263 -0.070614554 -0.30416062
000080 d5 0b 7a bc 5a 4c fc 3e c0 a5 9b 3e 69 36 46 3d
       -0.01526161 0.49277002 0.30399895 0.048391733
000090 4b f5 d9 3d eb 51 76 3c 26 9f 8f be a6 53 00 3f
       0.10642489 0.015034179 -0.28051108 0.5012764
0000a0 6a cd a2 bd 0f 5b 04 bd 13 c6 ae 3e aa fb 0e 3e
       -0.07949336 -0.032313403 0.34135494 0.1396319
0000b0 15 27 a3 bd 14 8d a2 3e c5 96 7f bd 62 d1 c0 3c
       -0.07966439 0.3174826 -0.062399644 0.023537342
0000c0 18 25 a2 bd b9 2d 80 3e 15 a0 b3 bd 38 32 ff 3e
       -0.07917231 0.25034884 -0.087707676 0.49843
0000d0 2c d1 8c 3c cb 13 f6 bd 06 d8 9c 3e 1c a8 40 be
       0.017189585 -0.12015494 0.30633563 -0.18814129
0000e0 b1 a9 f9 3e 02 32 f5 3e 2a 54 49 3d ae 75 c8 3d
       0.48762277 0.47889715 0.04915253 0.097880706
0000f0 77 3b 8d be c1 a4 63 be a5 82 7f bd 87 7f 54 3d
       -0.2758443 -0.22230817 -0.06238045 0.051879432
000100 a8 e8 fa 3e 3d f3 03 bd 3a 53 c3 3e 10 25 00 3e
       0.49005628 -0.032214392 0.38149434 0.12514138
000110 21 9f 93 bc 88 31 cc 3d e2 a0 9a be ac 95 69 bd
       -0.018020215 0.09970385 -0.3020087 -0.057027504
000120 ee 37 73 be ac 7d 76 3e 6e 65 24 be 60 f5 90 3e
       -0.23751804 0.24071378 -0.16054317 0.28312206
000130 68 59 7c bd 5f 69 24 be 90 75 f2 3e 1b 6a fc 3e
       -0.061608702 -0.16055821 0.47355318 0.49299702
000140 0c 2b fa 3d 3b c7 35 be 7e a7 4a bd 35 96 b4 bd
       0.12215242 -0.17751782 -0.04947614 -0.08817712
000150 86 15 35 bd 80 a7 88 3b 86 53 e7 bd 28 6b 80 be
       -0.04420998 0.004170358 -0.11295228 -0.25081754
000160 2a 2f 05 be 8e 9d c3 3e db a7 76 bd 1d f8 e2 3e
       -0.13006273 0.38206142 -0.060218673 0.4432992
000170 f9 bd eb bd 72 f3 4a bd c3 aa 3e bd 0f 39 68 3e
       -0.11510844 -0.049548574 -0.04654957 0.22678016
000180 a4 52 a4 bd ff d4 52 3e 7f 37 1f be 30 9c d5 3d
       -0.08023575 0.20589064 -0.15548514 0.10430181
000190 ca b0 93 3d 3d a0 4e be a5 07 ce bd 6b 40 11 be
       0.07211454 -0.20178314 -0.10060052 -0.1418473
0001a0 83 da 54 be 04 c0 d6 bd 00 f4 e3 3e 6a 64 7e be
       -0.2078648 -0.10485843 0.44522095 -0.24842992
0001b0 da e8 12 3e 0a da aa bd 24 6d a3 bd 6d 5b 14 bd
       0.14346638 -0.08342369 -0.07979801 -0.036220003
0001c0 5c 08 83 3e 01 d8 0e 3f 39 13 f5 3e 0a a8 89 3e
       0.25592315 0.55798346 0.47866228 0.26886016
0001d0 a2 db cb bd 5c 53 dd 3d 43 dc bd 3e 8a 9b e9 bd
       -0.09954001 0.10806915 0.3708211 -0.1140662

fc3.weight f4 [2, 120]
000000 21 b1 43 bd a8 a4 07 3e c1 e7 95 bc 16 e6 cd 3d
       -0.047776345 0.13246405 -0.018298985 0.10053651
000010 4c 35 05 bf 47 47 20 3d 91 43 44 bd 8d a9 f9 3d
       -0.5203445 0.039130475 -0.047916 0.12190542
000020 a8 41 58 3d 84 28 2a 3d e5 d7 8b 3b 08 00 88 be
       0.05279699 0.041542545 0.00426768 -0.26562524
000030 5e 0b 87 bd 59 34 2f 3e 74 f5 c5 3e 99 ad 95 3d
       -0.06593965 0.17109813 0.38663828 0.07308502
000040 3b 27 b2 3d c7 a3 e1 bc 8a a3 dc 3c c3 2c d4 3d
       0.08698889 -0.027543915 0.02693345 0.103601
000050 f1 4f b9 3d 72 51 af 3d f5 5c 6e 3d 41 53 2c bf
       0.09048451 0.08560456 0.05819412 -0.67314535
000060 3b a7 ef bb 95 3d 7a 3d 7a 9a 62 bd 1a 67 34 3d
       -0.0073136366 0.061093885 -0.0553231 0.044043638
000070 93 c7 50 bd e1 a5 7d 3d 1d b0 06 bb 9d 72 65 bd
       -0.05097158 0.061925773 -0.002055175 -0.056017507
000080 f9 1e 42 3d 0e 4a 89 3d 53 6f ce 3d 7b ed 98 3d
       0.04739282 0.06703578 0.10079827 0.07467171
000090 c2 d9 59 3d c1 d3 1e 3d fe 43 b9 bb f1 fa b3 3d
       0.053186186 0.038776163 -0.0056538573 0.08788098
0000a0 0d 4b 1d 3b 67 fd 4d 3d e4 fb 4d 3e 4b 66 37 3b
       0.0024001033 0.05029049 0.2011562 0.0027984555
0000b0 08 a6 80 3d b2 d0 b4 3d de 63 c1 3d 21 33 03 3e
       0.06281668 0.08828868 0.09442876 0.12812473
0000c0 c6 c6 91 bd de f6 01 3e 71 dd 0a bd 05 24 0c 3d
       -0.07117991 0.12691829 -0.03390259 0.03421404
0000d0 af 7e 3a 3c 65 88 b1 3b be d0 91 3e 3a 19 25 3d
       0.011382743 0.005417871 0.2847957 0.04030726
0000e0 07 80 ba 3d 4e ce 9a bc b7 9f d8 3b 42 f0 c9 3d
       0.091064505 -0.018897202 0.0066108364 0.09860279
0000f0 19 b5 99 bd fe 43 71 bc bd 47 1f bd 5d a8 32 3d
       -0.07505245 -0.014725683 -0.038886774 0.043617595
000100 39 ca 5d 3d 7f 32 49 3d bb 24 56 3e d7 6f 4b 3d
       0.054147933 0.049120422 0.20912449 0.049667206
000110 80 2b 9b bc 28 91 75 be 55 44 05 be a1 8c b5 bb
       -0.01894164 -0.23981154 -0.13014348 -0.005540446
000120 ee 70 ec bd 33 7c 90 be 19 6a c9 bc 63 5b cc 3e
       -0.11544977 -0.28219756 -0.024586724 0.39913473
000130 82 cd 92 bd 88 d1 6a 3c d4 8e 13 3e 12 1a 86 3d
       -0.07168104 0.014332183 0.14409953 0.06547941
000140 37 dc 77 3d f8 98 9d bd 5b 77 41 bd 41 25 52 3d
       0.060512748 -0.07695192 -0.047232967 0.05130506
000150 ad 70 59 bd e3 36 b8 3d 23 08 cf 3d b0 44 b6 3c
       -0.05308597 0.08994844 0.10108974 0.02224955
000160 11 c8 bb bc a3 6f 48 3e 10 b7 05 3b 0c 1d be 3d
       -0.022922548 0.19573836 0.0020403303 0.09282884
000170 04 d1 23 3d 83 87 74 bc e4 ce 3c 3b 24 12 da 3d
       0.039994255 -0.014924887 0.002880984 0.10647991
000180 2b 44 67 3d 36 73 b9 3e e1 fe 8e bc 8a 74 32 bd
       0.056461494 0.3622071 -0.01745552 -0.04356817
000190 36 24 03 3d ca da 59 bd cb 9f c4 bb 08 ff 0e be
       0.032016955 -0.05318717 -0.006000494 -0.13964474
0001a0 5b 89 9d 3d 84 d0 3b bd 20 42 58 3e a5 0b ee bd
       0.07692214 -0.045853153 0.21118975 -0.11623315
0001b0 1b 48 6b be 36 d9 92 3d 6f 56 c0 3c 0c 99 05 be
       -0.22976725 0.07170336 0.023478715 -0.13046664
0001c0 ed 41 38 3d be 87 86 bf b8 3c 71 3e 52 ec 26 3e
       0.044984747 -1.0510175 0.23558319 0.16301087
0001d0 05 94 b3 3c 3f c6 5f 3d 73 72 a6 3e ed 7e 36 3d
       0.021921167 0.05463242 0.32509193 0.04455464
0001e0 4a 8e f7 bd 6a f2 33 be 27 96 e6 bd 27 be bc bc
       -0.12087686 -0.17572942 -0.11259108 -0.02303989
0001f0 7e db 16 3f 60 cb 3f bd 39 21 99 bd 3a 79 9c bd
       0.5892867 -0.046824813 -0.0747704 -0.0764031
000200 68 02 be bd bd c6 12 bd 58 f7 19 3d 57 85 96 3e
       -0.09277803 -0.035834063 0.0375894 0.29398605
000210 00 5d ac bd 8f 95 72 be 69 00 ad be 15 f8 be bc
       -0.08416176 -0.23689865 -0.33789375 -0.023311654
000220 c0 54 ae 3d 01 b6 48 3c 99 ee 3d bd 01 0d 3c bd
       0.085122585 0.012250424 -0.046370123 -0.04591084
000230 bc aa 7c 3d 69 f5 80 bc ee 54 02 be cf dc 20 3f
       0.061686262 -0.01574202 -0.1272771 0.6283693
000240 d6 7e e2 bd 76 37 66 3d 42 cc 4c 3c a5 a0 0b bd
       -0.11059348 0.056205235 0.012499871 -0.03408875
000250 b0 cb 6b bd c8 04 bd bd ef 98 b4 bc 63 dc da 3c
       -0.0575673 -0.092294276 -0.02204558 0.026716417
000260 2f 2a 91 bc 6b f2 89 bc be ba 8b 3c 1a d1 c8 3b
       -0.01772031 -0.016839227 0.017056819 0.0061284425
000270 c9 09 23 bd f6 78 38 bd 5f 63 79 3d 04 51 ad bd
       -0.039804254 -0.045037232 0.060885783 -0.08462718
000280 ca 78 d9 bc 9e c7 2c 3d 12 15 2e be 41 31 6a bd
       -0.026546855 0.042182557 -0.17000225 -0.05717588
000290 ae 20 8a 3d d1 a0 f4 bd 28 22 48 bc 28 e2 da 3c
       0.067445144 -0.11944736 -0.012215175 0.026719168
0002a0 b9 14 ac 3d d7 81 83 be 00 fe b0 bc 41 29 f3 bd
       0.0840239 -0.25684997 -0.021605492 -0.11873103
0002b0 b1 4b 98 bd 7f 3d 6f bc 17 c8 0c be ea f3 ce bd
       -0.07436312 -0.014602064 -0.13748203 -0.10105117
0002c0 76 58 66 bd 81 7c de bd 53 dd 46 bd 75 9c 87 3a
       -0.056236707 -0.10863591 -0.048550915 0.001034631
0002d0 d7 49 88 3d f1 32 d8 bc 20 35 95 bd 01 aa 70 bd
       0.06654709 -0.026391478 -0.072855234 -0.05875588
0002e0 3d 2d d1 bd fb 1f ae 3c df b6 82 be 98 24 27 bd
       -0.10213707 0.021255484 -0.25530145 -0.040806383
0002f0 0e 20 8e bd da 2c 67 3e a1 8b 7f 3d 86 95 d6 3c
       -0.06939708 0.22575703 0.06238902 0.026194345
000300 31 bb 0d 3d 5b 5a 95 3e b6 6d 7c 3d 34 7e a5 be
       0.034602348 0.29170498 0.061628066 -0.32322848
000310 e9 f0 b0 bd 2b b4 a9 bc f1 22 e2 bd 14 50 1e bd
       -0.086397 -0.020715794 -0.11041821 -0.038650587
000320 d3 b2 75 bd 42 5e 68 bd 38 31 f1 bc 87 5c bf 3c
       -0.059984993 -0.056730516 -0.029442415 0.02335955
000330 4f 43 17 3e 90 43 da 3c 14 06 f4 3c 57 2f ff 3b
       0.1477177 0.026643544 0.029788055 0.007787626
000340 90 38 61 bc 96 56 43 be 0b 06 10 3d 83 fc 20 bd
       -0.013746396 -0.19075999 0.035162013 -0.039303314
000350 49 a3 b6 3c 81 87 a8 3d c4 42 42 3b 5e 22 25 3b
       0.022294657 0.0822897 0.0029641846 0.0025197486
000360 66 da 79 bc 51 62 d6 be d2 c0 d1 bd 9a 5c c0 bd
       -0.015249824 -0.41871884 -0.10241856 -0.09392662
000370 eb fc c0 bc b4 a6 4e 3d f1 ca 9c 3c 35 a2 11 3e
       -0.0235581 0.05045195 0.019139739 0.14222033
000380 b8 24 ef bc d6 28 1b 3d f7 66 0a be 1c 38 87 bc
       -0.029192314 0.03788074 -0.1351584 -0.016506247
000390 bc 94 8e 3e 8a f0 8a 3d 8b 5e 69 3d bc f0 0d 3e
       0.2784785 0.067841604 0.05697493 0.13861364
0003a0 55 93 bf bd 46 e4 75 3f 5b b0 84 be fd 1e 2c be
       -0.09354273 0.9605144 -0.259158 -0.16808696
0003b0 d1 93 7c 3c 02 8b f7 bc 8e e4 ad be 65 e2 99 bd
       0.015416102 -0.030217651 -0.33963436 -0.075138845

fc3.bias f4 [2]
000000 9c 27 8d 3e f3 da a4 be
       0.27569282 -0.32198295

exp_avg f4 [230, 5]
000000 1b a7 10 39 a0 ce b5 39 14 2c 24 39 89 0c 68 3a
       0.00013795162 0.00034676958 0.00015656679 0.00088519655
000010 5f 3d ca b8 2c 05 bc b9 91 26 00 ba c4 fb 77 b9
       -9.643542e-05 -0.00035862008 -0.00048885593 -0.00023649546
000020 79 d5 80 bb eb 23 f3 bb dc a3 5f ba 05 a8 b3 ba
       -0.003931698 -0.0074200532 -0.0008531192 -0.001370669
000030 2c 32 91 bb 75 59 ba bb 58 55 0a bd 67 0e 0c 39
       -0.00443103 -0.0056869336 -0.033772796 0.00013356806
000040 0a ea 30 3a 04 00 00 00 00 00 00 00 04 00 00 00
       0.0006748742 6e-45 0.0 6e-45
000050 6c 7f 6f b9 38 f0 0e ba bc ab 81 b9 f7 c5 ba bb
       -0.00022840285 -0.00054526655 -0.0002473275 -0.005699869
000060 87 ad 66 bb ab 55 a2 b9 c3 ed 38 ba 55 19 c5 ba
       -0.0035198645 -0.00030962875 -0.0007054472 -0.0015037457
000070 d1 dd 19 bb 45 48 9b bc ca c4 4f 3a e7 59 73 3a
       -0.002347816 -0.01895536 0.0007925747 0.0009283111
000080 c2 3f 9b 3b cd af 7d 3c 01 8c 20 3c a9 80 95 b8
       0.004737825 0.015483809 0.0097990045 -7.1288385e-05
000090 bb 41 a9 b8 da 3f 98 b8 d1 9a d3 b9 99 12 ea 39
       -8.070791e-05 -7.259818e-05 -0.00040360403 0.00044645814
0000a0 bc 0b 40 37 f7 4f 71 38 84 10 52 38 3d 7a bd 39
       1.1446824e-05 5.753335e-05 5.0083283e-05 0.00036139964
0000b0 04 00 00 00 04 00 00 00 04 00 00 00 04 00 00 00
       6e-45 6e-45 6e-45 6e-45
0000c0 04 00 00 00 04 00 00 00 b5 60 ed b7 60 c2 0b b9
       6e-45 6e-45 -2.8297634e-05 -0.00013328483
0000d0 e1 e8 c4 39 7e d4 54 bb 60 d9 6e bb 27 f6 7e 39
       0.00037557542 -0.0032475288 -0.0036445484 0.00024315027
0000e0 92 b2 1e 39 1f 45 dd b9 e9 49 a5 30 43 99 9a ba
       0.00015134577 -0.00042203904 1.2026337e-09 -0.0011794943
0000f0 8c 20 ca b9 78 91 89 ba af c8 33 bb 04 00 00 80
       -0.00038552692 -0.0010495624 -0.002743285 -6e-45
000100 6d ca c7 bc 8f 32 57 b9 b1 c9 a2 ba a8 0a cb bb
       -0.024388516 -0.00020522832 -0.0012419728 -0.0061963387
000110 97 06 27 bc 36 1a 24 bd 04 00 00 00 04 00 00 00
       -0.010194442 -0.04006406 6e-45 6e-45
000120 00 00 00 00 00 00 00 00 00 00 00 00 04 00 00 00
       0.0 0.0 0.0 6e-45
000130 04 00 00 00 04 00 00 00 04 00 00 00 04 00 00 00
       6e-45 6e-45 6e-45 6e-45
000140 47 53 46 b8 c7 81 02 ba a6 16 c1 b8 04 00 00 00
       -4.7284437e-05 -0.0004978445 -9.207176e-05 6e-45
000150 57 09 00 bc 1e 99 a4 39 57 17 aa 39 81 c4 6c 38
       -0.007814727 0.000313946 0.00032442316 5.6449793e-05
000160 67 ae 9e 3b fa b2 ad 3a aa 0b b0 b9 09 43 49 ba
       0.0048425677 0.0013252192 -0.00033578026 -0.00076775305
000170 0b 0b 44 ba 54 83 09 bc 62 07 00 bc 15 c3 af ba
       -0.0007478452 -0.0083931275 -0.00781426 -0.0013409579
000180 2a b0 29 bb 73 00 0b 38 05 f5 7f bc 98 4b a5 bd
       -0.0025892355 3.31406e-05 -0.015622382 -0.08071059
000190 31 d9 8c 38 f7 b9 f3 38 16 d2 f0 39 94 bf a7 39
       6.716175e-05 0.000116217816 0.00045932893 0.0003199546
0001a0 01 8c 8e 3b 5a a3 4c b8 ff 4e a1 b9 9c 7e fd b9
       0.004350186 -4.8789523e-05 -0.0003076717 -0.00048350252
0001b0 04 00 00 00 1a 4a c0 b9 04 00 00 00 04 00 00 00
       6e-45 -0.00036676304 6e-45 6e-45
0001c0 04 00 00 00 04 00 00 00 04 00 00 80 e4 a3 28 38
       6e-45 6e-45 -6e-45 4.0206956e-05
0001d0 5a 22 24 3a 6d 63 50 3a b3 ed b3 ba de 80 18 29
       0.00062612223 0.0007949386 -0.0013727456 3.3862554e-14
0001e0 7b c7 05 ba a4 63 62 ba 35 03 3a ba de 36 dd b8
       -0.0005103272 -0.00086360634 -0.0007095815 -0.00010548321
0001f0 f1 ba 9b bb 83 6e 1d 39 09 19 76 38 4a 7d 68 3a
       -0.0047525098 0.00015013856 5.8674286e-05 0.0008868767
000200 f1 79 49 3b ea a6 43 3b 68 34 d3 b7 30 20 f4 b8
       0.0030742849 0.0029854127 -2.5177564e-05 -0.00011640822
000210 04 00 00 00 09 08 84 ba 04 00 00 00 88 db 43 39
       6e-45 -0.0010073195 6e-45 0.00018678431
000220 f1 2c bb 39 c3 61 8e 3a e1 55 9d 3b c4 64 c2 3b
       0.00035700903 0.0010862875 0.0048014973 0.0059324224
000230 60 aa e0 37 1e 09 14 38 04 00 00 00 04 00 00 00
       2.6782218e-05 3.529444e-05 6e-45 6e-45
000240 04 00 00 00 a0 91 77 37 dd b7 a9 b7 9b 3c 52 b8
       6e-45 1.4756253e-05 -2.0231988e-05 -5.0124345e-05
000250 95 51 16 b8 04 00 00 80 e1 1b d1 ba 2e d8 17 bb
       -3.5838766e-05 -6e-45 -0.0015953743 -0.0023169625
000260 fb c0 96 b9 66 9c 6c bc 7c ed 88 bd 47 e9 3e ba
       -0.0002875401 -0.014441585 -0.066859215 -0.0007282686
000270 ec be 1f bb 35 7a 2f bc e4 08 a5 bc cc a7 91 bd
       -0.0024375273 -0.010710289 -0.020145841 -0.07112083
000280 04 68 06 b9 17 8e 88 b9 47 43 af 3a 74 5d 3f 3b
       -0.00012817985 -0.00026045807 0.0013371491 0.002919999
000290 c5 36 49 3b 04 00 00 00 04 00 00 00 04 00 00 00
       0.0030702811 6e-45 6e-45 6e-45
0002a0 04 00 00 00 04 00 00 00 3f ff 1c 39 f6 94 f2 39
       6e-45 6e-45 0.00014972406 0.00046268821
0002b0 26 b6 0b 3a c4 f7 a5 39 04 00 00 00 11 43 00 b8
       0.00053295714 0.00031655852 6e-45 -3.058004e-05
0002c0 8c e8 06 b9 57 0e 49 38 b5 97 2b ba 04 00 00 00
       -0.00012865866 4.793549e-05 -0.00065457384 6e-45
0002d0 10 81 f8 ba 34 29 53 bb 30 ab d7 bb e8 8e f1 bc
       -0.0018959362 -0.0032220604 -0.0065816864 -0.029487088
0002e0 b9 70 a5 bd 41 d2 3d 38 09 3d 1a 39 ae af 34 b7
       -0.08078141 4.5256926e-05 0.00014709322 -1.076974e-05
0002f0 00 00 00 00 04 00 00 00 51 fc e1 b8 11 47 d7 b9
       0.0 6e-45 -0.00010775834 -0.00041060944
000300 75 98 41 b9 50 1c c2 bb a2 70 9a bb 97 9d 04 39
       -0.00018462709 -0.0059237853 -0.004713134 0.00012647208
000310 2b ca 68 3a 29 c0 0d 3b 22 4f b5 3b c0 10 a0 3c
       0.0008880223 0.002162943 0.005533115 0.019539237
000320 5c c1 7b ba eb 1e bd ba 9b c0 8c bb 04 00 00 80
       -0.0009603703 -0.001442877 -0.0042954213 -6e-45
000330 32 9e 6c bc 71 1c a7 b8 bf 31 7d b9 f0 f5 5d ba
       -0.014442014 -7.968478e-05 -0.00024146492 -0.00084671285
000340 24 00 00 80 8c 4b c4 bb 9b f9 76 b9 1c 1e 7d b9
       -5e-44 -0.005990451 -0.00023553373 -0.00024139177
000350 1f c4 04 bb 3b 50 23 bc a7 79 cd bb 00 00 00 00
       -0.00202585 -0.009967859 -0.0062706056 0.0
000360 00 00 00 00 00 00 00 00 00 00 00 00 00 00 00 00
       0.0 0.0 0.0 0.0
000370 ad 50 5f b9 4d 1f ae ba 4c 19 1a bb 04 00 00 80
       -0.00021296991 -0.0013284475 -0.0023513613 -6e-45
000380 be af a4 ba 5f 6a 8f 39 be 2e 8c 3a 68 0a 8c 3a
       -0.0012564582 0.00027354338 0.0010695083 0.0010684254
000390 70 d5 9b 3b d6 b7 4a 3c c6 10 8a b9 4c b1 04 bb
       0.0047556683 0.012372931 -0.00026333908 -0.0020247279
0003a0 67 5d c1 bb 55 f9 49 bc c9 3c 91 bc 04 00 00 00
       -0.005901027 -0.012327512 -0.01772918 6e-45
0003b0 04 00 00 00 04 00 00 00 04 00 00 00 04 00 00 00
       6e-45 6e-45 6e-45 6e-45
0003c0 f1 5c 18 39 a0 f0 e6 3a 82 f6 60 3b 04 00 00 00
       0.00014530473 0.0017619319 0.0034326618 6e-45
0003d0 b2 f3 54 3a 04 00 00 00 04 00 00 00 04 00 00 00
       0.00081234716 6e-45 6e-45 6e-45
0003e0 04 00 00 80 04 00 00 00 00 00 00 00 00 00 00 00
       -6e-45 6e-45 0.0 0.0
0003f0 00 00 00 00 00 00 00 00 00 00 00 00 07 0e 4c 39
       0.0 0.0 0.0 0.00019460182

exp_avg_sq f4 [230, 5]
000000 93 a3 9a 36 14 e5 e3 37 c0 43 ed 37 d5 a3 3b 3b
       4.6086e-06 2.7167182e-05 2.828415e-05 0.0028631587
000010 67 e4 d6 3a fa da 66 37 df c2 65 38 0a 2e 58 39
       0.0016394973 1.3760053e-05 5.4779342e-05 0.00020616516
000020 50 d0 b5 3b 15 fc 60 3c f6 38 23 38 89 17 77 38
       0.0055485144 0.013731976 3.8915277e-05 5.8911308e-05
000030 77 68 3c 3a 76 6e 0b 3c e6 de f1 3c b6 52 4f 35
       0.00071871973 0.008510223 0.029525232 7.723387e-07
000040 17 3a 88 37 f4 01 00 00 00 00 00 00 f4 01 00 00
       1.6239514e-05 7e-43 0.0 7e-43
000050 64 bd 95 37 77 ff a4 38 6a 4b 11 39 9f 02 0e 3b
       1.7850376e-05 7.8677134e-05 0.00013856372 0.0021669043
000060 ad 18 19 3c ec ff 8e 35 82 a1 a9 36 ee d1 7d 37
       0.009344262 1.0654308e-06 5.0553945e-06 1.5128853e-05
000070 c4 17 8f 36 73 fb 8c 3a b6 63 81 37 99 aa 7a 38
       4.264499e-06 0.001075609 1.542443e-05 5.9763526e-05
000080 35 3f 5b 39 08 2a 90 3b de 06 31 3c ff 9f 13 37
       0.00020909014 0.0043995418 0.01080486 8.799135e-06
000090 03 25 f2 37 51 be 09 39 0c 58 a8 3b e1 27 40 3b
       2.8865883e-05 0.00013136237 0.005137449 0.0029320645
0000a0 2f 75 75 35 03 be ba 36 a5 c2 a4 37 6f 80 1b 39
       9.1440137e-07 5.5653522e-06 1.9640962e-05 0.00014829797
0000b0 f4 01 00 00 3d f4 da 2d ef b0 15 2f 8f a4 b5 30
       7e-43 2.4892194e-11 1.361433e-10 1.3216254e-09
0000c0 5b 87 37 27 d5 87 d0 33 3a a3 de 36 1a a7 3b 37
       2.5469728e-15 9.7104625e-08 6.6351176e-06 1.1184975e-05
0000d0 90 3f 95 38 cd 60 1d 3b 43 2c 94 3b 6a 3d d3 36
       7.116713e-05 0.0024013997 0.004521878 6.2954396e-06
0000e0 f0 b4 7d 37 f7 22 e4 36 74 74 4d 36 d1 76 b7 3a
       1.5122103e-05 6.799e-06 3.0615165e-06 0.0013997202
0000f0 ac 2d 97 36 61 e4 8e 37 82 02 3c 39 f4 01 00 00
       4.5054676e-06 1.7034066e-05 0.00017930011 7e-43
000100 cf 9e 30 3c f7 79 41 37 3f 05 98 38 fb b6 6d 39
       0.01078005 1.1532094e-05 7.248902e-05 0.00022670247
000110 2b 66 2a 3b fe 49 72 3c f4 01 00 00 f4 01 00 00
       0.0026000838 0.014788149 7e-43 7e-43
000120 00 00 00 00 00 00 00 00 00 00 00 00 f4 01 00 00
       0.0 0.0 0.0 7e-43
000130 f4 01 00 00 f4 01 00 00 f4 01 00 00 f4 01 00 00
       7e-43 7e-43 7e-43 7e-43
000140 58 9c bb 35 7f 3f a3 37 f7 5b 1d 38 f4 01 00 00
       1.3978088e-06 1.9460682e-05 3.7517366e-05 7e-43
000150 0f 52 72 3b ad 59 77 36 73 b4 15 37 99 56 8e 38
       0.003697518 3.6858066e-06 8.923106e-06 6.787218e-05
000160 d0 19 a6 3a 4e 61 a2 39 8c 7d ba 37 87 0a d4 38
       0.0012672488 0.00030971545 2.223139e-05 0.000101109086
000170 16 63 a2 39 40 7b b8 3b b8 bf c5 3c c7 06 a2 39
       0.00030972873 0.005629927 0.02413927 0.00030904097
000180 89 96 c6 39 89 cb 55 3b eb fb b7 3d c0 02 44 3e
       0.0003787766 0.0032622537 0.089835964 0.19141674
000190 0b dc 25 35 5b 7d ed 35 75 56 91 37 34 e0 31 39
       6.1787495e-07 1.7694359e-06 1.7325607e-05 0.00016963558
0001a0 ac 3b c7 3a 93 44 96 34 48 42 6d 37 72 4f 16 38
       0.0015200279 2.7989572e-07 1.4141733e-05 3.5836776e-05
0001b0 b6 07 83 2f fa 5f ca 39 c3 93 08 14 7b 62 b5 14
       2.383424e-10 0.0003859995 6.895386e-27 1.8315173e-26
0001c0 f0 09 a7 16 45 8d a6 18 a4 78 d9 15 48 10 5d 36
       2.6986577e-25 4.305264e-24 8.783594e-26 3.2941043e-06
0001d0 a3 74 14 38 4d c7 0e 38 ac 80 06 3a b7 12 16 34
       3.5394576e-05 3.404105e-05 0.0005130868 1.3976647e-07
0001e0 2b 66 1e 36 29 d2 12 37 f9 27 cb 37 e2 da 6c 36
       2.3603304e-06 8.75121e-06 2.42181e-05 3.5294147e-06
0001f0 bb a6 35 3a 28 46 60 37 db 11 df 37 65 3f 3d 39
       0.0006929447 1.3367775e-05 2.6591986e-05 0.00018048061
000200 d1 b7 bd 3a 1e 5f 1c 3b c0 cf 6d 35 a7 38 49 36
       0.0014474337 0.0023860405 8.8591696e-07 2.998431e-06
000210 64 17 d3 32 39 c3 1f 39 f0 e0 83 33 4d 28 14 38
       2.457427e-08 0.00015236148 6.141079e-08 3.5323483e-05
000220 d4 c6 2f 39 ae 92 b1 39 9d 06 1c 3c bb 44 84 3c
       0.0001676337 0.00033869356 0.009523061 0.016146054
000230 a8 a7 a4 34 87 21 bc 34 f4 01 00 00 16 ec 49 0c
       3.0669366e-07 3.5042123e-07 7e-43 1.5555521e-31
000240 f4 01 00 00 1f 25 a8 34 28 fd 84 35 14 d1 84 35
       7e-43 3.1319448e-07 9.908445e-07 9.895616e-07
000250 fe d7 bc 38 72 0a bc 32 85 e4 2e 39 c3 b7 26 39
       9.00477e-05 2.189083e-08 0.00016679063 0.0001589945
000260 6c 3a aa 3a b7 bf 32 3d c7 e3 c1 3d fc 78 b6 37
       0.0012987382 0.043639865 0.09467273 2.1752428e-05
000270 52 62 01 39 30 c8 0b 3a cc 21 8e 3b 38 e0 c0 3c
       0.00012339026 0.00053322595 0.004337525 0.023544416
000280 5e 91 2a 37 ed 12 45 39 1f 28 a9 39 39 c3 3a 3b
       1.0166636e-05 0.00018794434 0.00032264084 0.002849771
000290 fc 8b a3 3c 13 ac 7e 0a 14 b6 96 0b bd d2 19 0d
       0.01996421 1.2262019e-32 5.805186e-32 4.740043e-31
0002a0 07 d8 05 0b 7a 78 2e 0b 2e 24 8b 35 77 4d cf 36
       2.577739e-32 3.3601818e-32 1.0366837e-06 6.178099e-06
0002b0 29 bb 9c 37 91 17 09 39 f4 01 00 00 85 99 b0 36
       1.8683802e-05 0.00013074117 7e-43 5.2630808e-06
0002c0 fd a1 34 37 8f 8e 6c 38 09 8f 9d 3a e2 32 c5 2b
       1.0766552e-05 5.6399553e-05 0.0012020777 1.4011815e-12
0002d0 8e 0b b7 38 f7 7b 11 39 64 fd 9a 3a af 65 ab 3c
       8.728272e-05 0.00013874458 0.0011824784 0.02092251
0002e0 14 88 6c 3d 2a 06 68 34 f8 e5 0d 36 78 51 ad 35
       0.05774696 2.1608926e-07 2.1144497e-06 1.2913215e-06
0002f0 00 00 00 00 ee 95 03 20 61 3c 12 35 1f c1 af 36
       0.0 1.1145739e-19 5.44771e-07 5.2378887e-06
000300 ba 67 7d 37 cc 11 42 3a cb 92 7a 3a 73 ea a3 38
       1.5104126e-05 0.00074031646 0.0009558617 7.816115e-05
000310 4f fa 1f 3a 20 cb 67 3a 9d 1a 3c 3c 67 78 8c 3d
       0.00061026675 0.00088422187 0.0114809545 0.068589024
000320 b7 5d 9d 37 f7 9b 48 38 b0 d6 9b 39 f4 01 00 00
       1.8759498e-05 4.782897e-05 0.00029723858 7e-43
000330 0e e3 04 3c 52 e4 cb 35 e3 1e 01 37 f5 0a 13 38
       0.008110775 1.5191129e-06 7.696191e-06 3.5057736e-05
000340 83 7f bf 31 d4 75 3b 3b 98 59 0b 37 31 b2 2c 38
       5.573328e-09 0.0028604167 8.305906e-06 4.117395e-05
000350 23 12 5f 38 da 7d 10 3b 9f 2f c3 3b 00 00 00 00
       5.3184234e-05 0.002204767 0.0059566046 0.0
000360 00 00 00 00 00 00 00 00 00 00 00 00 00 00 00 00
       0.0 0.0 0.0 0.0
000370 35 78 ec 35 f4 3d 89 38 2c 0f 5d 39 13 36 55 00
       1.7618355e-06 6.544209e-05 0.00021081854 7.825415e-39
000380 cb ae 06 39 b1 aa b7 37 70 a9 ce 38 04 cd 2b 39
       0.00012844351 2.1894784e-05 9.854406e-05 0.00016384205
000390 f0 02 6c 3b eb 30 49 3c dd ff 44 37 dc 2a c4 38
       0.0036012493 0.012279729 1.1742083e-05 9.3539915e-05
0003a0 0c a2 03 3a 59 f4 8e 3b a6 9f 6b 3c 25 45 c4 0a
       0.00050214 0.0043626246 0.014381325 1.8900123e-32
0003b0 3f db a6 0d 15 8d 0d 0e 50 04 c4 0f 59 a8 ef 0c
       1.0283321e-30 1.744752e-30 1.9328753e-29 3.69251e-31
0003c0 88 ca ba 37 58 b8 83 38 0a 83 d1 39 e6 0d 18 30
       2.2267239e-05 6.2809035e-05 0.00039961218 5.531703e-10
0003d0 92 d3 94 3c a2 d3 2c 03 99 75 14 05 5e eb a8 05
       0.01816729 5.07892e-37 6.980526e-36 1.5885104e-35
0003e0 f4 01 00 00 32 06 fe 08 00 00 00 00 00 00 00 00
       7e-43 1.5288525e-33 0.0 0.0
0003f0 00 00 00 00 00 00 00 00 00 00 00 00 64 bd 0e 35
       0.0 0.0 0.0 5.317472e-07
