save/new5.pt (torch_old, 360462 bytes, 18 tensors)

fc1.weight f4 [230, 7]
00000000: 7a8f 01bf c219 103e 3d50 11bf 0613 c13e
00000010: 65f0 23be 6573 6a3e 8552 21be 88b7 ef3c
00000020: 8997 e9bd ad68 2f3e 79e4 8ebd 39f3 17bd
00000030: c115 8b3e f20a 833c d507 f7bd 3c62 e63d
00000040: 9b6c dcbe a5be 8ebf e1e7 553e 7a3a e23d
00000050: 1f0b 6c3d e9bb 91be 55f6 aabe bbd6 51be
00000060: dd36 6ebf 267e 973d c4a1 c7be 510a 833e
00000070: c8f5 d1be c386 a13e deb8 5bbe c566 2ebe
00000080: 2073 523d 0087 fbbe 202c 0fbe eba7 fb3d
00000090: 786c 17bf 871a 053e 4a7b d5be dc7b 2b3e
000000a0: 2056 82be 8a92 8e3e ac63 0bbe 3eab a93d
000000b0: ac6f 203e 7b6d 71bf 4534 60bc 01c6 7a3e
000000c0: 16b1 efbc 21dc ddbe a1b4 0bbf 9c58 7cbe
000000d0: b70d 4dbc 8a9b 933c d1ab b8be 360c 763e
000000e0: a90b 65bd a6ce 3bbd 268a ab3e 6c7c 573d
000000f0: 73eb 2139 b2c2 8cbe 0ed7 d7bd 170c 273e
00000100: 0a29 4d3e 2ea1 e4bc 70e9 353e aa17 d1bd
00000110: 5b96 00bf 25de 8c3b 6745 6fbe e3dc 40be
00000120: 8c6b 113f 4eb6 77bf 1b2e 463e 4047 30be
00000130: 5a69 c83d 0acb aabf 070f 823e 9950 9c3d
00000140: 30f9 193f fa62 f7bd 0222 bdbd 8fcd d03c
00000150: d237 3cbb 713e 13bf 44b8 89bf 9388 023d
00000160: f0d0 f73b 28da 90be 07a7 5e3e 10aa 30be
00000170: 2d17 0ebe a0de 88bd b9ef 003e a891 343e
00000180: 0a6f 1cbc e136 ef3d e300 823e 1e99 bd3e
00000190: 7ee5 da3d e492 10bf 70c7 ad3e f166 903d
000001a0: 4684 09be e805 ca3d 34d8 82be 15f7 703d
000001b0: c9d7 bebe 3449 543e bde0 91be eedf 5dbe
000001c0: d119 ccbd cf9e 63be a864 853f 9be5 2e3f
000001d0: f5ae 8b3c c87d bc3d d0d9 8bbe a012 163e
000001e0: 9a45 833e 514c 283e 282e 3b3e 8725 113d
000001f0: c7da 10bf 3143 433c 2120 f43d 2993 22bf
00000200: c19a 3dbe 8e82 be3d b4e4 8f3c efd5 39be
00000210: e1f4 42bd 0043 4abe 446a a23d dcd8 41be
00000220: cd6a 38bf efe7 d73d 2f09 d1be 8e9a 063e
00000230: 2eaf 89bf 710e dd3e 7426 fe3e 96cf cf3b
00000240: c015 aabe 71f1 87be 6848 46bd 5cc7 9ebd
00000250: adba 5839 df50 c83c 0d24 893e 941b c63c
00000260: 0480 0ebc 0c7a 173e de12 53be 0ab7 85be
00000270: 0aef aa3e 6f30 5cbf de9b 063f 54fc bfbd
00000280: 6b22 e8bc 3ddf 023d 7c59 76bd fa12 0ebd
00000290: c866 aebe b5a4 f8bd f338 68be c1f8 8ebd
000002a0: b5ce f53c b2f6 a3bd c544 cc3a a944 1abf
000002b0: 7fca dd3c ef31 823e a926 623c 5259 7bbd
000002c0: 9111 9e3d de5c 0e3f fb7f 9bbf 59f6 75be
000002d0: 2c72 2d3e 5f09 c8bd c585 61bd 615e 81be
000002e0: b4e9 a7be 10f6 34be acdc 463e e8e3 11bd
000002f0: 5287 c6bd 5443 553d 851d fc3d 199a 8e3e
00000300: da6f 77bf d52f 03be ae21 243e 377e 5cbd
00000310: 07a6 2cbe 0b1f 32bf 9ad3 9cbf 40ef bd3e
00000320: af5b 9a3d aafa c43e 1003 d6be 4432 533e
00000330: 853a dd3e 4c98 15be 7709 143f b79e 3dbd
00000340: 89c1 d7be 7347 17be 7fd3 e4bd 47f9 ee3e
00000350: f942 913c 54b9 043e 881b cabe 7714 c9bd
00000360: fcf2 a2be adc0 24bf 4414 1d3e 643a 193f
00000370: 128f b73e 3a2d ecbc 5bce d8be 760f 2cbf
00000380: c08d 973d 959f 43be eca5 69bd 65cd 1cbe
00000390: 752c 1f3e 55f8 9dbd e8e5 1cbe 303c 1c3e
000003a0: cade babc d3bd a03d 5bc2 1ebf bd00 18bf
000003b0: bc40 80be e589 453e 81c1 c43e f615 0f3f
000003c0: 8322 923e 6cba b33d 2356 35bd f7c1 f5be
000003d0: a5e7 12be 3c3b 1ebe b862 2dbf 2b7b 393e
000003e0: f4e9 f73e a72b dd3d a251 a43d e8c0 d03d
000003f0: 3d9b 2bbe 01a9 853e 79c2 023f 7e0e 3abd
-0.5060955 0.14072326 -0.5676306 0.37709826 -0.16009672 0.22895582 -0.15754135 0.02926232
-0.11405856 0.17129774 -0.069771715 -0.03709719 0.27165034 0.01599643 -0.12062041 0.112492055
-0.4305161 -1.115193 0.20889236 0.1104631 0.057627793 -0.28463677 -0.3339106 -0.2049207
-0.93052465 0.07397108 -0.38990605 0.25593808 -0.4100783 0.31548128 -0.2145724 -0.17031391
0.051379323 -0.49126434 -0.13981676 0.12287887 -0.59149885 0.129984 -0.41695625 0.16746467
-0.25456333 0.27846175 -0.1361224 0.08284615 0.156676 -0.9430768 -0.013684337 0.24489595
-0.029259246 -0.43332008 -0.5457249 -0.24643177 -0.012515477 0.018018503 -0.36068586 0.24028096
-0.055919323 -0.045851372 0.33503836 0.052608892 0.00015441868 -0.2749229 -0.10539065 0.16313206
0.20035186 -0.027908888 0.1776483 -0.10209592 -0.50229424 0.0042989426 -0.23366319 -0.18834262
0.5680473 -0.9676255 0.19353525 -0.1721468 0.09785719 -1.3343213 0.2540209 0.0763256
0.60145855 -0.12079425 -0.09235002 0.025488643 -0.0028719795 -0.57517153 -1.0759358 0.03186853
0.007562749 -0.2829144 0.21743403 -0.17252374 -0.13876028 -0.06683087 0.12591447 0.17633688
-0.009547958 0.11680389 0.25391302 0.37030882 0.106883034 -0.5647414 0.3394122 0.070508845
-0.13429365 0.09864408 -0.25555575 0.058829386 -0.37274006 0.2073105 -0.28491774 -0.21667454
-0.099658616 -0.2222855 1.0421343 0.683191 0.0170512 0.09203678 -0.27314615 0.14655542
0.2563904 0.16435362 0.18279326 0.03543618 -0.5658383 0.011917875 0.119201906 -0.635058
-0.18516065 0.09302245 0.017565109 -0.18148015 -0.047596816 -0.19752121 0.07930425 -0.18930382
-0.72037965 0.10542285 -0.4082732 0.13144895 -1.0756586 0.4317508 0.49638712 0.006341885
-0.3321972 -0.26551393 -0.048408896 -0.077528685 0.00020668907 0.024452625 0.26785317 0.024183072
-0.0086975135 0.14792651 -0.20612666 -0.2611621 0.33385497 -0.86011404 0.52581584 -0.093743
-0.028336724 0.031951178 -0.060143933 -0.034686066 -0.3406279 -0.121407904 -0.22677974 -0.0698104
0.030005792 -0.08006038 0.001558446 -0.6026102 0.027074097 0.2542872 0.013803163 -0.06136448
0.07718194 0.55610454 -1.2148432 -0.24019755 0.16938084 -0.097674124 -0.055059213 -0.25267318
-0.3279549 -0.1767199 0.19420117 -0.03561774 -0.09693779 0.052066162 0.12310318 0.27851942
-0.96655047 -0.12811215 0.16028473 -0.053831305 -0.1686021 -0.6957862 -1.2252076 0.37096596
0.075370185 0.38472492 -0.41799212 0.20624644 0.4320871 -0.14608878 0.5782694 -0.04629394
-0.42139843 -0.1477335 -0.11173152 0.4667456 0.01773213 0.12961322 -0.3947413 -0.098183565
-0.31826007 -0.643565 0.15339762 0.5985472 0.3585134 -0.02883016 -0.42344937 -0.6721109
0.074000835 -0.19103844 -0.057043 -0.15312727 0.15544303 -0.07713381 -0.15322077 0.15257335
-0.022811312 0.07848706 -0.6201531 -0.59376127 -0.25049388 0.19290884 0.38428882 0.55892885
0.28541955 0.087757915 -0.0442716 -0.47999546 -0.14346178 -0.15452284 -0.6772876 0.18113391
0.4842068 0.10799342 0.08023383 0.10193044 -0.16758437 0.26105502 0.5107799 -0.045423977

fc1.bias f4 [230]
00000000: 6ab5 70be 3931 43bf cd45 213b 8fd2 0bbf
00000010: b201 f33d fad8 a5be 1d6d 0ebf 950a de3c
00000020: 5d5a 1dbd fbaf 95be a56d ad3e 8b50 40bd
00000030: 4e9e e73d 16de 83be f639 e0be f619 fa3c
00000040: 39f7 0abd 475a 463e 1c06 e0be 6fed e6bd
00000050: d606 273e 514b 20bf 27fc cb3e 7238 303f
00000060: a6d1 18bf 9012 00be 1755 02bc a7a9 b6be
00000070: 3967 553d 8630 1b3e 7b0e 8a3e 0c0f d63d
00000080: 1c0b bebe 3bc6 c8be c3bf 863e 545c 56be
00000090: 0daf 0c3e b48f 923e 7e89 233e 25c2 b93e
000000a0: aa26 cdbe edc0 59be 2d49 a33d 8a57 a5be
000000b0: c442 fa3e 4533 6dbe 0e40 14bf 4f45 363e
000000c0: f0e7 f6be ae87 c5be 4acc d4be 4f3a 36be
000000d0: eb2d 4c3a 0102 2cbe 9a0f bbbe 3384 683e
000000e0: 3f08 69bd 2965 21be e66d 4ebe d66d aebe
000000f0: 3844 70be e40b 59be 6e71 00bf c284 c43c
00000100: bb1f 9fbe 05f1 4bbe 35b0 92be 9b89 893c
00000110: ab6d 113d 0097 63be 3a1d 9d3e a48a dabe
00000120: 4f4b 2bbf ee96 7fbe 5621 97be 445d d2bc
00000130: 1316 8f3d 26c0 e03e 537a 413e 1333 113f
00000140: ded7 bcbe 6fd8 39be 3877 03bf 1cc0 7c3e
00000150: ca72 b6be 2cc0 b5bd 1d90 6ebe 4e79 94be
00000160: d995 163f b25a 143e 3909 23be e4a6 db3e
00000170: 8408 06bf ee6f 223f e0ba ba3e ef81 1cbc
00000180: fbdd cf3e 60ac b1be df22 76be a09d 02bf
00000190: 4fe4 993c a8ea a2be 6ad0 b8be c185 1fbf
000001a0: 2c86 28bf 516b 6c3e fe16 c5be a97a 5b3e
000001b0: aa34 b43e c257 5bbf 8bf5 38bf f22b 8b3c
000001c0: 5914 50bf 29e5 6abe 3217 2fbe b005 0f3f
000001d0: 2527 0cbf f034 0b3f 3e2c 2e3e 46f9 53bc
000001e0: 497a 3ebe 928f 9abe 950b 76be 07bd bdbe
000001f0: 0ac2 19bf 0595 bd3d d190 e7bd fa1f 213d
00000200: d022 81bd 35fe 913d d8a3 6bbe 93f8 3dbc
00000210: 4756 e5be d6ed 07bf 192c 633d da92 7a3e
00000220: 1e2d 83be 8547 6e3c 01a2 de3e 3039 bb3e
00000230: a226 22be 3950 323e 6b7c 3ebf 57e0 2b3e
00000240: c318 0cbf ce58 af3b 793e afbe 7cbf 3abf
00000250: a681 173e 223a f8be 416c 0f3f 7675 27bf
00000260: a665 c6be 6a22 953e f7d5 51be fbeb 113f
00000270: fda9 aabe 0505 59be 1d13 343e 6261 9dbd
00000280: 692d 8fbe a4bd fd3d 7c45 87be 7964 d2be
00000290: 2c48 aabd a225 9cbe c0e6 b9be a20e e3bc
000002a0: 9951 f73e 5465 41bf ca9d a9be 25a7 45bf
000002b0: 5a32 08be b37b 323e 359f a2be bd91 423d
000002c0: c3d5 dbbd 02ae 5fbe 62cb 9bbe 748a c93e
000002d0: c210 243f daf4 9fbc b005 76bd 845c bfbe
000002e0: 6ebf 023e 6bbd 20be 8564 4ebf 9b04 b6be
000002f0: 2e65 c4be e448 f9bd d8cb 58bf d5ee 0bbf
00000300: 10cd 6bbf b272 c93e f620 c0be d48b ffbe
00000310: c82f 923e d927 fdbc 3ef0 1dbe 1535 a73e
00000320: dbd9 0ebe 4448 883e dec7 ae3c a30e 6ebe
00000330: 4665 e53d 113f f3be b157 a5be a1a6 5f3e
00000340: 2328 42bf 92e5 e0be 0715 493e 4d62 d6be
00000350: 1b79 333e 5f1a c3be c6ff a43e de14 003f
00000360: 34a3 c0bc 3fd0 593e e041 a0be caaf 9a3e
00000370: 1b33 f5be 6a46 213f aef5 eb3e 92be 063e
00000380: 48b9 c43e 1f25 a2bd c55d 10be c345 6dbd
00000390: 95b9 1d3f 820f 9fbe
-0.23506704 -0.7624698 0.0024608255 -0.5461816 0.11865558 -0.32392102 -0.55635244 0.027104655
-0.038416255 -0.29235825 0.33872715 -0.04695181 0.11309491 -0.25755376 -0.4379422 0.030529957
-0.033927176 0.19370376 -0.4375466 -0.112757556 0.16311201 -0.62614924 0.39840814 0.6883613
-0.596949 -0.12507081 -0.007954857 -0.3567631 0.052100394 0.15155229 0.26964173 0.10452089
-0.3711785 -0.39213738 0.26318178 -0.20933658 0.13738652 0.28625262 0.15970418 0.36280933
-0.4006856 -0.21265002 0.079729415 -0.3229335 0.48879063 -0.23164089 -0.5791024 0.17799877
-0.4822383 -0.38580078 -0.4156211 -0.1779568 0.0007788825 -0.1679764 -0.3653534 0.2270668
-0.05689263 -0.15761246 -0.2015911 -0.34068173 -0.23463523 -0.21195942 -0.5017308 0.023989085
-0.31078896 -0.1991616 -0.2865006 0.016789248 0.03550498 -0.2222557 0.3068636 -0.426839
-0.66911787 -0.24959919 -0.2951762 -0.025679238 0.06986632 0.43896598 0.18894319 0.5671856
-0.36883444 -0.18148969 -0.5135379 0.24682659 -0.35634452 -0.088745445 -0.23297162 -0.28998798
0.588224 0.14487723 -0.15921487 0.42900765 -0.52356744 0.6345204 0.364707 -0.009552463
0.40599045 -0.34701824 -0.2403674 -0.51021767 0.018785624 -0.31819654 -0.36096507 -0.6231347
-0.6582973 0.23087813 -0.38494104 0.2143351 0.3519643 -0.8568078 -0.7224967 0.016988728
-0.8128105 -0.2293898 -0.17098692 0.55868053 -0.5474723 0.5437765 0.17009065 -0.012937849
-0.18601336 -0.3018766 -0.24027856 -0.3705828 -0.60061705 0.09256939 -0.113069184 0.039337136
-0.06305468 0.07128564 -0.2301172 -0.011594909 -0.44792387 -0.53097284 0.055461977 0.24470082
-0.2562036 0.014543419 0.43482974 0.36567068 -0.1583505 0.17413415 -0.74408597 0.16784798
-0.54725283 0.0053511625 -0.3422735 -0.7294843 0.1479555 -0.48481852 0.5602456 -0.65413606
-0.38749427 0.29127818 -0.20491777 0.570007 -0.33332816 -0.21193321 0.17585416 -0.0768459
-0.27964333 0.12389687 -0.264202 -0.4109228 -0.08314547 -0.30497462 -0.3630886 -0.027716938
0.48304442 -0.7554524 -0.33128196 -0.7720817 -0.13300458 0.1743 -0.3176209 0.047502268
-0.10734131 -0.21843722 -0.30428606 0.39363444 0.6408807 -0.019525934 -0.060064018 -0.3737527
0.12768337 -0.15697257 -0.8062213 -0.3555039 -0.38358444 -0.12172106 -0.8468604 -0.54661304
-0.92109776 0.39345318 -0.37525147 -0.49911368 0.2855208 -0.03090279 -0.15423676 0.32657686
-0.13950293 0.26617634 0.021335538 -0.23247771 0.11200957 -0.47509053 -0.32293466 0.21840908
-0.75842494 -0.43925148 0.19636928 -0.41871873 0.17526667 -0.38106057 0.3222639 0.5003184
-0.023515321 0.21270846 -0.3130026 0.3021224 -0.47890553 0.6299807 0.46085876 0.13158634
0.38422608 -0.079172365 -0.1409827 -0.057927858 0.616113 -0.3106652

fc2.weight f4 [120, 230]
00000000: 4215 2dbe 1b22 50be 959b 92bd cdee 5e3e
00000010: d12b 6e3e 7549 283d e321 cbbd 04ef a43d
00000020: ae8c 34bc 322c 22bd 802b 3a3e 7d0c c3bd
00000030: 4c93 2abd 65eb 8dbd c832 b5be c2c4 b0bd
00000040: 00fb 17be da42 08be 6906 3a3d 9838 a23c
00000050: a83e ce3d 4e0b 88be 8487 073f 45e1 d4bd
00000060: beb4 e33d 32a5 2d3f 681e 033d 5ea6 0c3f
00000070: 1f09 583e b438 0d3d 6337 89bd cd98 7d3e
00000080: 5985 863d 93ae fc3c c2f8 3a3e 26fb fbbe
00000090: 3d56 b5bd 1361 3dbd 301a 3bbe 0f6b dd3e
000000a0: e353 f6bc b542 79be 9556 633b dbee 963b
000000b0: 0da6 0abd 6bde 5a3e bb43 223d 3f03 693d
000000c0: 3253 debd c9f9 17be 8438 4a3e 5267 403d
000000d0: 5fc0 6a3e 12ee 2d3d 3e88 7cbe 2d67 dd3d
000000e0: 4610 f7be 9a17 9bbb ed9b 39be 7cc4 5fbc
000000f0: 09a9 fd3e b13f 493e 7e53 1c3d 67e3 b1be
00000100: acdf 143d 09be 393e 2dee 88bc 5096 6dbd
00000110: cfd8 18bd 69cc 0d3d 4af6 333f 8019 d8bc
00000120: 2970 22be 2b69 3d3d a8c4 a63b c011 a0be
00000130: a337 00be 6444 8fbe a9f2 8b3e 9251 543e
00000140: 0b0f 403e 77d0 af3e ade8 0d3e c146 47bd
00000150: fb17 d13e 7092 2fbd 289f d6bd c65b ba3e
00000160: bc5c 4f3d 569d 523e b189 31be b01c 4cbe
00000170: 20ce be3e c935 5cbb 4546 34bd 533a f83d
00000180: 418b 86be 62d5 233e 808a aeba 50a3 b5be
00000190: 6a47 f53d edc5 613e b076 a03e e1e2 9cbe
000001a0: 1a8d 0dbf da25 543c 4ee3 1c3c cfb7 b0bd
000001b0: 68d8 543c 3274 54bc a859 a23e f8e2 0abe
000001c0: 4d59 dcbe 58d6 37be 26c0 85bc 0c37 bebe
000001d0: 9053 cb3e 8079 cdbd f50f 9a3b 83c5 a53d
000001e0: 6dfd 5e3c eab6 b9bc 6faa aebe e515 993e
000001f0: b816 25be b6d8 eabd 174a c3be 4402 f2bd
00000200: 3730 ed3d eb0c 4fbe a03b 3f3d 0300 ebbd
00000210: d5b9 25bc 3c96 cb3e 52e1 a4bd 00a3 ae3b
00000220: 41f4 00be cdb8 0f3e b3c8 c43b 73e9 dbbd
00000230: c5b2 d33d d09d 15bd de5f a73d e321 c4be
00000240: 1cfe b6bd a3d6 d2bc aecf 7c3f abf6 333e
00000250: 8aca acbd 7ad4 ebbd 5150 eebd 4ad7 bd3e
00000260: 7aba 823e ef5d bc3e a058 973c a629 63bc
00000270: 1365 fa3d fceb e83c d470 92be 873b 643e
00000280: daeb 1ebe fa68 81be 5bcd 39be c68b 83bd
00000290: 0c0f fabd b2c0 17bc ad22 c73e 8821 593f
000002a0: d585 07bd 3147 0fbe 1d75 d5bd f68b a4bd
000002b0: 1e61 053d 5f8a eabd 9fbb 7a3e 9f39 10bd
000002c0: 99bb c43d d83a bdbd fa5a 423d 40c3 f83d
000002d0: 9574 afbb 7436 17be fce5 afbc 6528 5e3e
000002e0: b688 febc 3e06 703d bd9c 7bbd dd9b 2b3b
000002f0: 047e bbbd 2c2b ce3c 3447 bf3d fa81 df3e
00000300: d69d 6fbe e566 33bd 81a3 9c3d e84d 0fbe
00000310: 4338 1ebe 0b67 95be 4d2c 973d b460 2ebe
00000320: 9579 4abd 5937 f3bb e156 bdbc f3c5 3fbd
00000330: 5d53 4d3d 6d0b f23c 80c0 dd3a ec84 c1bd
00000340: f13c 1dbd 2a79 063f 4859 943d 8d08 06bf
00000350: bf70 7ebd 6440 eabd 3d1c 393f e7de e1be
00000360: 4fc0 863e 6347 3e3e c43e 713d a808 dd3c
00000370: dbba cdbd 1433 8d3d 83af 2cbe 3982 523d
00000380: b926 a33c 1ee1 483f d726 b4bd a749 b5be
00000390: e2d2 cc3d 0cae 3ebc 6560 17bd aba2 5ebd
000003a0: 0947 043a 2634 fa3e 867d 963e 4bee bd3d
000003b0: 3a57 273e a242 ce3d a9c6 563d 6f8c c93d
000003c0: f0a2 073e 5b2f 7b3c ba53 453d 2a08 f23c
000003d0: 2c00 84be e876 7e3d 922b 9fbe c658 bd3a
000003e0: 27a8 843b ab86 e43d e083 353e b13e a1bb
000003f0: 1686 1a3f 4111 7dbd 4e88 2c3e d209 023f
-0.1690264 -0.2032551 -0.07158581 0.21770783 0.23258902 0.04108568 -0.09918573 0.08053401
-0.011019869 -0.03959293 0.18180656 -0.09523866 -0.04164438 -0.069296636 -0.35390306 -0.086312786
-0.14841843 -0.13306752 0.04541627 0.019802377 0.100705445 -0.26571125 0.52941155 -0.10394529
0.11118458 0.67830193 0.03201142 0.54941356 0.2109723 0.034477904 -0.06700017 0.2476532
0.06568403 0.030844962 0.18258956 -0.4921505 -0.08854339 -0.046235155 -0.18271708 0.43245742
-0.030069297 -0.24341853 0.0034689058 0.0046061105 -0.033849765 0.21373908 0.039615374 0.05688786
-0.10855712 -0.14841379 0.19748122 0.046973534 0.22924946 0.04246337 -0.24661347 0.10810695
-0.48254603 -0.004733038 -0.18125887 -0.013657685 0.49543026 0.19653203 0.03816556 -0.34743807
0.036346123 0.18138899 -0.016715134 -0.058004677 -0.03731614 0.03461877 0.7029768 -0.026379347
-0.15863098 0.046242874 0.005089361 -0.31263542 -0.12521224 -0.27981865 0.27333573 0.20734242
0.18755738 0.34338734 0.1385829 -0.04865146 0.40838608 -0.042864263 -0.104795754 0.36398143
0.050625548 0.20567831 -0.17337681 -0.19932818 0.37266636 -0.0033601394 -0.044012327 0.121204995
-0.26278117 0.15999368 -0.0013316423 -0.3547616 0.11976512 0.22048159 0.3134055 -0.30641845
-0.5529343 0.012948478 0.009575678 -0.08628809 0.012991048 -0.012967156 0.31709027 -0.13563144
-0.4303688 -0.1795286 -0.016326975 -0.37151372 0.3971219 -0.1003294 0.0047016093 0.08094313
0.013610226 -0.022670228 -0.34114406 0.29899517 -0.16121948 -0.114671156 -0.38142464 -0.118168384
0.11581462 -0.20219772 0.046687722 -0.114746116 -0.010115107 0.39763057 -0.08050789 0.0053294897
-0.12593175 0.1403534 0.0060053705 -0.10737886 0.10336832 -0.036527455 0.08172582 -0.38307104
-0.08935186 -0.025737112 0.98754394 0.17574565 -0.08437069 -0.11515136 -0.11636413 0.37078315
0.25532895 0.36790416 0.018474877 -0.01386491 0.122263096 0.028432839 -0.28601706 0.22288333
-0.15519658 -0.25275403 -0.18144743 -0.06423144 -0.12209901 -0.009262251 0.38893643 0.8481679
-0.033086617 -0.13992001 -0.10422728 -0.08034508 0.03256332 -0.114521734 0.24485634 -0.0352112
0.09606094 -0.09239739 0.047450043 0.12146616 -0.005354474 -0.14766866 -0.02147197 0.21695097
-0.031071048 0.058599703 -0.061428774 0.002618543 -0.09154895 0.02516707 0.09339753 0.43653852
-0.23400053 -0.0437993 0.076483734 -0.13994563 -0.1545115 -0.29180178 0.073814966 -0.17029077
-0.049432356 -0.0074223694 -0.023112716 -0.04681964 0.05012833 0.029546464 0.0016918331 -0.09449181
-0.038388196 0.5252863 0.072435915 -0.523568 -0.06211924 -0.11438063 0.72308713 -0.44115373
0.26318595 0.1858192 0.05889775 0.026981667 -0.100454055 0.06894508 -0.16863827 0.05139372
0.019915925 0.784685 -0.087964706 -0.35407755 0.1000116 -0.011638176 -0.036957163 -0.05435435
0.00050459855 0.4886791 0.29392642 0.092739664 0.16341868 0.10071303 0.05243555 0.09841239
0.1324575 0.015331115 0.04817555 0.029544909 -0.2578138 0.062125117 -0.3108793 0.0014446012
0.0040483656 0.111584984 0.17726088 -0.0049208035 0.6036085 -0.061784033 0.16848871 0.50796235

fc2.bias f4 [120]
00000000: c63f e3bd d5ed a6bd 9b9a cc3e a483 80bd
00000010: 4ea6 563e 34cf d3bd f4f5 f5bd d4bd 74bd
00000020: f8d0 2cbc 924a db3d 2624 f13e 46eb f5bd
00000030: 6da7 fb3d 844c 90bd 01fd 2d3e 3346 b8bd
00000040: 5ff0 853e d622 9b3e 81ba 7dbc a345 a9bc
00000050: bd71 163e 54ce 16bc eb4f 73be 59ae 853e
00000060: 89cc c4bd 5a8c 493e 85f2 91bd 7a44 a43e
00000070: 3ace 1a3e 782e 03bd ca63 a9bd 1fd0 70bd
00000080: f8c7 b23e e730 b93d 8836 083c 758b 7c3e
00000090: c597 d5bd a077 9ebe 19e0 053e 0628 ed3e
000000a0: 3f73 93be 5047 f7be 2508 bd3e 123a 863e
000000b0: c48d 183c a07f d3bc a8d5 bb3e 671c ecbd
000000c0: fdb0 91bd 46d6 113d 268c 01be 2ec9 e0bd
000000d0: eb6f 9fbe 717d 2b3d 3a55 163e e745 d03d
000000e0: 49a8 003e 4659 653e 95bf c93e a832 05be
000000f0: b936 70be de1c e5ba 1550 3b3e 1638 0a3e
00000100: 434b 2fbe 71cb a13e 9e1d cebd ea2b 223e
00000110: 4363 db3d f8e0 5fbd 61a7 383e 9f68 c53e
00000120: 8340 823e 2008 46be 5ea1 f23d 590a dc3e
00000130: 094c c2be 50bb 2abe 2e8a 343e 46a7 32be
00000140: 32f7 01be ce9c 02be cfc1 a4bd aac5 9cbe
00000150: 59ae 8a3c 86cb 153f ed60 febe efb1 92be
00000160: be6d 523d 4c29 713e d63e d93e 8fb8 ab3c
00000170: 9b41 8c3e bca9 943e 26e1 c23e 7b8c 04be
00000180: f574 e53e 8a37 a3bd 55ad 473e 2894 8cbd
00000190: 8db5 b4be 7c62 823e 0ab7 923e b507 d6be
000001a0: f9e2 af3e 2ffa 39bd 7883 3bbe fd4b 3f3e
000001b0: b79d 9abd ca6f 0d3f 1a1b adbe e77a 5e3e
000001c0: 9ae5 4ebd 6d19 f13d 1f67 fe3d d057 ad3e
000001d0: 7edc 823e 7796 afbd 7e41 653e 9ae1 bc3c
-0.11096148 -0.081508316 0.39961705 -0.062751085 0.20961878 -0.10342255 -0.120098025 -0.059751347
-0.010547869 0.107075825 0.47097892 -0.120077655 0.12287793 -0.07045844 0.16991045 -0.089977644
0.2615995 0.30300015 -0.0154863605 -0.020663088 0.14691825 -0.009204466 -0.23760955 0.2610958
-0.096093245 0.19682446 -0.07126335 0.32083493 0.15117732 -0.032026738 -0.082709864 -0.05879223
0.3491819 0.090425305 0.0083137825 0.24662574 -0.10429338 -0.30950642 0.13073768 0.46319598
-0.28798863 -0.48296595 0.36920276 0.2621618 0.009311143 -0.025817692 0.36686444 -0.11528855
-0.07113836 0.035604738 -0.12651119 -0.10975872 -0.31140074 0.041867677 0.14680949 0.10169583
0.12564196 0.22397336 0.39403978 -0.13007605 -0.23458375 -0.0017479917 0.18292268 0.13497958
-0.17118554 0.31600526 -0.10064243 0.15837064 0.10712292 -0.054657906 0.180326 0.38556382
0.25439844 -0.19339037 0.118471846 0.42976645 -0.37948635 -0.16673017 0.17630836 -0.17446622
-0.12691954 -0.12755129 -0.080447786 -0.30619556 0.016928839 0.5851368 -0.49683324 -0.28651378
0.05137419 0.2355091 0.42430753 0.020962028 0.27393803 0.29035747 0.380624 -0.12944214
0.44815794 -0.079695776 0.19499715 -0.06864196 -0.35294762 0.25465763 0.28655273 -0.41802755
0.34352854 -0.04540461 -0.1831187 0.18681331 -0.07549613 0.552487 -0.3380974 0.21726571
-0.050511934 0.11772428 0.124220125 0.33856058 0.25558847 -0.08573621 0.22388265 0.023056794

fc3.weight f4 [2, 120]
00000000: f0f6 27bc 339c 87bc 5f1d 123e 6cb2 bd3d
00000010: 5940 333d 723e a33d 60a4 86bc 8909 ff3b
00000020: 9519 4fbd 1fd3 c83c 4ea6 fcbe 1d85 83bd
00000030: ad5f fd3d 84fe 383d cd96 073d 208a 1e3d
00000040: 4f4b ce3d 417f 65be fd08 48bc df21 aebc
00000050: 61f7 b7be 9e83 cbbc 128e 6d3d b161 1ebd
00000060: c4d7 433d 9023 1abe 2c64 bebc e95e f7bd
00000070: 4570 bb3d 695b 83be 0cba 8abc 46b5 dcbc
00000080: ec10 8abd 43d9 523d 6546 65ba 06bd 3bbe
00000090: b1bd 083d dc96 b5bc ff7c ac3d 8a91 4fbe
000000a0: e9b7 023e b458 af3d 986a 0c3e 569f 92bd
000000b0: f2db 8c3c caa9 6a3d a511 2bbe 6989 d53c
000000c0: 18cf 0b3d e9f3 4b3d bc54 75bd cb3a b53b
000000d0: e15c 50bd cece 2a3d 9a60 7d3d 7b7c 7b3d
000000e0: ffa7 e5bc d6a9 f53d c0f8 f73d 0500 35bc
000000f0: cad6 4dbd 283b 213b 638c 02be 8fba 6ebe
00000100: df24 8439 7af8 2abd 1bb1 e1bc 2d7b f93d
00000110: fb87 c7be 9947 293c 36ba 9abe 1eb5 38bd
00000120: 37f9 083d 9d5f 3f3d 83d0 883d 7471 17be
00000130: 2809 1dbd 1768 933d ec50 8fbe eb21 d93c
00000140: 86d8 7f3c 1522 bc3c 1894 47bd d441 9f3d
00000150: fdd9 5d3d f7e6 28be 7d0d 43bd a624 833d
00000160: 81b8 0d3e 3177 c33d 10e6 ea3d fa5c 8f3d
00000170: 223d 833e 8795 263d 31a2 d23d 7a4b a6bd
00000180: e502 24be 4e15 22bd ec5c d7bd e109 2abd
00000190: 69e0 27bd 7012 b4bd e03e 07bd 4bd6 ce3d
000001a0: af88 03be 0ad0 6b3d 27bf 2d3d 3a2b 98be
000001b0: b477 253d 016d 81be 292b cf3c 0e42 80be
000001c0: 55d0 95bc 52d7 d43c f219 86bc ed03 1cbe
000001d0: 6058 eebb b377 00bd 5ffa afbd 9ecb ab3d
000001e0: 90dc c03b 3e33 b2bd 89d0 0fbe e857 b93c
000001f0: 2d9d 41bd 7549 973d 5fd8 983b cfe7 2ebe
00000200: b6b3 dfbd e8d1 0abd c1a0 bf3e 638f f1bc
00000210: 86fb b9bd d613 823d 8029 e9bd 2d73 6e3d
00000220: 3ed9 6ebd b56c b23e efb5 0c3d d571 8bbd
00000230: ae02 b73e d086 44bd 76b5 3abd d74e ad3d
00000240: 2bed 0f3d abf2 883e ee7f 29bd 99b3 603e
00000250: c3cd 2abd 401b 563e 3236 85bd f561 633d
00000260: ff51 5d3e 81dc 95ba c0fb 2abd cb6a 993e
00000270: 617b 663d fbb1 b1bc fb43 ee39 8575 033e
00000280: bbd3 ff3c 9ced d93c ac4f 04be 6447 073e
00000290: 66f2 4e3d 8a0c bf3b 2ac7 043e 3dd1 443d
000002a0: af50 2d3c 4abc b2bd e725 46bd f570 8cbd
000002b0: 63a1 98bd 51c1 9cbb 1c75 8fbd 9e79 76bc
000002c0: db2b 9dbd f438 c33c 6961 66bd f2da ab3c
000002d0: e549 71bd 4011 7bbd d139 2a3d b64f 973e
000002e0: ae1c c9bc 93b6 f73d e78f 22bd cf31 cbbd
000002f0: 6726 a73e 8795 c23c 3554 543e 06fd 5f3d
00000300: 094c f0bd 93cb 923d bc7a abbd 69f0 693e
00000310: 2471 6bbd f4bd 8e3a 5a6c 033e ca4f ea3c
00000320: a1ac 313b 3b8f 3fbd 135c e8bc d45e 97bd
00000330: 2567 213c f31c 803e b836 cbbd 2436 3dbd
00000340: 514b 23bd 3940 3fbd 04f8 b9bd 170d 6c3c
00000350: 9d80 68be 69af 8ebd 372e c3bd 301f c2bd
00000360: 983f 4f3e d390 edbc c3e9 a33d 3da6 9abd
00000370: fce8 6abd 5ead be3d 4486 fa3d 68cc 673d
00000380: 8016 423d 5279 05bd c2ad 633d 9069 a03e
00000390: 5b00 9a3c f985 5a3e 79e6 14bd c6ab 7c3e
000003a0: bd16 2ebc 099f bbbd c613 3cbd 88c8 633e
000003b0: 4c92 b0bd a7b2 82bd b453 c13d a1e1 063d
-0.010251746 -0.016553974 0.14269017 0.09262547 0.04376254 0.07970895 -0.016435802 0.007783119
-0.050561506 0.024514733 -0.4934563 -0.06421874 0.12371764 0.0451646 0.0331028 0.038705945
0.10072958 -0.22411825 -0.012209174 -0.021256385 -0.35930923 -0.024843033 0.057996817 -0.038667385
0.047813192 -0.15052629 -0.023241125 -0.120786496 0.09152273 -0.25655678 -0.016934417 -0.026941907
-0.06741509 0.05147673 -0.00087461463 -0.18333825 0.03338403 -0.022166662 0.084222786 -0.20270362
0.12765469 0.08561841 0.13712537 -0.07159297 0.017194722 0.05729083 -0.1670595 0.026066499
0.034133047 0.049793158 -0.059895262 0.0055306903 -0.050869826 0.04170113 0.061859705 0.06139801
-0.028034208 0.11995284 0.12107992 -0.011047368 -0.050253667 0.002460191 -0.12748866 -0.23313354
0.00025204473 -0.041740872 -0.02755027 0.12181697 -0.38970932 0.010332012 -0.30220193 -0.0450946
0.033440795 0.046722043 0.066803955 -0.14789373 -0.03833881 0.07197588 -0.27991426 0.026505431
0.015615588 0.02296547 -0.048725218 0.077762276 0.054162968 -0.16494356 -0.047620285 0.064034745
0.13839914 0.09544218 0.11469662 0.07000156 0.25632578 0.040669944 0.10284842 -0.08119865
-0.16016729 -0.0395711 -0.1051577 -0.041513328 -0.0409855 -0.08792579 -0.033018947 0.10099467
-0.1284511 0.05757145 0.042418625 -0.2972048 0.04039736 -0.25278476 0.025289135 -0.25050396
-0.018287817 0.025981579 -0.016369794 -0.15235873 -0.0072737187 -0.031364154 -0.08592676 0.08388446
0.005885668 -0.0870118 -0.14044394 0.022624925 -0.047269035 0.07387058 0.0046644653 -0.17080615
-0.10922949 -0.03389159 0.37427333 -0.029487317 -0.090811774 0.0635144 -0.113848686 0.05821531
-0.058312647 0.34848562 0.034353193 -0.06808821 0.35744232 -0.04798013 -0.04558321 0.08462303
0.03513829 0.2674764 -0.04138177 0.21943511 -0.041700136 0.20908833 -0.065044776 0.05551334
0.2161331 -0.0011433513 -0.041743994 0.2996429 0.056270007 -0.021691313 0.00045445547 0.12837799
0.03122889 0.026602559 -0.12921017 0.13210827 0.050524138 0.005830352 0.129666 0.048051108
0.0105783185 -0.087273195 -0.04837599 -0.06857482 -0.07452657 -0.0047837873 -0.07004759 -0.015043644
-0.076743804 0.023830868 -0.05624524 0.020978425 -0.058908362 -0.061295748 0.041559044 0.29553002
-0.024549808 0.1209537 -0.039688017 -0.099216096 0.32646486 0.02375294 0.20735247 0.05468466
-0.117332526 0.07167735 -0.08373019 0.22845615 -0.057480946 0.0010890351 0.12834302 0.0286025
0.0027110951 -0.046767455 -0.028364217 -0.07391134 0.009851252 0.25022087 -0.09922546 -0.04619421
-0.03986675 -0.046692107 -0.09080508 0.014407418 -0.22705312 -0.069670506 -0.09530299 -0.09478605
0.20239103 -0.028999722 0.08003571 -0.07551239 -0.057351097 0.09310411 0.122326404 0.05659142
0.04738474 -0.032586403 0.05558563 0.31330538 0.018798998 0.21340169 -0.03635261 0.24674901
-0.010625538 -0.09161193 -0.045917295 0.22244465 -0.08621654 -0.063817315 0.09439793 0.03293002

fc3.bias f4 [2]
00000000: e6f3 c53e af8c cebe
0.38662642 -0.40341708

exp_avg f4 [230, 7]
00000000: 2db8 9d39 b5e6 743b 19ee 2735 38d0 663a
00000010: 2074 663a 167e 033c b7c3 d03b b23f 97bb
00000020: 47ad 0abc d1f6 1eb9 5317 20bb 992f 9d3a
00000030: b114 b7bc 4e82 4fbd 3e72 cc3c 5547 003c
00000040: 2846 a837 278b 943b 56fd bb3b fa3f 963c
00000050: a22a 853d d52d 84ba aad1 07ba e4e6 a8b8
00000060: 2ada 2538 0bfd 04ba 1438 5dba aed4 99bb
00000070: 0e2e 8fb1 313d 38bb ed5f fab9 c5a7 3fb9
00000080: 72c1 efb9 7d57 8aba bc7a 3cba 74a9 d03b
00000090: e941 a43a 7486 153a b46d e33a bcd7 ad3b
000000a0: 9c6d 8f3c 0dd7 8e3c 33ff f3b9 367a 563b
000000b0: a5f8 93b8 0227 003a 5963 9c3a a87e 963b
000000c0: 8448 953b 0a96 34bb 61a9 cdbb ca47 55b8
000000d0: 33e1 afba 512a 42bb 5678 f7bb f79b 07bd
000000e0: ad0b 89a9 95d7 d5b2 a9d7 55b2 2b52 3eb2
000000f0: 63d9 55b2 f075 1786 9fd7 d5b2 e0f4 29bb
00000100: 01c1 8fba 04ba d2b9 3e63 29ba b511 38ba
00000110: 9704 d0b8 6bbe b1bb d360 36bb 6aed 27bb
00000120: ad2c 46ba 496c 1eba 6a55 e7ba 9979 27bb
00000130: 8f9c 39bc 0400 0000 1304 503a a0ca 9939
00000140: 1700 8a39 661c 153a ffe9 23bb c176 f43a
00000150: fae1 9b3b 6458 adba 0675 3637 eb09 bf39
00000160: 7bcc 003a b23d f33b d7d7 5c3b 21d8 8c3b
00000170: 48c3 c93a b9cc d239 c30e 633a c95a 13b8
00000180: 6a71 a7b9 08a4 5e3c d1fc 1c3b 87fd 343b
00000190: f8a3 2f3a 139c 583a 59ae ff3a b5a2 843b
000001a0: eb40 a43b a89c f439 060b 0000 ab15 59a8
000001b0: 5059 7738 91bb 2339 91bb 2339 db8a 71a8
000001c0: 78bc 023b aa57 65bc 4419 093b 1bc6 4abb
000001d0: 6d98 0dba 6533 37bc 0120 113c bc98 4a3b
000001e0: 61ad 303a 3766 a1b7 961f 593a 292d 6439
000001f0: 9059 ef3a 39e0 393c 0400 0000 0400 0000
00000200: 0400 0000 0400 0000 0400 0000 0400 0000
00000210: 0400 0080 e702 5aba 5f0c e639 8283 e1b7
00000220: d192 ce38 e122 11ba 9769 4d38 90a0 823a
00000230: 0400 0000 60ef 6eba 4692 cf38 9ec7 9db9
00000240: 1fa6 053a f48f 20bb b8e1 e53a e0ba 093b
00000250: 11cd 3ebb 5878 b739 d743 7bb9 3b64 0bbb
00000260: 0fc9 fbbb 39f2 fbba 3b5a 97ba df78 e1ba
00000270: 89ad 61ba 378d 02ba 77b1 a7ba 74f6 2aba
00000280: b9fd 8cbb bf47 953b b8d6 ec3a 3581 d8b9
00000290: e782 853a 3192 c7b8 b1d1 313b bbb3 fe3a
000002a0: fd90 fab7 ba6f 3cba f7aa 8c3a b5e2 80b8
000002b0: 968a 333a dd46 8aba acca 64bb 9e9b 89bb
000002c0: bda9 4639 5b99 90ba 5e91 fdb8 3250 4ab9
000002d0: 2e6b 69bb 7b3e 7dbb 0400 0000 0400 0000
000002e0: 0400 0000 0400 0000 0400 0000 0400 0000
000002f0: 0400 0000 c5de 96bb 22d9 c23a 5c73 92ba
00000300: b477 b838 2510 23ba 96fb 56bb 960d f6bb
00000310: 7453 9b3c 08cf 003a 8a7c ec0f 37a5 1c3b
00000320: eeab a53b a8b5 dc3c 9bd5 9f3c dda9 aeba
00000330: ed77 8bbb 1295 5eb9 4834 84ba e8a2 2cbb
00000340: 6753 cdba d991 3abc 8854 bcb9 4ee6 7abb
00000350: 6eea 9539 8d3d 50ba 6feb 17ba 569c bbbb
00000360: d7ed 03ba 0400 0000 058f 6abb 5fca 8c9c
00000370: 4a25 b4b9 bff3 2fb8 f78d eaba 0400 0000
00000380: 0400 0000 0000 0000 0400 0000 0400 0000
00000390: 0400 0000 0400 0000 0400 0080 c172 90ba
000003a0: f88a e23a 0092 b338 bebb 2a39 2150 b4b8
000003b0: 16f9 953a 5290 bbbb 2fec 90bb c8d9 683b
000003c0: 86a4 da36 ee34 7d39 ca1b cb39 deb2 c53a
000003d0: 609e c3bb c6a4 6b3b 93a3 963a 3c71 2cb9
000003e0: 82b3 263a 904d 15b9 303a 803b 7227 4a3c
000003f0: 7144 aab9 2dfd 8bbb 91d4 ebb9 989f a5b9
0.00030082595 0.0037368957 6.2558826e-07 0.0008804831 0.00087911077 0.008025667 0.0063709873 -0.0046157474
-0.008464164 -0.0001516 -0.0024427965 0.0011992335 -0.022348734 -0.050661378 0.024956819 0.007829507
2.005983e-05 0.00453319 0.005736987 0.018341053 0.06502272 -0.001008446 -0.00051810837 -8.053871e-05
3.9542247e-05 -0.0005073107 -0.0008438837 -0.004694543 -4.1670836e-09 -0.0028112645 -0.00047755186 -0.00018277678
-0.0004572976 -0.0010554638 -0.00071899197 0.0063678566 0.001253185 0.0005703934 0.001735142 0.0053052586
0.01750832 0.017436529 -0.0004653871 0.0032726652 -7.05582e-05 0.0004888625 0.0011931463 0.0045927353
0.0045557637 -0.002755525 -0.006276295 -5.0850016e-05 -0.0013418555 -0.0029627273 -0.007552187 -0.033107724
-6.0860476e-14 -2.4894499e-08 -1.2447267e-08 -1.1078138e-08 -1.244766e-08 -2.848659e-35 -2.4894517e-08 -0.002593331
-0.0010967554 -0.00040192914 -0.00064616266 -0.00070216815 -9.919068e-05 -0.005424311 -0.0027828708 -0.0025623688
-0.0007559758 -0.00060433574 -0.0017649357 -0.0025554656 -0.01132883 6e-45 0.00079351774 0.00029333401
0.00026321478 0.00056881306 -0.0025011299 0.0018651114 0.004757163 -0.0013225195 1.0875292e-05 0.00036437748
0.00049132825 0.007423126 0.0033697987 0.0042982255 0.0015393281 0.00040206852 0.00086615625 -3.513208e-05
-0.00031937222 0.013588913 0.0023954401 0.0027616934 0.00067001535 0.0008263003 0.0019506916 0.0040477165
0.0050126216 0.00046656025 3.954e-42 -1.2050618e-14 5.8972568e-05 0.00015614765 0.00015614765 -1.3408297e-14
0.0019948762 -0.0139979515 0.00209196 -0.0030940834 -0.00054014364 -0.011181687 0.008857728 0.003091379
0.00067397027 -1.9240293e-05 0.00082826 0.00021760598 0.0018260945 0.011344963 6e-45 6e-45
6e-45 6e-45 6e-45 6e-45 -6e-45 -0.00083164725 0.00043878236 -2.6883328e-05
9.850192e-05 -0.00055365084 4.8974147e-05 0.0009966064 6e-45 -0.0009114649 9.897775e-05 -0.000300941
0.00050983013 -0.0024499865 0.0017538583 0.0021015927 -0.0029113928 0.00034994143 -0.00023962498 -0.0021269459
-0.00768388 -0.0019221968 -0.0011547277 -0.001720216 -0.00086089276 -0.0004980149 -0.0012793978 -0.000652171
-0.004302707 0.004555672 0.0018069362 -0.00041294997 0.0010186107 -9.51629e-05 0.0027133042 0.0019432226
-2.9869838e-05 -0.00071882794 0.0010732104 -6.145743e-05 0.0006848959 -0.0010549683 -0.003491084 -0.004199459
0.00018945984 -0.0011032032 -0.00012091057 -0.00019294096 -0.0035616863 -0.0038641978 6e-45 6e-45
6e-45 6e-45 6e-45 6e-45 6e-45 -0.004604193 0.0014865736 -0.0011173296
8.7961e-05 -0.0006220362 -0.0032803765 -0.007508944 0.018960692 0.00049136626 2.3319367e-29 0.0023902187
0.005055896 0.02694209 0.019511035 -0.001332577 -0.0042562396 -0.00021227103 -0.0010086382 -0.0026342217
-0.0015665115 -0.011387312 -0.00035921135 -0.0038284245 0.00028594158 -0.0007943742 -0.0005795275 -0.005725424
-0.00050326943 6e-45 -0.0035790813 -9.316735e-22 -0.00034360058 -4.1950258e-05 -0.0017895092 6e-45
6e-45 0.0 6e-45 6e-45 6e-45 6e-45 -6e-45 -0.0011020527
0.0017283848 8.56258e-05 0.00016282403 -8.597994e-05 0.0011442031 -0.0057239914 -0.0044226865 0.0035530198
6.5160593e-06 0.00024147678 0.00038739882 0.0015083214 -0.0059698075 0.0035956367 0.0011492841 -0.00016445381
0.0006359146 -0.00014238642 0.0039131865 0.012338506 -0.0003247592 -0.0042721243 -0.00044981067 -0.0003159016

exp_avg_sq f4 [230, 7]
00000000: bbdd c636 b3f1 f738 4fd1 a634 fb08 e036
00000010: 1973 7137 ea24 ce39 2d4f 163a 88fc c73a
00000020: 0202 933a 7ded b437 58b8 fd38 6bc8 a939
00000030: bdb5 e03b b43d 843c 61ef 233a febe 2d3a
00000040: 3cc7 2735 2cb9 1338 e63d 1f39 a824 e63a
00000050: e7fe d73b 8294 b939 ab9e 093a 2351 ec36
00000060: 2c25 a737 7eff ca38 b59e 6539 413b 2b3c
00000070: 4991 4134 752f 6b39 e6a7 9836 e9e8 9737
00000080: 7c99 de37 c7bc 3437 4ef3 2f3a 20bd bd3a
00000090: 63f4 063a ccb2 a037 fb73 6038 8296 9339
000000a0: 7eca 833b 7ebc 5b3c 61fe a538 ef87 a139
000000b0: 3a54 9a36 d91f 4637 8f7a 7f38 1796 a63a
000000c0: 0466 083b a8d6 a338 7548 7b39 5683 a335
000000d0: 66db 3137 5b84 3038 b38f e638 f735 823b
000000e0: 3bc4 8837 68c5 6e37 687f 9436 4e4f 8b35
000000f0: 1ebe ba35 1478 2632 da76 1438 1f8a a939
00000100: 18f2 a538 4ec1 3a37 841c 8b37 fd4e a537
00000110: c395 0337 d719 cd3a 9a66 803a 2c6f 063a
00000120: 4685 c737 ce2b fc37 99b3 2139 33c7 513a
00000130: 2e4c 1d3c 3c93 d22d fe68 3639 f94d b336
00000140: 826e f436 48f2 b637 a10b f139 96a3 813a
00000150: 2325 3e3a 4374 8339 a10a 1935 574d 3b38
00000160: 1124 0139 8025 2a3b e248 2d3c 7e1e 1f39
00000170: f9f7 d239 8e4a eb36 7c89 cd37 c488 c038
00000180: 1c02 723a c803 453b 8ea0 033a 4fb4 a739
00000190: ab67 1236 83fb d837 2bdf 0839 d581 853a
000001a0: c681 133b 1ec9 3037 ec9f 8131 bdf2 d133
000001b0: 72cc 9034 9a36 9535 ab10 8535 12cc 0c35
000001c0: 5af0 543a e85f 7e3a 378b b737 6868 b838
000001d0: a02f b439 203b 8f3b fa28 8e39 21f9 2f3a
000001e0: 76aa 8b39 35e6 b435 b65c ec37 721d d438
000001f0: 516b 1739 4061 193b 742f e224 b9da 8404
00000200: 9a2e d31f 6771 1122 3218 3923 7407 c121
00000210: 0c50 6024 8f3f 0638 1909 5f38 afbe fc34
00000220: 06ee 5936 9def 2b37 a195 c237 c5f9 773a
00000230: 3ba7 982e d44c 8139 cf01 1c37 055f 3637
00000240: 3ea5 b737 66f6 d539 9c13 833a 3b5b 9439
00000250: ea16 473a facb 8b37 dfe3 4538 ae5a ec38
00000260: d2e4 003b b0c0 aa3b 4f87 9a3a 855c b43a
00000270: 1f4b 9c38 8f68 8c38 bbc0 4d3a 9b71 2d3b
00000280: 7104 f33b 8b96 853b 189f 263a ce46 6737
00000290: b748 d638 d47b 9139 fc31 ed3a 8cb6 123c
000002a0: 104d 913a 5682 983a dc04 8a36 2a65 8338
000002b0: fa4a ee39 736e d73b d5c9 ef3b b0af 8239
000002c0: bc78 093a a4d7 d038 13c8 7537 4960 2438
000002d0: 4225 123b 1fc6 303b bd0c 4903 0e39 0000
000002e0: f401 0000 fb20 6200 edba b201 ecfa f202
000002f0: 5c9c 4e00 8e68 0f3b a6e7 9c3a ce9e c738
00000300: 781d 3538 89cd c838 4c47 003c 8603 e23b
00000310: 8f3c b43a 8991 2538 ddae 2232 8e00 0238
00000320: 3ff3 f938 a8d2 303b 8b6c a73a 883c 5e39
00000330: db1b f239 913a 4236 bdbc 0838 8ece a738
00000340: 35f0 9139 435c 683b 03b2 b138 27a9 7439
00000350: efb3 dd36 bbfa 2f37 6f6f 6337 9c71 a939
00000360: 1f3c a539 4848 0b22 f9b7 7f38 f437 ab31
00000370: 1ee1 1e36 7ae7 1e37 b389 7d37 b188 cb2b
00000380: f401 0000 0000 0000 f401 0000 f401 0000
00000390: f401 0000 f401 0000 f401 0000 c045 8639
000003a0: 1c37 1339 bf73 c636 ad5b 0e37 35c0 eb36
000003b0: 76bc 093a 87e0 3a3b f6e0 313a 20d6 fa39
000003c0: 3852 5936 be42 1b38 d3e1 c838 94dd ff39
000003d0: 96fd 8f3b 1d30 213a 9cc5 d037 abf2 5d36
000003e0: b21d 8837 dcb7 4d38 62fc 0c3a b3af 473b
000003f0: 1b2f 4538 4f7c 9939 3eb6 7d37 4375 6f37
5.9266727e-06 0.00011822898 3.1072202e-07 6.6767657e-06 1.4391518e-05 0.00039318885 0.0005733844 0.0015257755
0.0011215808 2.1568261e-05 0.00012098317 0.00032383515 0.0068576024 0.016142704 0.0006253627 0.00066278863
6.250227e-07 3.5219986e-05 0.0001518648 0.0017558532 0.006591666 0.00035396597 0.00052497786 7.0427936e-06
1.992526e-05 9.6797e-05 0.00021898265 0.010451139 1.802738e-07 0.00022429026 4.549499e-06 1.810906e-05
2.6535934e-05 1.0772789e-05 0.00067119754 0.0014475919 0.0005148111 1.9156745e-05 5.3513777e-05 0.00028150162
0.0040219417 0.013411639 7.915195e-05 0.0003080959 4.599363e-06 1.1809135e-05 6.091088e-05 0.0012709525
0.002081276 7.8124285e-05 0.00023964218 1.218267e-06 1.0601105e-05 4.2084936e-05 0.00010994021 0.0039737183
1.630384e-05 1.4231868e-05 4.4255758e-06 1.0379388e-06 1.3913411e-06 9.689774e-09 3.539664e-05 0.000323371
7.9129066e-05 1.1131471e-05 1.658337e-05 1.9706315e-05 7.843078e-06 0.001564796 0.0009796203 0.000512826
2.3784709e-05 3.006114e-05 0.00015421062 0.00080024 0.009600682 2.3939621e-11 0.00017395985 5.343693e-06
7.2846315e-06 2.1808912e-05 0.00045975766 0.0009890671 0.00072534586 0.0002507289 5.701241e-07 4.4656303e-05
0.00012315834 0.0025962293 0.010576459 0.00015174781 0.00040239075 7.012225e-06 2.4501926e-05 9.180748e-05
0.00092318817 0.0030062068 0.0005021178 0.00031987063 2.1816038e-06 2.5866326e-05 0.00013053107 0.0010185788
0.002250777 1.0537244e-05 3.772575e-09 9.776475e-08 2.6970844e-07 1.1117256e-06 9.914123e-07 5.2451026e-07
0.00081229734 0.0009703622 2.1880127e-05 8.793251e-05 0.0003436776 0.004371062 0.0002711488 0.00067128433
0.0002663915 1.3478044e-06 2.8176564e-05 0.000101144324 0.0001444046 0.0023403913 9.8092265e-17 3.1233916e-36
8.943907e-20 1.97112e-18 1.0033994e-17 1.3080162e-18 4.864006e-17 3.2007283e-05 5.3175816e-05 4.7077398e-07
3.2474068e-06 1.0248184e-05 2.3196279e-05 0.0009459521 6.941866e-11 0.0002466204 9.298746e-06 1.0870169e-05
2.1892247e-05 0.00040810107 0.0010000351 0.00028296732 0.0007594662 1.6665075e-05 4.718068e-05 0.00011270247
0.0019667638 0.0052109584 0.0011789593 0.0013760483 7.452652e-05 6.695196e-05 0.00078488485 0.002646542
0.007416301 0.004076784 0.0006356104 1.3785158e-05 0.000102178594 0.00027748814 0.0018096562 0.008954655
0.0011085588 0.0011635523 4.113286e-06 6.26541e-05 0.0004545076 0.006574446 0.0073177614 0.0002492643
0.0005244126 9.958379e-05 1.4649721e-05 3.919032e-05 0.002230004 0.0026973558 5.9083214e-37 2.0467e-41
7e-43 9.01171e-39 6.56551e-38 3.5702726e-37 7.21926e-39 0.0021882388 0.0011970892 9.518639e-05
4.3181208e-05 9.575027e-05 0.0078294985 0.0068973927 0.0013750958 3.9474606e-05 9.4694e-09 3.0994932e-05
0.00011918553 0.002698103 0.0012773437 0.0002119412 0.0004617859 2.8942343e-06 3.2600703e-05 8.001654e-05
0.00027835523 0.0035455383 8.473175e-05 0.00023332667 6.6072603e-06 1.0489191e-05 1.35561995e-05 0.00032318837
0.00031516046 1.8876278e-18 6.0968076e-05 4.983116e-09 2.367487e-06 9.471429e-06 1.5112036e-05 1.4461957e-12
7e-43 0.0 7e-43 7e-43 7e-43 7e-43 7e-43 0.0002561044
0.00014039542 5.9143345e-06 8.4852045e-06 7.0259216e-06 0.0005254218 0.0028515176 0.0006785536 0.0004784325
3.2383377e-06 3.701704e-05 9.578806e-05 0.0004880248 0.0043942435 0.0006148832 2.4887551e-05 3.3072818e-06
1.6226291e-05 4.904704e-05 0.0005378184 0.0030469715 4.701233e-05 0.0002927505 1.5122407e-05 1.4272812e-05

exp_avg f4 [230]
00000000: d4d3 013b e5c5 edbb 3a8b 523c 9ca0 23ba
00000010: 413d b8ba 5aac 5b3b 8add be3a b081 96bb
00000020: a9d7 55b2 b5c4 adba a0da 0ebb 1404 d039
00000030: 50e2 7e3a d95d 033b 29ef 2e3b 1b13 2339
00000040: 2a41 ddbb d12f e23a 0400 0000 d3d5 f838
00000050: 60ef eeb9 123a a3ba 77b1 a7ba aee1 303b
00000060: 0014 d9b9 8443 8cba 0400 0000 8187 2dba
00000070: b0ae d93b 330c 11bb f26b 0cbb 058f eaba
00000080: 0400 0000 c1f1 ed39 f878 233a 4ad2 003b
00000090: 45bc 0cbb 96be 94ba 708b 35b9 2868 00bb
000000a0: 0e77 eab5 0400 0000 bd67 27bb 64f6 aab9
000000b0: 25bc dfb8 9f4d b3ba 0400 0000 38f2 a836
000000c0: aa1b 383b d29e 3bb8 a7a0 40bb f22f 34ba
000000d0: 298b 5bba c71a 4cbb 071c 61bb d7cd bdba
000000e0: cbd2 263a 6b58 013a 1fdf 9dbb 150c d7bb
000000f0: d05b 04ba dbbd 65b9 cb0f 2839 25e0 9bba
00000100: ce48 f738 21ff acb9 50d2 39b9 1696 bdba
00000110: d6cb 4cba 0400 0000 8771 89ba 0400 0000
00000120: d1af a23a 1c68 abbb 4769 9eb9 ebd7 86bb
00000130: 9091 9939 1c0f c53a 38d5 aaba 0161 24bc
00000140: 2f20 9f3b 95da ddbb b545 8eb9 bd43 b2ba
00000150: 6cf8 5a3c 7558 c23b 5f37 4cba 7f04 2aba
00000160: eecb 343b 8fe3 963b a6a4 9c3a e973 90ba
00000170: 806d 93ba 66a1 1a3a 9b6b 7e3a f343 4539
00000180: ac7a b839 30eb 33bc 0000 0000 c376 aaba
00000190: 3ced eb3a 0948 5cb9 f765 c8ba 61d4 2dbb
000001a0: 3e2e ee3a a0b2 79ba 0400 0000 4528 07b9
000001b0: d9bb aa3b b2bc 0dbc cbe7 583c 6c59 90b9
000001c0: c8d0 fd39 7859 8739 0000 0000 b2cb 1bb7
000001d0: a7e3 03bb 6dd3 b739 0400 0000 a012 39bc
000001e0: a4a0 a73a 0000 0000 437f e2ba 2768 653b
000001f0: 7ac6 dd3a 2bfb c3b9 99e4 b139 0e0e 183b
00000200: f62a 17ba 7e77 8aba 0400 0000 0400 0000
00000210: a712 22b7 c737 c0ba b718 72ba 0000 0000
00000220: eca6 0bba 3cca 53b1 876a 52ba f342 ff3b
00000230: 07cf 17ba ea2f 99ba ae70 9aba 232d 61b8
00000240: ddee 2a3a 4c0f 263b 6732 c4b8 8e34 47b9
00000250: 0b5a bd3a b1bd a6b9 6c2c 46bb 553d 18ba
00000260: 947f bd39 93a1 ea3b 0000 0000 15ad e4bb
00000270: 2bbe 0cb9 0000 0000 9d27 023b c566 11ba
00000280: 973a 54bb ace8 2c39 84b9 83b9 fdb2 5ab9
00000290: 794d fc39 23ed 843a dca3 db3b f6d0 feb9
000002a0: 1147 ee39 beb9 093b 1ceb c7b9 21c5 31b7
000002b0: 7fa2 3db9 bbf3 5eba 9839 b5ba 0400 0000
000002c0: e9e0 25ba 718a 16bc 0000 0000 a2a2 5bba
000002d0: 16e4 543c 450f 33ba 0000 0000 dd11 aeba
000002e0: 2e44 10bb 0000 0000 43f7 2ebb 58db f0b9
000002f0: 8f3b 8b3b 0000 0000 f9c0 b63b 04f1 b53b
00000300: 82d8 0a3c 31f1 68ba 3630 d339 219c af38
00000310: a8bb ec39 6a1d 23ba 3955 2ebb bccd 2c3c
00000320: c19e a4b9 89e7 86ba 4c63 c739 0400 0000
00000330: bc28 2b3c 9a17 1cb8 212d bb3b 05f3 fd3b
00000340: 36b6 803a b42d 9c3b 74b3 a037 be18 62ba
00000350: 6d2a 883a 8ee6 0dba 68e3 cbbc 70a1 89ba
00000360: 861e 9e3a e109 e739 0400 0000 4a1a 3eba
00000370: 71f3 6eba 977a 4c3b 278d 9eba 172f 94ba
00000380: a011 673a 9a17 95b9 937c 1a39 8a86 8c3c
00000390: 0406 eabb 0482 b0bb
0.0019810097 -0.007256257 0.012850577 -0.0006241889 -0.0014056341 0.0033519478 0.0014561873 -0.0045930967
-1.2447267e-08 -0.0013257476 -0.002179779 0.0003967589 0.0009723054 0.0020044951 0.0026692844 0.00015552009
-0.006752153 0.0017256682 6e-45 0.000118653894 -0.00045573246 -0.0012453219 -0.0012793978 0.0026989984
-0.00041404366 -0.0010701274 6e-45 -0.0006619618 0.006643139 -0.0022132515 -0.0021426645 -0.0017895406
6e-45 0.00045384283 0.00062359823 0.0019656592 -0.0021474522 -0.0011348303 -0.0001731345 -0.0019593332
-1.7469008e-06 6e-45 -0.002554401 -0.00032608502 -0.00010668513 -0.0013679749 6e-45 5.034988e-06
0.002809266 -4.4732187e-05 -0.0029392631 -0.00068735995 -0.00083749235 -0.003114389 -0.003434898 -0.0014480901
0.0006363808 0.0004934135 -0.004817858 -0.0065627196 -0.00050490815 -0.00021909869 0.00016027612 -0.0011892362
0.00011791439 -0.00032996482 -0.00017721322 -0.0014464285 -0.00078123563 6e-45 -0.0010486104 6e-45
0.0012412017 -0.0052309167 -0.00030214546 -0.004115095 0.00029290887 0.001503441 -0.0013033515 -0.010032893
0.0048561315 -0.006770442 -0.00027136286 -0.001360051 0.013364892 0.005930955 -0.00077902334 -0.00064856553
0.0027587372 0.004604764 0.0011950925 -0.0011020872 -0.0011247844 0.0005898684 0.00097053655 0.00018812697
0.00035186613 -0.010981366 0.0 -0.0013005364 0.0017999779 -0.0002100767 -0.0015289177 -0.0026524293
0.001817174 -0.00095252134 6e-45 -0.00012889605 0.0052103815 -0.0086509455 0.0132388575 -0.00027532445
0.00048411475 0.00025815866 0.0 -9.286146e-06 -0.0020124705 0.00035062004 6e-45 -0.011295944
0.0012788964 0.0 -0.0017280359 0.0035004707 0.0016920113 -0.00037380433 0.0003393039 0.0023201737
-0.00057665945 -0.0010564176 6e-45 6e-45 -9.660295e-06 -0.001466506 -0.000923525 0.0
-0.00053273025 -3.0819498e-09 -0.0008026738 0.0077899634 -0.00057910423 -0.0011687253 -0.0011782849 -5.3686217e-05
0.0006520579 0.0025338707 -9.3553965e-05 -0.00018997697 0.001444639 -0.00031803318 -0.003023888 -0.0005807479
0.00036143942 0.0071603744 0.0 -0.006978641 -0.00013422284 0.0 0.0019860037 -0.0005546625
-0.0032383555 0.00016489875 -0.00025124487 -0.00020856778 0.00048122907 0.0010141473 0.006702883 -0.00048602343
0.00045447846 0.0021015252 -0.00038131408 -1.059592e-05 -0.00018084979 -0.00085049466 -0.0013826368 6e-45
-0.0006327765 -0.00918828 0.0 -0.0008378421 0.012993833 -0.00068305834 0.0 -0.001328047
-0.0022013295 0.0 -0.0026697672 -0.0004593979 0.0042490433 0.0 0.0055772034 0.005552413
0.008474471 -0.0008886038 0.00040280976 8.3737315e-05 0.00045153243 -0.00062223396 -0.002660109 0.010547098
-0.00031398798 -0.0010292392 0.0003803022 6e-45 0.010446724 -3.721528e-05 0.005712167 0.0077499175
0.0009819928 0.0047661904 1.915705e-05 -0.00086249027 0.001038862 -0.00054130785 -0.02488871 -0.0010500383
0.001206354 0.00044067114 6e-45 -0.0007251842 -0.0009115255 0.0031201 -0.001209651 -0.0011305538
0.0008814577 -0.0002843708 0.00014732992 0.017153997 -0.0071418304 -0.005386593
