save/new7.pt (torch_old, 150236 bytes, 18 tensors)

fc1.weight f4 [105, 8]
00000000: 8cac 293c 7911 01bd 4609 063e e9c1 0abf
00000010: b5e0 f83d 5174 49be af0b 05bf 302d cbbd
00000020: 5eb2 143f 7a75 6dbe 3bfa dfbc f140 233e
00000030: 1957 5abb 811d cf3d d3a4 073e 1f32 bebe
00000040: 035f ca3e f743 79be af28 443e 4926 9e3e
00000050: 5d8e 81bd f71f 73be c9e2 51bd 438b 1dbe
00000060: bba4 86be 3908 01be f73f ed3e 6a11 0b3e
00000070: f401 01be 3c9c 863e e4ff 2fbe 196c e5be
00000080: 4879 96be a0b0 8b3e 2025 ed3e 8852 eabc
00000090: 38ae b63e 5154 a03d 3f5e 6d3e d26f d53b
000000a0: 9925 8f3e be10 bebe 54c1 8d3e b3e3 e7bc
000000b0: a1f6 9e3e ff44 4ebe 608f f9bd 14da c73d
000000c0: fc1d b43d b543 b83d abe0 6ebd e9ed da3e
000000d0: 5d24 623c 6dd8 9d3c 46b2 f4be eb07 153d
000000e0: 2cb2 aabe cc83 453e ad3b 733e ef36 cf3e
000000f0: 1c2b 23bd 45ae c43e b5dc 10be bce7 4d3e
00000100: 967e f83d 9a41 843e 372a ad3e fee8 0e3e
00000110: 4bce d4bd c887 71bd db0e 8bbe e46e a13d
00000120: 6e5d febd f2bd 8abe cebd 1abe 753a 56be
00000130: fb4e b03e 01fb 8dbe 44af 34be e5cd 8bbd
00000140: 23bd 9f3e b6b1 db3e d29d 353e 34c8 073e
00000150: 8a9e 60be 9682 67bc 75f2 723e 4739 e3bd
00000160: 4aaf 2bbe a395 c2be b081 20be 5a6d bcbd
00000170: fa00 093e efba ad3d 8559 8d3e e5f3 bfbe
00000180: fb40 dbbe 2561 3dbe 7a6b 883c f1e7 36be
00000190: f21e 67be c3aa f1bd 7075 873d 3f62 c03e
000001a0: 50fc a7be b269 ccbe a30b 0e3f 6fbe b0be
000001b0: a83f 75be 6964 0dbf 57ad c0be 1745 0cbf
000001c0: 9a65 9bbe b179 ea3d 9c04 9a3d 4d38 74be
000001d0: 3da3 4fbe 4e1e ea3c 35ff 363e 3289 babe
000001e0: 9e6d f4bc 307b 043e 92d6 01bf 8059 bbbe
000001f0: 1903 d33d 2595 033e b4a3 49be 86f4 753d
00000200: 1ed5 b0be 0cf5 5a3e aeb2 373f dfec f8bd
00000210: fa06 533e 4eaf 21be 34f1 123e ee39 13be
00000220: 8dfa b0be 8f20 423e 8976 82be 7bbb 0c3f
00000230: cbfe 08be 363b 59bd 1b24 38be ed47 043f
00000240: 6e57 26be ae44 813d 820f ee3e 59d5 a9be
00000250: 07a8 913e 20e9 a2be 69ce a03c 84ff 1f3e
00000260: b68a 033f f8f0 903e e852 9e3e 7185 c5bd
00000270: d769 abbe af2e a33e 39ef 87be d1cc 373e
00000280: 7657 bb3e 98ee 3e3e 3af8 1d3f 457d 923d
00000290: 53d5 ff3d 0d59 59be 8617 cd3d 4268 30be
000002a0: 3fd1 90be 39c3 82be cc85 3c3f c2ae 463d
000002b0: 800b 8c3e 4db5 823e a102 b5bd f0b8 ec3d
000002c0: 9f91 5e3e e02d babe 5705 733e a25f acbe
000002d0: 7edd 2fbe 3378 5e3e 0886 323e b779 c5be
000002e0: 6297 f43c 1993 2fbd beb7 21bf 86d8 403e
000002f0: d4b9 b9be e8aa a83e e832 503e 741c 82bc
00000300: 48db 2e3e ce49 85be 59ac d03d e3cb d3be
00000310: 6f52 35be 87d6 80bd f426 e53e b657 b93c
00000320: fd66 c93d 11cb ab3e dc43 54be 3fe9 0cbe
00000330: 4cb7 193d 1155 0c3d bb5e 16be 734d 54be
00000340: 0072 b83e 81ca d6be 5103 9bbe 0779 af3c
00000350: 3531 44be 7479 afbe 554c d7be fbaa 223e
00000360: ef53 babe 01fc 4b3e fe39 053e 2364 63be
00000370: 4a60 1b3c 369d 72be 4bc2 793e 64b4 6dbd
00000380: 89eb b1be b22a a63e 09a8 503e 28bc c2be
00000390: 98c5 82bc 6ad5 3fbd df33 e83e 46ea d6bd
000003a0: 0027 e43c 8363 2dbe 2e7e 50be fb04 173e
000003b0: e6eb 433e b5ae 0fbd cf51 f5be b180 f83d
000003c0: 45d9 da3e 2a3a 9dbe 9d1f 9ebd 11fe b33e
000003d0: 8294 013d 69f1 61be 4b6d 24be 1a24 a73e
000003e0: 28d9 dd3c 1c72 3a3d dc24 833e 848f 013e
000003f0: ef93 4a3e 9f73 743e cd8d 1dbe fc2d b23c
0.01035608 -0.031510804 0.13089475 -0.54202133 0.121522345 -0.19673277 -0.5197095 -0.09920728
0.58084667 -0.23189345 -0.027340999 0.15942742 -0.0033316074 0.10113049 0.13246469 -0.37147614
0.39525613 -0.24342333 0.19156145 0.30888584 -0.06325982 -0.23742662 -0.05124167 -0.15385155
-0.26297554 -0.12600793 0.46337864 0.13580862 -0.12598401 0.26291072 -0.17187458 -0.44809034
-0.29389405 0.27283192 0.46317387 -0.028603807 0.35679793 0.07828582 0.23180483 0.006513574
0.27958372 -0.37122148 0.2768656 -0.028306818 0.31047538 -0.20143507 -0.1218555 0.09758392
0.087947816 0.08997289 -0.05831973 0.42759636 0.013802615 0.019268239 -0.47792262 0.036384504
-0.3333906 0.19288558 0.23753233 0.40471599 -0.039836034 0.38414207 -0.14146693 0.20107931
0.12133519 0.258313 0.3382127 0.13956067 -0.1039091 -0.05896738 -0.2715977 0.07882479
-0.12420164 -0.27098042 -0.15111467 -0.20920737 0.34435257 -0.27730563 -0.17644984 -0.06826381
0.31198987 0.4290902 0.17735985 0.13259965 -0.21935478 -0.014130255 0.23725303 -0.11094909
-0.16766086 -0.3800479 -0.15674472 -0.09200545 0.13379279 0.084829204 0.2760736 -0.37490764
-0.42823014 -0.18494089 0.016652811 -0.17861916 -0.22570398 -0.11800148 0.06614196 0.37574956
-0.32809687 -0.3992439 0.55486506 -0.3452029 -0.23950064 -0.5523134 -0.37632248 -0.5479292
-0.30350953 0.11448992 0.075204104 -0.23849602 -0.20277114 0.028578904 0.17870791 -0.36432797
-0.029837426 0.12937617 -0.50718033 -0.3659172 0.10303325 0.12849863 -0.19691354 0.06004765
-0.34537596 0.2138254 0.7175702 -0.121545546 0.2060813 -0.1578953 0.14349824 -0.14377567
-0.34566155 0.18957733 -0.2548106 0.5497357 -0.13378446 -0.053034984 -0.17982523 0.5167225
-0.1624429 0.06311928 0.46496207 -0.33170584 0.28448507 -0.31818485 0.019629674 0.15624815
0.5138353 0.28308845 0.30922627 -0.096445926 -0.33479187 0.31871554 -0.265497 0.17949225
0.36590165 0.18645704 0.6170689 0.071527995 0.1249186 -0.21225376 0.10014252 -0.17227271
-0.28284642 -0.25539568 0.7364166 0.048506506 0.27352524 0.25528947 -0.08838392 0.115587115
0.21735238 -0.36363125 0.23732506 -0.33666712 -0.17174336 0.2172554 0.17433941 -0.38569424
0.029857341 -0.042864893 -0.63170993 0.18832597 -0.36274588 0.3294289 0.20331919 -0.015882708
0.17075837 -0.2603287 0.10189123 -0.4136649 -0.17707227 -0.06290918 0.4475628 0.022624832
0.098340966 0.33553365 -0.20729011 -0.13760851 0.03752832 0.034260813 -0.14684574 -0.2073267
0.36024475 -0.41951373 -0.30275968 0.021420015 -0.19159396 -0.3427235 -0.42050424 0.15885536
-0.3639216 0.1992035 0.13010404 -0.22206168 0.009483406 -0.23692784 0.24390523 -0.058033362
-0.34750012 0.3245445 0.203766 -0.38034177 -0.01596336 -0.046834387 0.45352075 -0.10493903
0.027850628 -0.16932492 -0.20360634 0.14747994 0.19132957 -0.035078723 -0.47913978 0.12133921
0.42743888 -0.30708438 -0.077208735 0.35154775 0.03163577 -0.22064747 -0.16057317 0.3264473
0.027081087 0.04551898 0.2561406 0.12652403 0.19782995 0.23872231 -0.15386124 0.021750443

fc1.bias f4 [105]
00000000: d51d 863e b46c 82bc 5900 d43e 03aa 18be
00000010: 6555 9abe 11ba 56bd b09c 913d f308 6bbe
00000020: 38da 0f3e ec84 9e3e 731d debc 09f5 72be
00000030: 4348 13be c6f2 a1be a941 13bd 24dd 28be
00000040: b6a5 1fbe c211 d33d 96d8 78be d26c bd3d
00000050: 0ee2 983e 8817 c4bd 826c 2bbe 34bf 9cbe
00000060: 36dc cd3d b06e e83d ee40 97bd 7292 cbbe
00000070: 9628 253e 503c a93e d599 9d3d e7c9 bc3d
00000080: 2f8d b7be 9794 49be 4bdb 01be 5bfb bf3d
00000090: 1365 75be fd3a c13e b28b b6bd e404 d3be
000000a0: cbc7 5ebe 9e43 99be f25d 873e 0b19 3cbe
000000b0: 1aa8 99be 5e92 863d 8985 9fbe 74aa 2b3e
000000c0: dc27 d2be e62f 0d3e 0b8c adbc 171e a33d
000000d0: 5e9f 68be 1f7d 8dbe 321e c5bd d9b6 20be
000000e0: 1b61 5e3d 9daa e7bd 101c 983e ced2 b6be
000000f0: f957 42be a69f 203e 70f4 83be fa36 9dbe
00000100: a54b da3e 453f f0bd fb88 633e fe9c 563e
00000110: 0991 88bd a8c4 883e ff90 8f3e bae1 eabd
00000120: 3cbf be3e f01d c7be bb65 e4be 6ea8 9d3e
00000130: d463 31be 19d1 83be 86d6 3bbe c31b a0be
00000140: 74c0 5cbe 7da7 423e 71cd 813e e2a9 9c3e
00000150: 34a5 09bf ee9d ab3e b00d 7fbe 02b7 0cbf
00000160: 1e26 c5bd 4e67 043e c895 2f3e 06a6 34bd
00000170: aa00 32bf 3751 013e 2be7 c23d e420 893e
00000180: 2768 ed3e d66a afbe 3a24 143e 4110 10bf
00000190: 8db3 1fbe c472 3dbe d3c6 a4bc 5c49 be3d
000001a0: a585 fe3e
0.26194635 -0.015920974 0.41406515 -0.14908604 -0.30143276 -0.05242354 0.07109964 -0.22952633
0.14048088 0.30960786 -0.027113652 -0.23726286 -0.14383034 -0.31630534 -0.03595129 -0.16490608
-0.15590557 0.103061214 -0.24301371 0.092492715 0.29859966 -0.09574801 -0.16740611 -0.30614626
0.100517675 0.11349237 -0.07385431 -0.39760166 0.16128764 0.33053827 0.07695357 0.09218197
-0.35849902 -0.19685589 -0.1268131 0.09374114 -0.23964338 0.37740317 -0.089133635 -0.4121467
-0.21755902 -0.299344 0.26438862 -0.18368928 -0.30011064 0.06570886 -0.31156567 0.16764241
-0.41046035 0.13787803 -0.021184942 0.079647236 -0.22717044 -0.27634522 -0.096249 -0.15694751
0.054291826 -0.11311839 0.2970891 -0.35707706 -0.18978871 0.15685901 -0.2577243 -0.30706006
0.42635837 -0.11730818 0.22220223 0.20958325 -0.06668288 0.26712537 0.2804031 -0.11468835
0.37255275 -0.38890028 -0.44608864 0.30792564 -0.17323238 -0.25745466 -0.18343553 -0.3127118
-0.2155779 0.19009204 0.25352052 0.3059836 -0.53767705 0.33518928 -0.24907565 -0.5496675
-0.09626411 0.12930033 0.17146981 -0.044103645 -0.69532263 0.12628637 0.09516748 0.26782906
0.46368524 -0.34261197 0.14466944 -0.562748 -0.15595837 -0.18500811 -0.020114338 0.09291336
0.49711338

fc2.weight f4 [105, 105]
00000000: bb9a 81bd 2901 8d3d a072 b1bc 50ee 00be
00000010: 7d86 1a3d 56b8 a13d 0375 9dbd 5b2b 8bbd
00000020: ed1e b53d a395 f93d e0ba be3b e7c0 15bc
00000030: 0f42 ff3c 6251 e4bd f16a c6bd ca8a ca3d
00000040: cf99 febd 07c2 a6bd be95 ddbc ac34 c23c
00000050: 3af1 c23b 8270 0ebe 4f80 8c3d 5d7e efbb
00000060: d335 c93c 5557 52bd 08cb f3bc 1469 48be
00000070: 9289 993c 68dd 153d 0f44 8d3d 8af9 783c
00000080: 0d35 ad3b 8aaf c8bd e96a fd3c 39b9 b7bd
00000090: 3a29 1c3d 0fa4 8d3d 4ee9 e1bc 3bff 18be
000000a0: e293 f13d 8c5b 263d 7b76 87bd 5cfe c6bd
000000b0: a8a2 4b3d f5df 17bc 6bb3 43bd deeb 063d
000000c0: 3550 f43d 9d6f ce3d d5b3 4dbd 5cd3 423d
000000d0: 5d91 3abd 8bb5 a9bc 4027 8dbd bb76 60bd
000000e0: bd9f 263b 04fe 94bd 3d48 aebd aa91 2dbd
000000f0: 7b78 d6bc 2510 a1bd a8ae ecbd d39a 2cbe
00000100: 6032 03bc 1b78 933d 6926 6bba 924d d0bc
00000110: cb39 9a3b 78d6 b6bc e901 893d 6ab5 81bd
00000120: 9a4c 96bd da94 a33d 7b04 80bd 503e d33d
00000130: 56d5 8fbd 9444 5c3d a77b da3d 91ec 6c3c
00000140: 7689 59bd 1870 733d 5d07 493d 66de 5f3c
00000150: be79 82bd 94cf c23d e985 003d fd20 443a
00000160: b24a bdbc 0357 b7bd 8d14 9abd 460c d1ba
00000170: dc7f 943a 63b9 3dbd a98a 0cbd 5f12 61bc
00000180: 4307 a33d 56a4 a03d bc61 143e 43a3 513d
00000190: 4954 48bd 4372 0b3d 44c3 ed3d f5aa 803d
000001a0: 2559 293c d963 b7bd 5b15 403d 3c72 1c3d
000001b0: 4d13 29bd 5e5b cfbd 5fce 83bd e788 c63d
000001c0: bd24 393d 2046 b33c 511d 5fbd 7a1a dd3d
000001d0: 878b aa3c d6e5 a5bd 876a ce3d 41e7 ea3d
000001e0: 84f5 933c 2493 013d 8be5 26bd 999a c23d
000001f0: 903f e8bc 5e98 043c c3d2 0dbd 4d6b 91bd
00000200: e36a 80bd 8588 66bc 5c47 1e3d ae2b ec3c
00000210: d946 223e 317d 10be 7cef 7a3c 0ac7 d33b
00000220: b26a d9bd d389 c5bc a870 c3bd d4a2 90bd
00000230: 1d42 a73d 10ea 67bc 60d7 a53d cdc1 68bd
00000240: d022 283d f2ea eebc b22f 9b3d 5692 9fbd
00000250: 2943 e03d 6550 0c3e 91cc babd 7909 303d
00000260: 05be a43d 7d4b 0bbe 1624 e0bd f4ce 2cbd
00000270: 5b1d c1bd 0698 b13d 1a82 223d 277f 3abd
00000280: 6484 433d 4bad 6a3d fbee 08bd 9521 bbba
00000290: 6a32 be3c cd24 ffbc dab5 65bd 9e6b 943d
000002a0: 5548 873d 800c 80bd 96b6 19be 976d 203d
000002b0: 7b17 debc 1df1 9bbd 949b 4a3d cb26 41bd
000002c0: f27d 2a3d cd06 4e3d d3bf 663d 8b16 333d
000002d0: 4452 bdbd 05b7 b8bc 467b 6abd 84e6 4bbd
000002e0: 5f15 3e3c b08c f1bc 6dfe 14bb 7a11 cfbb
000002f0: 32e6 3e3c f23c 3bba 9853 dcbb 2916 d7bd
00000300: fec3 96bd db86 523e cbc2 bbbb f77d b13d
00000310: d986 743d 19cc 61bd 8bd5 213e d613 1c3d
00000320: d16d 7bbc ab55 fa3a 0ec6 d03b 7091 b7bd
00000330: 39f7 e63c a3cb c4b9 7126 62bd 7c02 873d
00000340: 5641 c63d 8765 293d 2d5a ffbd d445 073e
00000350: 5a74 153e 120b 933d a96c 57bd 1eaf a5bd
00000360: 1bb0 253e 0d99 b63c a7a9 ce3c 1c1d 9bbd
00000370: c98b 103c 73ac c23d 0b9f d93c 9f6e e4bb
00000380: e3e9 df3d 61f4 d8bd 75b7 85bd 6fd5 b63d
00000390: 077d 0bbe 47b1 923d 6a11 d63d 7ba1 d3bd
000003a0: 9045 89bb f927 a93d f30a 9fbd 3e32 993d
000003b0: 32bb 613b 6375 fd3c bf72 1abd 14be a73d
000003c0: e9f3 26be 6250 8dbd c013 eabc 2a01 94bd
000003d0: bddc 18be 837b fdbd 8f34 e83d 7df4 013d
000003e0: aff5 1bbe 2368 fc3d 962b b9bd 2f5c 27bd
000003f0: 8be6 52bd 1812 2ebc 846a 193e 2542 ad3d
-0.063283406 0.06884987 -0.021661103 -0.12590909 0.037725914 0.078964874 -0.07688334 -0.06795379
0.08843789 0.12186744 0.005820617 -0.00914023 0.031159429 -0.11148335 -0.09688366 0.09889753
-0.124316804 -0.081424765 -0.027048942 0.023706757 0.0059491666 -0.13910106 0.068604104 -0.007308765
0.024561798 -0.051352818 -0.029759899 -0.19571334 0.018742356 0.036588103 0.06897747 0.0151962135
0.005285865 -0.097991064 0.030934768 -0.08970875 0.038125254 0.06916057 -0.027577069 -0.14941113
0.117957845 0.04061465 -0.06614395 -0.09716484 0.049715668 -0.009269704 -0.04777853 0.032939784
0.11929361 0.10079882 -0.05022033 0.04756485 -0.045548785 -0.02071645 -0.06892252 -0.05480073
0.0025424801 -0.07275012 -0.08509872 -0.042375244 -0.026180496 -0.078644074 -0.115567505 -0.16855936
-0.008007616 0.07200643 -0.0008970262 -0.025427613 0.0047065965 -0.022319064 0.066898175 -0.0633343
-0.07338829 0.079873756 -0.062508546 0.103146195 -0.070231125 0.05377634 0.10668116 0.014460699
-0.05310961 0.059433073 0.049079288 0.013663864 -0.06370877 0.09512249 0.031377707 0.0007481722
-0.023106907 -0.08952143 -0.07523451 -0.0015949092 0.0011329609 -0.046319377 -0.034311924 -0.01373729
0.079603694 0.078438446 0.14490408 0.05118109 -0.048908506 0.034044515 0.116095096 0.062826075
0.010336195 -0.08954591 0.046895366 0.03819488 -0.041278172 -0.10124849 -0.064358465 0.09694081
0.045201052 0.021884024 -0.054471318 0.10796066 0.020818485 -0.08100478 0.10078912 0.114698894
0.018061407 0.031634465 -0.040746253 0.095021434 -0.028350621 0.008092968 -0.034624826 -0.07100544
-0.06270387 -0.014070635 0.038642272 0.028829422 0.15847339 -0.14110257 0.015315887 0.0064629363
-0.10616054 -0.024113571 -0.09542972 -0.07062307 0.08166907 -0.014154926 0.0809772 -0.056825448
0.041048825 -0.029164765 0.075774565 -0.07791583 0.1095031 0.13702543 -0.09121049 0.042977784
0.08044056 -0.13603015 -0.10944383 -0.042189553 -0.09429427 0.08671574 0.039674856 -0.04553142
0.04773368 0.05729417 -0.033431035 -0.0014276976 0.023217399 -0.031145478 -0.05608163 0.07247089
0.06605593 -0.06252384 -0.15011057 0.039167013 -0.027110806 -0.07614348 0.049464777 -0.047156136
0.041624017 0.050299454 0.05633528 0.04372267 -0.092442065 -0.022548208 -0.05724647 -0.049780384
0.011601775 -0.02948603 -0.0022734657 -0.006319222 0.0116515625 -0.00071425654 -0.0067238323 -0.105022736
-0.07361601 0.20559256 -0.0057300082 0.08666604 0.059698913 -0.055126283 0.15804116 0.038104855
-0.0153460065 0.0019099017 0.006371266 -0.08963287 0.028194057 -0.00037535754 -0.05521244 0.06592271
0.096804306 0.04135659 -0.124683715 0.13210231 0.14595166 0.07179846 -0.05259386 -0.080900416
0.1618046 0.022289777 0.02522738 -0.075739115 0.00882239 0.09505548 0.026565095 -0.006971195
0.10933282 -0.105934866 -0.06529132 0.08927428 -0.13621913 0.07162719 0.1045254 -0.10333534
-0.0041892007 0.08259577 -0.0776576 0.07480286 0.0034443852 0.030939763 -0.037707087 0.081905514
-0.16303982 -0.069000974 -0.02857387 -0.072267845 -0.14927955 -0.123770736 0.1133815 0.031727303
-0.1523044 0.1232455 -0.090415165 -0.040859398 -0.051489394 -0.010624431 0.14982039 0.08459882

fc2.bias f4 [105]
00000000: 8b37 853d 9f7d 4e3b 5126 443a 8efa b23c
00000010: d36e 0a3d 08f6 193c 287a b23c 6037 bebc
00000020: 337d bd3d 461e b23c 5743 10bd 4581 f23d
00000030: 2352 ad3c d3c3 82bd 3189 c43d 964f e53c
00000040: 89e2 06bd 371c b83d 3c40 51bd a7ef 97bd
00000050: 46b1 673c e535 a83d c8fa c13d 8fc9 68b9
00000060: 223d 86bd ed56 2b3d 55f3 803b 5764 343d
00000070: cc91 6e3d f09b 5ebd dc36 b53c 29dc 52bd
00000080: 1450 3abd eae1 443e 1823 70bc 03b9 413d
00000090: c5fc 42bd 5d9b 2f3d 5e0c 523d 7d16 33bc
000000a0: 5c80 34bd 9490 223d 89a3 78bb e08a 8cbd
000000b0: a366 b9bd f4e4 6bbd 0cf2 d33b f086 a43d
000000c0: 903b d2bc 5d7c e93d 6d42 a1bd 6460 ba3d
000000d0: 941e ab3d fd78 22bc 191d eb3c 6092 61bc
000000e0: 49c7 493d a348 143d e149 c43c f59a 723d
000000f0: 7b72 393d 2ad6 9fbd 7692 b33d 45f7 c8bc
00000100: 68fa 8abd a41d b53d 2fd7 e8bd ab3a 13bd
00000110: c3f2 8dbd a18d 92bd 0460 3f3c ab20 1ebd
00000120: 5232 d0ba 48a5 a1bd 6eac a3bc d74d f8bd
00000130: 1786 82bd 7cd5 58bd 55be f0bd 9705 a7bc
00000140: cb2c c63d a2c0 a3bd bbc2 bd3c ba43 37bd
00000150: ed73 69bd 9e9b 8f3d 5034 c63c 44df fbbd
00000160: bc9f d53b 8dbd 2b3d 5986 0e3c 3146 a63c
00000170: f742 12bc 408c 453d 50b8 c2bd 6e85 a9bc
00000180: 30df 20bd 4f15 f4bd 5f12 693d 0461 183d
00000190: 1dd3 a53d d43f 573c 8c50 5d3c b7ac 503d
000001a0: 9a9a debd
0.065047346 0.0031507981 0.0007482516 0.02184799 0.033797096 0.009397037 0.021786764 -0.023219764
0.092523955 0.021742951 -0.03522047 0.118410625 0.02115733 -0.06385007 0.0959648 0.027992051
-0.032930885 0.089897566 -0.05108665 -0.07418757 0.014141386 0.082134046 0.09471661 -0.0002220033
-0.06554629 0.041830946 0.0039352574 0.044041004 0.05824451 -0.054347932 0.022120886 -0.051479492
-0.045486525 0.19226804 -0.0146568045 0.04729558 -0.04760434 0.042872775 0.051281326 -0.010930655
-0.044067726 0.03968866 -0.0037939271 -0.06862426 -0.090527795 -0.057591394 0.006468063 0.0803355
-0.025663167 0.114006735 -0.07873998 0.09100416 0.08355442 -0.009916541 0.028700398 -0.013767809
0.04926232 0.036202084 0.02396101 0.05922981 0.045275193 -0.078045204 0.087681696 -0.02453197
-0.067860425 0.08843544 -0.11369168 -0.035944622 -0.06931069 -0.0715592 0.011680607 -0.038605373
-0.0015884137 -0.07892853 -0.019979682 -0.12124222 -0.06373232 -0.05293797 -0.11755053 -0.020388408
0.09676512 -0.07995726 0.023164144 -0.044742323 -0.05699532 0.070121035 0.024194866 -0.12298444
0.006519286 0.041928817 0.008699023 0.020297142 -0.0089270985 0.048229456 -0.09507811 -0.020693507
-0.03927535 -0.11918127 0.056902286 0.037201896 0.08096907 0.013137776 0.013507973 0.050945964
-0.10869332

fc8.weight f4 [2, 105]
00000000: d299 943d 5b46 dfbd 6b27 30be 32a6 2f3e
00000010: f80c a7bb 733e e03d 149a 85bd 187f a43d
00000020: c2b3 5b3d 5867 123e d4ab 90be 509c 473e
00000030: d5cc 523c 1bf6 9bbd 4e4e c23d 1561 efbd
00000040: ef37 e73d 6937 193e 22fc 9a3d f55e 99bd
00000050: 938c 463e 997c 3d3e cd02 cb3d 52a1 15be
00000060: f48b 30be 1d9b 4b3e b6af 593e c2c7 223d
00000070: 330e c0bc 7e4e ebbc 954e 1abe cade 33be
00000080: 0324 1abe b06f a63e 82e6 06be 784c 32bc
00000090: 883c 41be 5e80 0f3d beba d33b b134 b1bd
000000a0: c927 003b b886 1dbe 5e9d a43d 07cd b53c
000000b0: 6b40 20be eb26 11be 44bb bfbd 54dc f33d
000000c0: b5fb 74bd 2e4c 893c ff62 6fbd b306 09bf
000000d0: 0b9e a0bd 9708 3abe 4b20 0cbe 02d8 0dbc
000000e0: 7cf8 0dbe bf57 013e b61b 163e 9503 723c
000000f0: 1e06 a83c 9894 0abe 90ba 223d eba2 7bbe
00000100: 1946 e73d cae4 ea3d 549e 4ebe 7981 87bd
00000110: 6dcc 913e 0a33 2cbe 729f 0b3e 79d6 513e
00000120: 8e03 653d c5fd 1d3e 4c41 70bd 40d9 0bbe
00000130: 3fbb 453e 8a37 38be d309 fcbc 0550 dc3d
00000140: c0ae a83b 757b a7bd 85e4 b43c 881d 543e
00000150: 86df f23d b8bc f03d e910 0c3e 98a3 0ebd
00000160: e2a4 1bbe 602f 8bbb 85a0 b93d ee20 873d
00000170: 60f7 b83c af62 11bd 588f 08be 3542 033d
00000180: d371 22be 58c8 28be f78b f03d f1f7 003e
00000190: 8475 b3bd 4b75 50bd 3e18 29be 9db0 903c
000001a0: 101f e7bd d40f b4bd 56f2 e73d a1ad fd3d
000001b0: 5079 a4bb 1e4e 0ebe 090d 07bc 2a09 5f3e
000001c0: c340 78be 499d 8bbd 43cf e3bd e3ad 1e3e
000001d0: 2934 58be ed49 fc3c 47aa 433e d7cf e6bd
000001e0: 2b25 903d 5467 26bd 1809 0ebe 94a3 e3bd
000001f0: b845 8d3d 7681 e2bd 8ad7 e0bd 6121 0fbe
00000200: 4b18 133e 4d5b 2d3e 54da e2bd 65be e1bd
00000210: 982f 1e3d 439d d9bd 8c68 eabd 0323 213e
00000220: 9371 563e 896f ca3d 270c c8be 2186 e13d
00000230: 1d7e 00be 2b0f 033e 205f 48be ecd7 e33b
00000240: f345 50bc 7083 da3d e5c5 09bc ca8f 43bc
00000250: dcb8 8b3d 4186 2c3e 202b 2d3e 75e3 043d
00000260: bd41 5abe 1f74 e03d 7a9a c8bd 4cdf ea3d
00000270: c8b1 0b3f 2c81 9bbd 71ab c83d ecd0 803d
00000280: d6b4 edbd 0630 933d f360 97bd d98b 0dbe
00000290: 89ca 0bbe 9f38 d8bd fb03 a53c aee0 f6bd
000002a0: 89ba 503e 3992 4abc bcf6 85bc b6aa 6f3e
000002b0: 2b50 8ebd b39b acbe ec50 be3d 9634 1dbe
000002c0: 7527 30be d605 22bd cd43 0bbe 2263 7cbd
000002d0: 54fd e53d 3459 40be 8204 403e 652c 093e
000002e0: a002 c83c 91c1 92bd 1837 973d 5249 1fbe
000002f0: 760f f0bc 5077 babd a2b9 bcbd 7312 073c
00000300: 57dd c93d ab08 023e eef5 8a3d 94a2 1cbe
00000310: 451a d1bd 9a2d 13be c4e7 0bbd dfb5 493e
00000320: e894 a2bd b6d7 0e3d ec80 853e c17b 34be
00000330: c6ec 82bc ca82 b6bd b839 2d3d 4d3b 873e
00000340: f19b ddbd 46a0 0c3e
0.072559014 -0.10902091 -0.17202537 0.17153242 -0.0050979815 0.10949411 -0.06523529 0.08032054
0.053638227 0.14297235 -0.28256094 0.19493222 0.012866219 -0.076153 0.09487592 -0.11688439
0.11289965 0.14962544 0.07567622 -0.07488815 0.19389562 0.18504561 0.099126436 -0.1461232
-0.17240888 0.1988339 0.21258435 0.039741285 -0.02344427 -0.028723951 -0.15069039 -0.17565456
-0.150528 0.32507086 -0.13173869 -0.010882489 -0.18870747 0.03503453 0.0064614704 -0.08652628
0.0019554964 -0.15383422 0.08037828 0.022192491 -0.15649574 -0.14175002 -0.0936189 0.11907259
-0.05981036 0.016759958 -0.05844402 -0.5352585 -0.07842644 -0.1816734 -0.13684194 -0.008657457
-0.1386432 0.12631129 0.14659008 0.014771362 0.02051073 -0.13533247 0.0397287 -0.24573867
0.11292667 0.11469419 -0.20177585 -0.06616492 0.28476277 -0.16816345 0.13635042 0.20491971
0.055911593 0.15428837 -0.058656022 -0.13657093 0.1930971 -0.17989936 -0.030766403 0.1075745
0.005147785 -0.081778444 0.022081623 0.2071439 0.1185904 0.11754745 0.13678326 -0.034823984
-0.15199617 -0.004247591 0.0906382 0.06598078 0.022578895 -0.035494503 -0.13335931 0.03204556
-0.15863733 -0.16482675 0.11745446 0.12594582 -0.08762649 -0.05089311 -0.16513154 0.01766234
-0.112852216 -0.087920815 0.11325519 0.12386633 -0.0050193444 -0.13896987 -0.008242854 0.2178084
-0.24243455 -0.06817109 -0.111235164 0.1549602 -0.21113648 0.03079697 0.19107924 -0.11270111
0.07038339 -0.040625885 -0.13870656 -0.111151844 0.068980634 -0.11059849 -0.10978611 -0.13977577
0.14364736 0.1692936 -0.11076799 -0.11022643 0.038619608 -0.106256984 -0.11445722 0.15736012
0.20941763 0.09884555 -0.39071772 0.11011911 -0.12548108 0.12798755 -0.19567537 0.00695323
-0.01271199 0.10669601 -0.008408998 -0.011936137 0.068223685 0.16848089 0.16910982 0.032443482
-0.2131414 0.10959648 -0.09795089 0.11468372 0.5456815 -0.07592997 0.09798325 0.06289849
-0.11606757 0.07186894 -0.073915385 -0.13822879 -0.1365148 -0.105576746 0.0201435 -0.12054573
0.20383658 -0.012363964 -0.016353004 0.23404965 -0.069488846 -0.3371254 0.092927784 -0.15352091
-0.17202552 -0.039556347 -0.13600083 -0.061617978 0.11229959 -0.18784028 0.1875172 0.13395841
0.024415314 -0.07165826 0.07383555 -0.15555313 -0.029304247 -0.09104788 -0.09215094 0.008244145
0.0985667 0.12698619 0.067851886 -0.15296394 -0.10210089 -0.14372864 -0.034156576 0.19698285
-0.07938558 0.034873687 0.26074922 -0.17625333 -0.015982043 -0.08911665 0.042291373 0.2641243
-0.10820759 0.13733014

fc8.bias f4 [2]
00000000: 8159 b03d 0bbc e4bd
0.086108215 -0.11168679

exp_avg f4 [105, 8]
00000000: 3c73 41bb 3c49 8dba a7bb c6b9 8e7c 453a
00000010: bc21 6db9 0453 93b9 ab08 7db9 f38b 583c
00000020: 5ed4 84b9 7d2f 77ba c6b3 c3b8 bfbf 4fba
00000030: ebf5 53ba 3f63 e3ba 4727 86bb e59d 283a
00000040: 09b3 163a 7960 19bb 269e b039 ab04 d6ba
00000050: b947 2dbb 8ce4 55bb f8f8 d8bb c36a 45bb
00000060: 0264 403a 9378 9bba 96b4 a439 01b3 d2b9
00000070: 7d7f 4239 9133 bdba f2b8 8fbb cf73 8fba
00000080: 59dd 49bb 5dcd d03a 2c38 61ba d8bd 973b
00000090: 6088 d63a 537b 2f3b 2216 0d3c 0166 803c
000000a0: 4f9b 89bb 0956 b1b9 0953 89ba 1ecc d53a
000000b0: 30b7 6aba 9bc6 a4b9 398d afbb bd37 e7bb
000000c0: 0cca 2c3c 0438 bd39 822f b33a ab26 63bb
000000d0: b315 68bb 7d0d 12bc 1d82 aebb 4042 1fbd
000000e0: 0252 2abb 7d70 403a 2bba ddb9 e5cd 8b3a
000000f0: fb4e 62ba ee05 713a 0427 1f3a a0fe 80bc
00000100: 67bd 07bc d481 c1ba c80c 92ba daac 563b
00000110: 6131 e4ba 13de 393a 94ec a4bb d3ad 993a
00000120: 0451 83bb dd74 0e3a 133f 56ba e817 2b3b
00000130: 9b3a b3b8 0ddd 9a3a 4f2f deba af81 eb3c
00000140: 29cd a43b aab2 ec3a 583e 3b3a 3f6e 2dba
00000150: 79cc 8b3a f34c 2e3b 4e84 5f3c 5dfa 8d3b
00000160: bf10 713b 6a90 7a3b 4d44 3fb9 ebb4 663a
00000170: 9cb3 c03a 581d 9b3a b966 013c 248a d63a
00000180: 1ab1 483a c254 41ba 28e0 bb39 f809 eab9
00000190: 48f3 b23a 14c1 be3a 10da 25bb d1ff 0d3b
000001a0: eed5 0739 8095 b138 8a19 2238 af17 bfb8
000001b0: 6ff3 8038 4264 1e38 1c5f 1e38 dff7 8737
000001c0: 7d14 ccba ace5 afbb 5537 bb39 9d1b 1cbb
000001d0: 2e6f a1b9 f022 49ba 426c 74bc f3e8 0e38
000001e0: cc85 e5bb 4d28 53bb 94cd 2cba 3a4f 433a
000001f0: 02c9 4fba 70fe 8eba d0bc f6bb ad8b 67bb
00000200: b781 383a fd51 13bb b0a2 533a 6155 bcba
00000210: 289f b53a b65f b3ba 3943 39bb dd13 a33b
00000220: 8b3f b8bb 24e0 1dbc bd9b 3b3a 7349 4dbb
00000230: e829 27ba 56cf a0b9 46e1 ccbc 82ca abba
00000240: 17bf 033b 4127 513b 3329 a2b8 4bbc b03a
00000250: 5ae0 153b 6b6a 623b bf12 0c3c 8e24 fc3b
00000260: 779a c5bb 8406 ddbb 7633 f039 33f8 2ebb
00000270: 2d95 9f3a f573 83ba 0a55 16bc 2f64 863b
00000280: 5a0c 1c3a 0436 6338 0b80 25b8 8a1d 30b8
00000290: 4993 f6b9 0b16 03ba 2eb6 caba d6c3 4a3a
000002a0: cd9d 01b9 c51d d1ba 0b35 6c39 f13e 09ba
000002b0: 126a eab9 daac d3ba 314e cdb8 38bf 97bb
000002c0: 1e79 493a bb8f 71b9 63be c0b8 4613 e0b9
000002d0: db07 6eb9 73b5 37ba 4b3d 31bb 0e4e deb8
000002e0: b646 fa3b d2a0 843b 77c1 133a c035 74ba
000002f0: 9902 dc3a 5e94 1a3b ef09 1d3c 2f00 453b
00000300: 67ef b5bb 5df1 5c3b fe9b adba 8974 673b
00000310: e39a 773b b97c 083c ba67 273c 50a7 3d3d
00000320: 22dc 39bb 4d07 4139 a8d1 b7b9 4542 713a
00000330: d62c 8dba 1748 05bb e1e7 e23a d2c5 6a3a
00000340: 0ffe 3a3c ef23 dc3b 9a78 863a 28d5 b0ba
00000350: 34cc f9b9 1ce7 64ba f9b0 193c 13c1 4abc
00000360: f214 353b 6e7d d9b9 6f03 cb3a 8959 54bb
00000370: 4808 853b 259a a8b9 7e07 1b3c d79b dc3c
00000380: a018 5abc 75d8 86bb 7362 cfba eed2 423b
00000390: ad4a d83a b5c0 803b fea7 b8bb e480 173d
000003a0: bfa1 343c c41c 283b f8f7 8a3a 55c0 09ba
000003b0: d77d 8fba f631 91bb 0c40 193c ba9c feb9
000003c0: 5af3 403b f174 0c3c 520b 3fba 177d 513b
000003d0: cd6a 14b8 00b6 a4b7 c8bb 903c 8573 1139
000003e0: 1534 fdbb 80d3 0e3a fbd7 baba 39c4 9a3b
000003f0: 8021 f8ba 0a68 9539 e92d 25bb 0bad 73bc
-0.0029518148 -0.0010779272 -0.00037905315 0.00075335137 -0.00022614648 -0.00028099876 -0.0002413119 0.01321696
-0.00025335228 -0.00094293786 -9.33181e-05 -0.0007924996 -0.0008085656 -0.0017348303 -0.0040940377 0.00064322195
0.0005748724 -0.002340345 0.00033687166 -0.0016328295 -0.0026440455 -0.0032637445 -0.0066214763 -0.003012345
0.0007339121 -0.0011861495 0.00031415065 -0.0004018769 0.00018548775 -0.0014434924 -0.004386061 -0.0010944548
-0.00308021 0.0015930344 -0.0008591439 0.0046307854 0.0016367547 0.0026776388 0.008611234 0.01567364
-0.0041994224 -0.00033824172 -0.0010477017 0.0016311442 -0.00089536887 -0.0003142849 -0.005357411 -0.007056205
0.010546219 0.00036090624 0.0013670775 -0.00346605 -0.0035413324 -0.008914349 -0.0053255693 -0.03888154
-0.0025988822 0.0007340981 -0.0004229111 0.001066622 -0.0008632985 0.0009194304 0.00060711824 -0.015746415
-0.008284903 -0.0014763423 -0.0011142725 0.0032756836 -0.0017409736 0.00070902816 -0.005033085 0.0011724777
-0.0040074605 0.0005434284 -0.0008172851 0.0026106779 -8.546301e-05 0.0011815146 -0.0016951355 0.028748361
0.00502934 0.0018058617 0.0007142774 -0.0006615854 0.0010665796 0.0026596158 0.013642384 0.004332824
0.0036783663 0.003823305 -0.00018240623 0.00088007626 0.0014701965 0.0011834307 0.007898026 0.0016368073
0.0007655785 -0.00073749956 0.0003583443 -0.00044639385 0.0013652826 0.0014553391 -0.0025306977 0.002166737
0.00012954298 8.467864e-05 3.8647595e-05 -9.112001e-05 6.148859e-05 3.7763508e-05 3.7758713e-05 1.6208678e-05
-0.0015570071 -0.005367955 0.00035708645 -0.002382017 -0.00030791148 -0.00076727476 -0.014918389 3.407239e-05
-0.007004475 -0.0032220066 -0.0006591913 0.00074504653 -0.0007926376 -0.0010909569 -0.0075298324 -0.0035331056
0.0007038372 -0.0022479289 0.00080732536 -0.0014368707 0.0013856636 -0.001368514 -0.0028268828 0.004976733
-0.0056228093 -0.009635959 0.00071566907 -0.0031324297 -0.0006376789 -0.00030672055 -0.025009762 -0.0013106617
0.0020102912 0.0031914266 -7.732436e-05 0.001348385 0.002286932 0.0034548293 0.008549391 0.0076947873
-0.0060303765 -0.0067451615 0.0004581471 -0.0026698231 0.0012175195 -0.0010029065 -0.009175548 0.0041012983
0.0005952768 5.4171323e-05 -3.9458315e-05 -4.198918e-05 -0.00047030512 -0.0005000538 -0.0015465671 0.00077348703
-0.00012361184 -0.0015954307 0.00022526474 -0.0005235514 -0.00044710987 -0.0016149536 -9.789726e-05 -0.0046309493
0.00076855894 -0.00023037095 -9.190736e-05 -0.0004273897 -0.00022700375 -0.0007007934 -0.002704459 -0.00010600324
0.007637824 0.0040474916 0.00056364335 -0.00093158707 0.0016785442 0.002358697 0.009584888 0.0030059924
-0.0055522206 0.00337132 -0.0013245342 0.0035317263 0.0037781529 0.008330517 0.010217601 0.04630214
-0.002835997 0.00018408634 -0.00035060686 0.00092032953 -0.0010770808 -0.0020337158 0.0017311537 0.0008955869
0.011413111 0.006718151 0.0010259331 -0.001349126 -0.00047645124 -0.0008731948 0.0093805725 -0.012375134
0.0027630893 -0.00041482918 0.0015488694 -0.0032402 0.004059825 -0.00032158304 0.0094622355 0.026929779
-0.013311535 -0.004115159 -0.0015822187 0.0029727775 0.0016501747 0.0039292225 -0.0056352606 0.036988154
0.011024891 0.0025651911 0.0010602465 -0.0005254795 -0.0010947537 -0.0044310046 0.009353649 -0.00048563426
0.0029441924 0.008572803 -0.00072877586 0.0031965428 -3.5385416e-05 -1.9635074e-05 0.017667666 0.00013871312
-0.007727156 0.0005448386 -0.0014255041 0.0047230986 -0.0018930882 0.0002849701 -0.0025204367 -0.0148728

exp_avg_sq f4 [105, 8]
00000000: b545 2939 e272 2c39 e5c5 3437 f7f5 e537
00000010: 0219 5f38 bef0 7738 d3e3 5538 f8d4 a23a
00000020: aee2 ca38 c6ce 0a39 79c0 0a37 480e 6037
00000030: 4678 4038 6ea5 1e39 aa51 273a 03b3 e839
00000040: 1cb2 533a 0722 003a 97d0 4737 ff30 2f38
00000050: 7d6f ec38 a2a1 c439 8517 3f3b 4924 5b3b
00000060: 4213 e238 7bf0 0239 47f8 3537 9d8a ad37
00000070: f80a 7838 9c43 f339 f174 8c3a 30cc 7538
00000080: 3384 ce3b 4ec1 493b 7357 0738 6a7d a939
00000090: ce13 e639 0aa7 d53a 5e5c ac3c e584 f03c
000000a0: 6070 133b 6a23 f43a 24b6 6738 e8d9 5539
000000b0: 30eb 0a3a 755b db3a f542 7e3c 3e0a a63c
000000c0: 75ef 763b 23c7 543b ab60 9438 b8d1 8f39
000000d0: ec4b 553a 82aa 5d3b ab47 fb3b 630d 233d
000000e0: c7cf 9d3a 19f9 8d3a 8a7b 6f37 79b0 be38
000000f0: 9159 6339 7274 0e3a 52ef ff3b d8e1 063c
00000100: 0a93 883b 6e46 a43b fced c438 e091 d739
00000110: 9e01 913a c71a 913b 142d 103d 8363 813d
00000120: ccc2 753a 049f 713a 78d0 4538 3e26 3e39
00000130: a9c0 d739 5436 243a 94c2 e43b 6c43 343c
00000140: 6376 ce39 5885 063a 680e fd37 bae4 d338
00000150: 2973 a039 159a 9c3a 55e2 dd3b b88e a23c
00000160: 3413 9d39 c92c 5339 b84a db36 b4dd 8f37
00000170: 79c5 1738 5786 1b39 4343 c43a c5dc b238
00000180: 243f 5539 c396 ab39 dbc9 7137 65a7 2238
00000190: 6e38 e538 7261 b439 e584 2c3b 6051 833a
000001a0: cf37 bf34 523b 5034 6200 9c35 3b40 8235
000001b0: 690a fe34 074b 7a32 ccd8 c935 86a0 fd35
000001c0: c048 4b3a b619 473a ec18 3937 dc4e 9c38
000001d0: 4d75 3639 3bfe 433a ddf9 f83b 3ac7 633a
000001e0: 62e6 2f3a 3937 4f3a 1563 8c37 c8d2 9738
000001f0: 2d78 7c39 6951 863a 33bb 883b 23d4 363c
00000200: e233 783a 0f72 a13a 4a49 2538 93b6 0839
00000210: a3bb b039 009f ae3a fd9d 1f3c 2fe3 d93b
00000220: dfdc a53a 3a50 0b3b d2ea 8238 69dc 3939
00000230: 726c d939 df4c bc3a 8938 743c b066 a03a
00000240: 994b 8e39 1ca6 3d39 da7c a236 a7f5 6437
00000250: b0de 1238 9c53 f438 ea63 a23a 74bd 603a
00000260: 5670 d03a 6783 c43a f360 0a38 2a35 4c39
00000270: 2f8d cc39 9cac 753a 6963 823c ac6c 513c
00000280: d590 8337 8be5 c237 bd58 2635 bd91 2b36
00000290: 13a2 0e37 2e98 3038 79e7 4539 0a64 fd39
000002a0: 99f7 a238 66e9 1239 f3fc 8b36 c362 2d37
000002b0: 8cbf 2238 8048 6139 4966 2e3a f31f 633a
000002c0: 12ae 4d38 934d e238 bf46 5e36 4a0d e836
000002d0: a8d2 b637 77c9 8c38 8a68 393a f3c0 2e38
000002e0: b58e 463a 877d 723a a9b1 a637 c0e8 c438
000002f0: b605 8739 e8b1 0f3a 3891 e33b 2efc 533c
00000300: 96cd ca3a e215 063b 8bac 9e38 b97f 5439
00000310: 6a16 193a af63 133b d81f 4d3b 6970 bf3c
00000320: 882a af39 fe3b 013a 5483 2e37 f5f9 1c38
00000330: fcc1 df38 72a9 da39 139d 3b3b de05 ed3a
00000340: b1c9 1e3b d055 d33a 3029 6c38 23a2 4d39
00000350: 5c9b cd39 be10 4f3a c167 b43b 7903 f53c
00000360: 47ea b63b 04f0 053c 0138 4639 0db3 533a
00000370: 6513 0e3b d975 0a3c 423d a53d 99a0 bf3d
00000380: 3875 c23b 6652 8c3b 9478 fe38 ebe3 dc39
00000390: bca5 953a 5cff 883b 1c8c 3b3c cbbf 773d
000003a0: 4f49 823b c9db 6d3b 95d7 9938 6b96 9c39
000003b0: 8185 833a 574f 793b bdc2 643c e5b0 663d
000003c0: afcf f73a b0af 073b 8451 3738 70c8 5939
000003d0: 9424 f239 709a eb3a e871 933c 4f3c ae3b
000003e0: ef1d 053c 09c8 0a3c ea9f 0e39 9fbd 453a
000003f0: 7c49 fd3a 0803 cb3b e622 8b3d 653a b43d
0.00016143064 0.00016445995 1.0774912e-05 2.7413464e-05 5.3190633e-05 5.9113598e-05 5.0995335e-05 0.0012423089
9.674333e-05 0.00013237735 8.2702545e-06 1.33547655e-05 4.588838e-05 0.00015129682 0.00063827133 0.00044383862
0.00080755516 0.0004887883 1.190989e-05 4.1768883e-05 0.00011274123 0.0003750446 0.0029158306 0.0033438376
0.00010780107 0.00012487352 1.0846247e-05 2.0687754e-05 5.9138023e-05 0.00046398945 0.0010716004 5.8602716e-05
0.0063023805 0.0030785385 3.226795e-05 0.00032327633 0.00043883774 0.0016300392 0.021040138 0.029360244
0.00224974 0.0018626277 5.5244323e-05 0.0002039444 0.0005299328 0.001673563 0.0155188935 0.020268556
0.0037679349 0.0032467328 7.075196e-05 0.00027431338 0.00081366184 0.0033823554 0.0076684556 0.03980769
0.0012040072 0.0010831683 1.4274274e-05 9.0927766e-05 0.00021681773 0.0005434222 0.0078105116 0.008232556
0.004167919 0.0050132787 9.390336e-05 0.0004111668 0.0011063104 0.004428241 0.03519924 0.063178085
0.00093750353 0.00092171156 4.716261e-05 0.00018134058 0.0004115154 0.0006264199 0.0069812033 0.011002403
0.00039379587 0.0005131564 3.0166659e-05 0.00010103868 0.0003060338 0.0011947775 0.0067713656 0.019843444
0.0002995968 0.00020139212 6.535407e-06 1.7150167e-05 3.6185116e-05 0.00014831997 0.0014973659 8.528823e-05
0.00020336785 0.00032727988 1.44117175e-05 3.8779708e-05 0.00010930082 0.00034404878 0.0026324329 0.0010018758
3.5617128e-07 1.939309e-07 1.1623017e-06 9.704448e-07 4.731876e-07 1.45689745e-08 1.5038763e-06 1.8896687e-06
0.0007754676 0.0007595079 1.1032662e-05 7.4533484e-05 0.0001740057 0.0007476543 0.0075981454 0.000868905
0.000671005 0.0007904652 1.673544e-05 7.239502e-05 0.00024077362 0.0010247651 0.0041727065 0.011158976
0.00094681804 0.0012317317 3.940732e-05 0.00013037985 0.00033709136 0.0013322532 0.009742257 0.006649397
0.0012654326 0.0021257536 6.242622e-05 0.00017725084 0.00041470263 0.0014366171 0.014906057 0.0012237635
0.00027140675 0.00018086325 4.842511e-06 1.3647054e-05 3.5016506e-05 0.000116504 0.0012389396 0.00085731526
0.0015902619 0.0014992774 3.2992055e-05 0.00019474761 0.00039015102 0.0009371729 0.015916543 0.012782257
1.568386e-05 2.3233491e-05 6.196895e-07 2.5565816e-06 8.501595e-06 4.21034e-05 0.00018873614 0.00048330455
7.7708806e-05 0.00014010593 4.17197e-06 1.0334598e-05 3.88022e-05 0.0002148468 0.0006652815 0.00086641236
4.9037924e-05 0.00010790969 3.3121757e-06 6.915686e-06 2.1794185e-05 6.713246e-05 0.00070727675 4.166453e-05
0.00075743656 0.00092502724 1.9871472e-05 9.3893614e-05 0.00025753462 0.0005481527 0.0069448017 0.012938542
0.0015472646 0.002045982 7.566166e-05 0.00020265476 0.0005839827 0.0022489836 0.0031299498 0.023369031
0.0003341029 0.0004929899 1.0401785e-05 3.742609e-05 0.00010669601 0.00041706447 0.002862756 0.0018083414
0.0024229104 0.0016123597 5.6305144e-05 0.00019610724 0.000392164 0.0007898918 0.0055055325 0.029908882
0.0055821273 0.0081749 0.00018903615 0.0008075692 0.002167904 0.008450949 0.080683246 0.093568034
0.0059343837 0.0042822836 0.00012134123 0.00042131482 0.001141719 0.004180832 0.011446979 0.060485642
0.003976024 0.0036294332 7.335764e-05 0.0002986671 0.0010034294 0.0038041675 0.013962445 0.056321044
0.0018906499 0.0020704083 4.3706517e-05 0.00020769401 0.0004618509 0.0017975103 0.01799865 0.005317248
0.0081248125 0.008470544 0.00013601748 0.00075432094 0.0019324268 0.0061954297 0.06793766 0.088002004

exp_avg f4 [105]
00000000: e0fc f93a 1ef2 9eba deb8 68bb 322e 7fba
00000010: 245b e33b ba2b 873a 5157 08bc 80da 473a
00000020: e619 7a3b 3ee9 b43b 15c4 57b9 fb5d 113b
00000030: 2164 c6b8 02c7 7fb9 d45c 4fbb 0f80 ac39
00000040: f070 dfba bec6 b0bb 4c01 433b 7a4a a1bb
00000050: 47c3 e3b8 8b5b aaba 6918 02ba a5ac 1bb9
00000060: ccd2 203c 02a6 2b3a 96b9 a5ba 8f5b 00bb
00000070: 44be b93b 122e e9b9 ba64 783b b1ff ac3b
00000080: c68b 22bb 52c0 d73a c665 d33a 5908 69bb
00000090: 80e3 84bb d34f 9d39 95c9 a63b 5c3e 01bc
000000a0: ccf5 033c 8231 37ba eb01 7bba 39ad b9b5
000000b0: a4e0 32bb 5960 063b c215 1e3c ff22 0ab9
000000c0: d7df 6c3c 0353 13bb e3a5 ad3a c67a 823b
000000d0: 37b3 12bb 716e abbb 2021 aa3a 3a8d aeb8
000000e0: 79c7 28bc c73a 0dbb e167 fe3a 133d 77ba
000000f0: e292 2abb 9450 763a c382 0ebb 8a46 46bc
00000100: b515 52bb 7a4c 3c3c 1be5 9cbb 2c31 9fb9
00000110: 6d75 b53a 1056 f239 5a42 e639 8c20 30ba
00000120: afec 98ba 5a56 8a35 f1f6 6bbb c75e 7c3a
00000130: 48ed ca3a af86 af3a e569 b73a eef6 6bb9
00000140: c85c 29b8 6860 ebba b6a4 773b 5a69 f2ba
00000150: 855c 743c 2bef 82ba ade7 9abb 9168 8c3b
00000160: 1a50 3abc 46b1 e138 c384 5f3a fccf f3ba
00000170: 56b9 b23a a69d 14bc c263 d93b 6258 83bb
00000180: a07d c4bb eff8 aa38 6bdc c13b 68cf b9b8
00000190: f3f7 5cbb c4bf 61ba ffd0 f83b 023b 463a
000001a0: 7272 66bc
0.0019072555 -0.00121266 -0.003551058 -0.00097343617 0.006938355 0.0010312714 -0.008321599 0.00076238066
0.003816241 0.0055209687 -0.00020577044 0.002218126 -9.460026e-05 -0.00024392831 -0.0031641023 0.00032901808
-0.0017047208 -0.0053947857 0.0029755412 -0.0049222084 -0.00010860577 -0.0012997253 -0.0004962744 -0.00014846267
0.009815883 0.00065478694 -0.001264381 -0.0019585823 0.0056684334 -0.00044475548 0.0037901835 0.005279504
-0.002480255 0.0016460514 0.0016128353 -0.0035557954 -0.0040554404 0.00030004847 0.0050899484 -0.007888403
0.008054208 -0.0006988273 -0.0009575176 -1.3833989e-06 -0.002729454 0.0020504205 0.009648742 -0.00013173743
0.014457664 -0.0022479899 0.0013248291 0.003981921 -0.0022384652 -0.0052316715 0.0012979843 -8.323272e-05
-0.010301464 -0.0021549927 0.001940962 -0.0009431403 -0.002602749 0.00093961623 -0.002174542 -0.012101779
-0.0032056395 0.011492843 -0.0047880537 -0.0003036348 0.00138442 0.00046221958 0.00043918454 -0.0006718717
-0.0011667217 1.0306933e-06 -0.0036005343 0.000962716 0.0015482092 0.0013391579 0.0013993351 -0.00022503335
-4.037915e-05 -0.0017957808 0.0037787384 -0.0018494532 0.0149146365 -0.000998949 -0.004727325 0.004284926
-0.011371637 0.00010761856 0.0008526558 -0.0018601413 0.0013635557 -0.009070789 0.0066342065 -0.004008339
-0.005996421 8.152599e-05 0.0059161684 -8.86012e-05 -0.0033717125 -0.0008611644 0.0075932737 0.00075618934
-0.014065372

exp_avg_sq f4 [105]
00000000: 774b de38 5070 8a38 7b17 6b39 3f97 f538
00000010: 9380 e63a 36ce 943a e3ac c73a 47a8 053a
00000020: e2ab 193b ce19 613a f243 0e3a b299 c238
00000030: ec57 5b39 f102 7a36 b8a1 f639 a044 d339
00000040: ccfc 373a 8d73 823a a885 ad38 be5e 883a
00000050: 25e8 8337 df38 6938 cd57 2d38 0247 0e3a
00000060: bc42 7a3a 49c1 6339 ecaf 6b3a 62f9 973b
00000070: adb5 083b b01f dc3a c647 9c3a 4413 8d3b
00000080: 4f24 333a 70d0 0b39 8366 9438 94ab 2d39
00000090: 88eb b83a fa2e b438 77ff 753a 71d8 1b3b
000000a0: fbad 813a 5f4f 1838 2eda 7938 95bb 8738
000000b0: 7483 453a 530b 3139 86a0 7b3b 8ef2 b038
000000c0: 6bd3 4f3b e974 8a38 c319 0b39 3397 2f3a
000000d0: efdd 6f39 e10d ce3a 97cc a539 fa5f 2338
000000e0: cb4d 013b c756 ad39 7bdb fe38 cb1c c538
000000f0: f097 9a39 f765 b738 e287 033a 0585 9f3b
00000100: 7227 523a 7c92 2d3b 91a6 af3a 5a4a 8638
00000110: 395d bf39 6b98 8e38 158b 3c39 498a b439
00000120: e893 093a 4f3b 3338 8fc3 293a fa07 0e3a
00000130: d699 5839 e19b 4e3a 1d99 b839 d4c3 9438
00000140: 4700 2939 978e e938 eb04 9339 2f05 0e39
00000150: 5c2b 013b 1818 5937 f71b eb39 b2bc 6c39
00000160: 1764 463c 2939 a239 f6bf 6438 312c a339
00000170: 239c 733a 6d2f 433b d1bb 473b 38c8 833a
00000180: 3c99 5a3b 6a00 8138 1a81 763b ca19 8135
00000190: 6466 303a 047c dc39 2a6c 4e3a 23a2 2139
000001a0: 3823 323b
0.00010599841 6.6012726e-05 0.00022420094 0.00011710682 0.0017585926 0.001135296 0.0015234019 0.00050986226
0.0023448397 0.0008586914 0.0005426995 9.279269e-05 0.00020918221 3.7254615e-06 0.00047041266 0.00040296186
0.00070185657 0.000995265 8.274178e-05 0.0010404212 1.5724518e-05 5.5604494e-05 4.1328185e-05 0.0005427451
0.00095466874 0.00021720411 0.0008990753 0.004637883 0.002086024 0.0016794112 0.0011923246 0.004305275
0.00068337185 0.00013333722 7.076284e-05 0.00016562484 0.001410828 8.591819e-05 0.00093840755 0.0023780132
0.0009893769 3.6313544e-05 5.9569422e-05 6.4722415e-05 0.00075345417 0.00016884254 0.003839524 8.437513e-05
0.0031711708 6.602129e-05 0.0001326567 0.00066982507 0.00022875493 0.0015720689 0.00031623684 3.8951614e-05
0.0019730206 0.00033061786 0.00012152545 9.399055e-05 0.0002948637 8.7451124e-05 0.00050175015 0.004868152
0.0008016742 0.0026485017 0.0013401081 6.403467e-05 0.00036499815 6.799478e-05 0.00017980889 0.00034435306
0.0005248175 4.273216e-05 0.0006475979 0.0005418059 0.00020656674 0.0007881504 0.00035209293 7.093666e-05
0.00016117199 0.00011136865 0.0002804169 0.00013544106 0.0019709682 1.2939818e-05 0.00044843528 0.00022577008
0.012108824 0.00030941635 5.4538214e-05 0.00031122708 0.00092929805 0.0029782907 0.0030476938 0.0010054177
0.0033355495 6.1512765e-05 0.0037613572 9.618755e-07 0.00067291246 0.0004205407 0.0007874394 0.00015414557
0.0027181637

exp_avg f4 [105, 105]
00000000: 0deb 31ba ef3c a73a a26d ee39 d5f3 6fba
00000010: 2193 5939 5109 7aba 811b d938 dc35 f5b9
00000020: 04ee 94b7 3ab6 9cb9 bac1 55b9 b801 ae39
00000030: 78bb 9eba bc7f 88ba c7ec 833a 8982 34b9
00000040: d4aa aa39 5176 38ba e31f 86ba 01e9 3639
00000050: 43a1 b439 5e99 09ba 598f 0b38 7a32 9639
00000060: 3337 83b8 a106 023a 3c1d 87b7 355b fdb8
00000070: 2b3b 3e37 dfd2 db39 7103 91ba f7d0 4a38
00000080: b8d2 9eba 0ec3 6eba 5f26 cbba ff52 f938
00000090: 69cb 7239 1fa3 393a 2307 80b9 d9d6 54b9
000000a0: f920 1cba 1287 7cb9 c5be 1539 bd50 2539
000000b0: 572a ceb8 c4ad aab8 0ef3 88b9 a734 6cb9
000000c0: a42d 95b9 31bf 3a39 6f6d 5d3a 2dd8 1f3a
000000d0: 7f47 89b8 e39f c538 461b 33ba 7c6f 55ba
000000e0: 8807 a8b8 ddc4 d9b9 54d6 f439 ca33 76ba
000000f0: 60f7 6bba 53dc edb9 901b 5c39 f874 183a
00000100: 73d0 0bba 336e b9b8 3fed 3c3a f694 7bba
00000110: 7dd4 ba39 43f7 f7b9 dc61 863a 10a8 793a
00000120: 76e0 583a 8858 3c38 ab5f 7cba de04 0fb9
00000130: 0058 e0b9 0c65 81ba 4a06 8eba 6094 85ba
00000140: e12d 01ba e80a 01b8 1e6b 8a39 4a91 3b39
00000150: 68c4 77b9 ef81 9239 680a 883a ce31 92ba
00000160: ed9c b739 f51d 9039 f216 ce38 d2aa c7b9
00000170: c66f 88ba b50a 0d3a c318 2aba bc9a 903a
00000180: 146e 553a be29 77ba e05c 6139 e6e4 8dba
00000190: eed4 ff38 bf2e 95ba 6f0e ffb9 6869 8dba
000001a0: 2077 3d3a c1b9 8739 c707 78ba 79fe 18b9
000001b0: 5c1e 253a 2827 2e39 1460 6c3a 570a 40ba
000001c0: 7556 adb8 4c7e 82b8 d3eb 67b9 7140 b23a
000001d0: 2e22 08ba 374d 403a c9f7 343a a1ca 94ba
000001e0: a14a 98b9 499c 89b8 3985 f439 0da2 943a
000001f0: 1328 69b9 9454 2d3a 69e9 8eb9 4fa3 05b9
00000200: 02dc 12b9 0012 4a3a 5687 79b9 f2b9 3cba
00000210: a26c e839 2874 203a 3d3f acba 18e0 9c3a
00000220: e960 83b9 1fb1 543a ac3a af39 3e3a a33a
00000230: 09dd 8c37 613d f3b9 8e6e 2839 7fb7 c239
00000240: 5373 133a 82fa 4838 6d96 0ab9 5105 cab9
00000250: 46bb c0b9 9519 883a aa83 14b9 ccc2 d539
00000260: 042f 72b9 15a0 4a3a 28c8 16ba 9ad9 17ba
00000270: 116c 8ab9 28be a639 b99e fab8 9d5f 293a
00000280: 2723 153a 5d03 8b3a a335 b439 eadd c7b9
00000290: 1383 273a c0e8 703a 4250 9f39 91d9 f4b9
000002a0: d49b c3b8 16fa 94b9 fd08 4eba f986 58ba
000002b0: 6be9 253a 8d7b 2b3a a4d8 e439 7fc8 60ba
000002c0: 6a09 20ba 62aa 92b9 0fa8 0bb9 4cc7 3f3a
000002d0: a23e 8139 8c7d c43a 22cb 793a 5010 873a
000002e0: 6b98 523a 6053 c637 1c39 8e38 29f4 bfb9
000002f0: 0b0e d6b9 c8c6 3e39 5bc8 7fb9 a3a7 72ba
00000300: 1a07 a53a c43a 14b9 5ebc 7c39 d02a d6b8
00000310: 6985 ad39 5964 893a 8b49 5fba 8a90 623a
00000320: eb71 c0ba 50fc a2b9 9c32 6b3a b3d2 b1b9
00000330: 943f 453a 014b 51b9 0cb2 543a d3da 8d3a
00000340: 5385 3e3a 4284 88ba 89f1 ad3a bc37 a4ba
00000350: 8cd5 36b9 2f99 c53a 2c97 81ba ebb9 e13a
00000360: 4b79 3d3a 8567 d139 b548 553a 08f3 403a
00000370: a976 e2b8 2133 64b9 6bca 6e3a a444 da3a
00000380: d122 69ba 5033 3e3a b833 abb9 0ab9 d839
00000390: dfed 9e3a 60e2 b038 c87f a2b9 dc1c de39
000003a0: c568 4639 9898 73ba ee9d 03ba c5ef 9ab8
000003b0: 68be 913a 9f68 35b9 6151 86ba 65e7 c639
000003c0: bdaf 8a3a 9bcc d238 50f5 733a dc33 213a
000003d0: f76b d43a ff22 0539 c603 54ba 77ef 89ba
000003e0: 8b4f 2139 8d9a 2039 ccb7 b13a ae95 3839
000003f0: a483 ea38 efd4 25b9 5655 fa37 ae52 f439
-0.00067870395 0.0012759248 0.0004547658 -0.000915346 0.00020749542 -0.00095381314 0.00010352489 -0.0004677017
-1.775381e-05 -0.00029890408 -0.00020385432 0.00033189147 -0.0012110313 -0.0010414044 0.0010065072 -0.00017214766
0.00032552204 -0.00070366735 -0.0010232892 0.00017443673 0.00034452425 -0.0005248989 3.3273685e-05 0.00028647837
-6.2568484e-05 0.0004960094 -1.6106867e-05 -0.00012080969 1.1338659e-05 0.00041928046 -0.0011063648 4.8355167e-05
-0.0012117242 -0.0009108045 -0.0015499106 0.000118887045 0.00023154695 0.0007081497 -0.0002441938 -0.00020297932
-0.0005955841 -0.0002408291 0.00014280815 0.00015765704 -9.830732e-05 -8.138598e-05 -0.0002612103 -0.00022526328
-0.000284535 0.00017809567 0.0008446788 0.00060975814 -6.545986e-05 9.423473e-05 -0.0006832372 -0.00081419176
-8.012267e-05 -0.0004153614 0.00046698994 -0.00093918724 -0.00090014003 -0.00045368317 0.00020991103 0.00058157695
-0.00053334906 -8.8420136e-05 0.0007206983 -0.0009597087 0.00035635 -0.00047295736 0.0010252553 0.00095236395
0.00082731934 4.4905144e-05 -0.0009627293 -0.00013639356 -0.00042790174 -0.0009872033 -0.0010835615 -0.0010191314
-0.0004927796 -3.0766154e-05 0.0002640122 0.00017887834 -0.00023628923 0.00027944098 0.0010379078 -0.0011153759
0.000350214 0.0002748814 9.827119e-05 -0.0003808351 -0.0010409288 0.00053803186 -0.0006488675 0.0011032443
0.0008141708 -0.00094285223 0.00021492271 -0.0010825663 0.00012199009 -0.0011381729 -0.00048648144 -0.001078886
0.0007227529 0.00025887604 -0.0009461608 -0.00014590648 0.00062987744 0.0001660852 0.00090170023 -0.00073257595
-8.265387e-05 -6.222408e-05 -0.00022117728 0.0013599527 -0.00051930815 0.00073357247 0.0006903378 -0.0011351892
-0.00029047302 -6.5617794e-05 0.00046638565 0.0011339799 -0.0002223554 0.00066120294 -0.00027258255 -0.00012744706
-0.00014005604 0.00077083707 -0.00023796907 -0.0007199339 0.00044331426 0.0006120824 -0.0013141405 0.0011968641
-0.0002505847 0.00081135513 0.00033422315 0.0012453271 1.6792228e-05 -0.00046394303 0.00016062913 0.0003713928
0.00056247896 4.791702e-05 -0.00013216744 -0.00038532403 -0.00036760623 0.0010383601 -0.00014163429 0.0004077166
-0.00023096433 0.00077295426 -0.00057518715 -0.0005792618 -0.00026401927 0.00031803665 -0.00011950493 0.0006461086
0.0005689137 0.0010605861 0.00034372238 -0.00038121577 0.0006390076 0.0009189956 0.0003038664 -0.00046701406
-9.32735e-05 -0.00028415088 -0.0007859616 -0.00082598586 0.00063290325 0.0006541543 0.0004364896 -0.0008574798
-0.00061049184 -0.00027974235 -0.0001331868 0.00073157693 0.00024651462 0.0014991029 0.00095288653 0.0010304544
0.00080335763 2.3642264e-05 6.781725e-05 -0.00036612272 -0.00040827724 0.00018193864 -0.00024393333 -0.0009256547
0.0012590617 -0.00014136272 0.00024102765 -0.000102122896 0.0003309653 0.0010482176 -0.00085177337 0.0008642754
-0.0014682388 -0.00031087035 0.000897208 -0.00033917054 0.00075244275 -0.00019959734 0.0008113689 0.0010822661
0.00072677917 -0.0010415392 0.0013270836 -0.0012528817 -0.00017436425 0.001507556 -0.0009886972 0.0017221546
0.0007227852 0.00039940714 0.00081361394 0.0007360433 -0.00010798622 -0.00021762821 0.0009109142 0.0016652537
-0.00088934327 0.0007255571 -0.00032654195 0.00041336595 0.0012125334 8.4344996e-05 -0.00030994252 0.00042364642
0.00018921781 -0.00092924526 -0.0005020787 -7.387953e-05 0.0011119368 -0.0001730048 -0.0010247641 0.00037937905
0.0010580939 0.00010051691 0.0009306269 0.000614939 0.0016206492 0.00012696905 -0.00080877205 -0.0010523637
0.00015383789 0.00015316364 0.0013558804 0.00017603367 0.000111825095 -0.0001581495 2.984206e-05 0.00046600908
