save/new8.pt (torch_old, 150259 bytes, 18 tensors)

fc1.weight f4 [105, 8]
0.11103593 -0.03781375 0.1936802 -0.70699465 0.017785016 0.043403637 -1.0418847 0.035753332
0.7812117 -0.37405753 -0.014844103 0.13473722 -0.06782897 0.07604716 0.08151948 -0.377646
0.46779358 -0.35061556 0.08789843 0.25526437 -0.023253057 -0.035851337 -0.08306739 -0.1580194
-0.38623077 -0.13761465 0.3144524 0.3147634 -0.24621171 0.34804022 -0.17394985 -0.39136657
-0.21111974 0.28948158 0.6749292 -0.16135933 0.17296232 0.0004549072 0.18023019 0.006575692
0.35202837 -0.4263697 0.6045617 -0.3296193 0.32349512 -0.054152314 -0.0690515 0.09084708
0.07433231 0.16927105 -0.26260915 0.6072434 0.039457772 0.0030062995 -0.33364376 -0.0013158229
-0.424331 0.2407861 0.7135101 0.2597598 -0.035194073 0.45012575 -0.07602395 0.1809012
0.020794716 0.2547554 0.2331198 0.14970729 -0.037328493 -0.028964473 -0.27960965 -0.000244386
0.028681062 -0.19080561 0.2941271 -0.28411436 0.42247847 -0.16815479 -0.117170185 -0.024255749
0.30579254 0.44038564 -0.036798824 0.29222745 -0.23534535 -0.17101775 0.17826167 -0.13722502
0.12684417 -0.44714043 -0.11432409 -0.14290828 0.16349988 0.23435292 0.38919273 -0.20633481
-0.52351505 0.07479891 -0.112516984 -0.15626448 -0.13360597 -0.067947924 0.036996856 0.43459272
-0.7073408 -0.7817862 0.7550354 -0.19772571 -0.7391623 -1.2917837 -0.50447255 -0.5283082
-0.45316473 0.11598444 -0.25359413 -0.104983844 -0.25223756 -0.05245609 0.1699481 -0.5748827
-0.05276773 0.11008708 0.067024276 -0.2709015 0.051893033 0.04954145 -0.45116454 0.038270086
-0.4248056 0.25353462 0.63258487 0.0819774 0.34214097 -0.25312757 0.14206289 -0.014215443
-0.67962617 0.30871013 -0.22335117 0.47811967 -0.0578605 -0.065865956 -0.14558546 0.44161794
-0.14872101 0.09039826 0.8369522 -0.37858352 0.29849496 -0.26837918 0.06380311 0.10776824
0.48326752 0.20731874 0.20635349 -0.38501856 -0.36234498 0.45963776 -0.3548696 0.053015918
0.5666065 0.122002885 0.51884353 0.030799514 0.14047286 -0.1279183 0.093446255 -0.22275406
-0.15105839 -0.2179626 1.412697 -0.18117453 0.21216518 0.15791547 -0.12416758 0.13592169
0.56633955 -0.37226427 0.18797192 -0.39919814 -0.17070757 0.17888978 0.20438041 -0.32332495
0.04355019 0.04919125 -0.8732435 0.36206213 -0.4013691 0.16705781 0.12753029 0.0075962483
0.24229409 -0.4312154 0.04806842 -0.52083033 -0.14606655 -0.044035148 0.21351843 0.05101078
-0.04643027 0.33637598 -0.39467335 -0.076335594 0.013700003 0.09817101 -0.2277756 -0.042497505
0.4551553 -0.49481595 -0.50014263 0.34344944 -0.1909452 -0.46249932 -0.32180697 0.121099494
-0.2811307 0.2226984 -0.2687137 -0.035632644 -0.04412415 -0.1210122 0.20148829 -0.012803881
-0.40275094 0.38851693 0.5426397 -0.554724 0.03629385 0.041311074 0.3483916 -0.10111025
0.1133816 -0.068446234 -0.39636564 0.35240102 0.1301406 -0.01667018 -0.31958207 0.003589262
0.47592795 -0.50112545 0.37940833 0.08610081 0.21778215 -0.22903247 -0.13753062 0.26884106
0.10741987 -0.01025363 0.7419501 -0.07429155 0.15678392 0.15366365 -0.14207157 0.007890807
00000000: ce66 e33d 97e2 1abd 1a54 463e 9afd 34bf
00000010: e2b1 913c 03c8 313d 7a5c 85bf 1672 123d
00000020: 7dfd 473f 7884 bfbe ae34 73bc 8ef8 093e
00000030: eae9 8abd 9dbe 9b3d aff3 a63d d15a c1be
00000040: a482 ef3e e283 b3be 1804 b43d 03b2 823e
00000050: 327d bebc dad8 12bd 3c1f aabd d6cf 21be
00000060: 0ac0 c5be dbea 0cbe e8ff a03e ab28 a13e
00000070: ec1e 7cbe 5432 b23e e91f 32be 3361 c8be
00000080: c62f 58be ee36 943e 29c8 2c3f 613b 25be
00000090: 091d 313e 9c80 ee39 438e 383e e778 d73b
000000a0: 103d b43e 214d dabe 8ec4 1a3f dcc3 a8be
000000b0: 27a1 a53e d1ce 5dbd df6a 8dbd 090e ba3d
000000c0: 8a3b 983d 6455 2d3e b574 86be 4e74 1b3f
000000d0: 799e 213d 5605 453b 5bd3 aabe b177 acba
000000e0: ea41 d9be a290 763e 99a8 363f 3dff 843e
000000f0: a927 10bd e276 e63e 72b2 9bbd 2a3e 393e
00000100: ae59 aa3c 4d6f 823e f5b6 6e3e de4c 193e
00000110: c3e5 18bd e746 edbc ff28 8fbe ef20 80b9
00000120: 8cf4 ea3c 8c62 43be d497 963e 7077 91be
00000130: 194f d83e c530 2cbe ecf6 efbd feb3 c6bc
00000140: d790 9c3e 3a7a e13e 5dba 16bd d69e 953e
00000150: 5ffe 70be 471f 2fbe 3a8a 363e b784 0cbe
00000160: 70e3 013e 97ef e4be c022 eabd 8c56 12be
00000170: 836c 273e 36fa 6f3e 4544 c73e 6f49 53be
00000180: 1505 06bf 2c30 993d 4e6f e6bd cc03 20be
00000190: 01d0 08be 4828 8bbd 048a 173d f082 de3e
000001a0: 4914 35bf 2423 48bf 004a 413f 9c78 4abe
000001b0: be39 3dbf 2b59 a5bf 1d25 01bf 353f 07bf
000001c0: 3505 e8be 4089 ed3d 17d7 81be c501 d7bd
000001d0: 4825 81be 32dc 56bd e006 2e3e 832b 13bf
000001e0: fa22 58bd 5675 e13d 0644 893d 9ab3 8abe
000001f0: ca8d 543d faeb 4a3d 0aff e6be 18c1 1c3d
00000200: 1f80 d9be 4acf 813e 15f1 213f c4e3 a73d
00000210: 1a2d af3e f099 81be ef78 113e e4e7 68bc
00000220: fbfb 2dbf 410f 9e3e 2bb6 64be 1acc f43e
00000230: 22ff 6cbd bbe4 86bd 5b14 15be bf1b e23e
00000240: 524a 18be b922 b93d 8042 563f b3d5 c1be
00000250: 55d4 983e ff68 89be 34ab 823d 98b5 dc3d
00000260: d76e f73e 5d4b 543e 544e 533e 2721 c5be
00000270: 4885 b9be a455 eb3e 78b1 b5be 3827 593d
00000280: 200d 113f a6dc f93d eed2 043f 434f fc3c
00000290: 1ed8 0f3e 04fd 02be c060 bf3d a419 64be
000002a0: 0daf 1abe 9631 5fbe 41d3 b43f d185 39be
000002b0: d441 593e 98b4 213e 924b febd 0e2f 0b3e
000002c0: a1fb 103f 6c99 bebe b67b 403e b363 ccbe
000002d0: f7cd 2ebe e22e 373e 1949 513e d98a a5be
000002e0: af61 323d c47c 493d e38c 5fbf 3560 b93e
000002f0: 4080 cdbe 3411 2b3e 4d97 023e f3e9 f83b
00000300: f11b 783e 44c8 dcbe 64e3 443d 2355 05bf
00000310: 7892 15be 335e 34bd 93a4 5a3e aef0 503d
00000320: ab2d 3ebd 7939 ac3e a012 cabe d655 9cbd
00000330: fa75 603c e20d c93d 023e 69be dd11 2ebd
00000340: 1e0a e93e 8458 fdbe 5909 00bf 9bd8 af3e
00000350: 2387 43be b6cc ecbe e2c3 a4be 0303 f83d
00000360: 5df0 8fbe 0d0b 643e d894 89be 89f3 11bd
00000370: 86bb 34bd 3fd5 f7bd f252 4e3e 5fc7 51bc
00000380: 5f35 cebe b1eb c63e 6fea 0a3f 6402 0ebf
00000390: dca8 143d cd35 293d 6260 b23e e412 cfbd
000003a0: 9d34 e83d 8a2d 8cbd 70f0 cabe e86d b43e
000003b0: 9443 053e e78f 88bc 43a0 a3be d339 6b3b
000003c0: d4ac f33e c249 00bf cf41 c23e 9f55 b03d
000003d0: 4902 5f3e 7d87 6abe d4d4 0cbe 89a5 893e
000003e0: f3fe db3d d7fe 27bc 71f0 3d3f 2b26 98bd
000003f0: f78b 203e 015a 1d3e 367b 11be 7248 013c

fc1.bias f4 [105]
0.39698064 0.16921046 0.6476635 -0.08477678 -0.6765867 0.02418466 0.50153357 -0.42393053
0.4781954 0.59075105 -0.25443608 -0.3193819 -0.34580895 -0.18956096 -0.023266248 0.02784452
-0.3207342 -0.08341331 -0.5025013 0.11767431 0.2251191 -0.038531914 -0.123378925 -0.55343145
-0.10965314 0.38070273 0.20187686 -0.630092 -0.15702671 0.77867043 0.09594876 0.15996946
-0.5108664 -0.4775231 -0.28971872 0.16316932 -0.42655995 0.444256 -0.28432426 -0.6462587
0.014408606 -0.14373934 0.29486382 -0.25330076 -0.6186414 0.31474707 -0.4670585 0.38957196
-0.84528536 0.51035583 0.0059942272 -0.065286845 -0.2980301 -0.24063924 0.21013203 -0.072053246
-0.06754832 -0.046920963 0.13048655 -0.26934066 -0.29448867 0.41856802 -0.24268194 -0.46619874
0.6479116 0.043333266 0.010103697 0.31722772 -0.15579367 0.24226354 0.095037654 -0.39372352
0.46067804 -0.3350771 -0.7718548 0.6051267 -0.5530111 -0.21218303 0.02327101 -0.12054343
-0.008710627 0.21769321 0.14924994 0.3221153 -0.9412382 0.5071091 -0.09407962 -0.77298945
-0.16511808 0.13990293 0.23993501 0.045206103 -0.9802703 -0.034188945 0.18418239 0.3038282
0.66313595 -0.43048057 0.31291497 -0.56422776 -0.11453012 -0.43520886 -0.21933472 0.13882335
0.83054924
00000000: 0c41 cb3e 8245 2d3e 46cd 253f 739f adbd
00000010: c934 2dbf e81e c63c 8164 003f 6c0d d9be
00000020: 07d6 f43e 763b 173f 7245 82be 0686 a3be
00000030: df0d b1be 451c 42be dc98 bebc 311a e43c
00000040: 4637 a4be 99d4 aabd eda3 00bf 3bff f03d
00000050: 9f85 663e a4d3 1dbd 17ae fcbd afad 0dbf
00000060: d391 e0bd 78eb c23e cfb8 4e3e b64d 21bf
00000070: 9ccb 20be f256 473f c980 c43d 09cf 233e
00000080: 24c8 02bf e87d f4be 0356 94be dc15 273e
00000090: 1166 dabe 8675 e33e f392 91be 3671 25bf
000000a0: 1312 6c3c 6830 13be 64f8 963e a3b0 81be
000000b0: 485f 1ebf 8726 a13e 4b22 efbe fa75 c73e
000000c0: 9f64 58bf aea6 023f 396b c43b 1cb5 85bd
000000d0: 6797 98be 226a 76be da2c 573e a790 93bd
000000e0: c656 8abd 3230 40bd 449e 053e 05e7 89be
000000f0: 38c7 96be 8c4e d63e 9d81 78be 9ab1 eebe
00000100: 89dd 253f 397e 313d fa89 253c ac6b a23e
00000110: 6088 1fbe ef13 783e 1aa3 c23d 2196 c9be
00000120: fedd eb3e 3a8f abbe 4798 45bf 95e9 1a3f
00000130: 2392 0dbf 8246 59be d8a2 be3c 79df f6bd
00000140: 05b7 0ebc f8ea 5e3e fad4 183e 4cec a43e
00000150: fdf4 70bf e7d1 013f d1ac c0bd a3e2 45bf
00000160: b714 29be b742 0f3e 86b1 753e 092a 393d
00000170: fff2 7abf b509 0cbd 4f9a 3c3e 5f8f 9b3e
00000180: 47c3 293f f367 dcbe 6436 a03e 3b71 10bf
00000190: c48e eabd b2d3 debe 4899 60be b527 0e3e
000001a0: e09e 543f

fc2.weight f4 [105, 105]
-0.059368566 0.029428858 0.076592304 -0.13771915 -0.15324108 0.24952894 0.08299011 -0.17352988
0.11221928 0.23777652 -0.008712356 -0.026800372 0.06405767 -0.06328125 -0.065451324 0.051784426
-0.1446286 -0.012859073 0.017737724 0.020061225 0.0061037387 -0.08878226 -0.0024487465 -0.16426869
0.028730199 -0.10310615 0.12893893 -0.31461075 -0.18648341 0.21148059 0.1708102 -0.027037745
0.074903786 -0.16178526 0.05841383 -0.01520807 0.12101586 0.043205075 -0.20930359 -0.21278626
0.07102943 -0.021776892 -0.0595924 -0.078867786 0.014787754 -0.14938062 -0.12017271 0.16406915
-0.05330321 0.07347055 -0.08115113 -0.12058446 -0.051123295 -0.0764394 0.062760845 -0.031030128
0.024719313 -0.05523668 -0.10808998 -0.048522066 0.041342437 0.11743805 -0.14284134 -0.17776297
0.055292908 0.02175184 -0.06696105 -0.030434495 -0.009566829 -0.009009961 0.0014793603 -0.22342321
-0.038074218 0.066755675 -0.04869677 0.063573 -0.17445211 0.13002285 0.10752406 0.05885629
-0.05091119 0.051758956 0.0010391418 -0.008603316 -0.09999231 0.0472606 -0.0033115116 0.048767876
0.086288355 -0.05021818 -0.03508775 -0.035612293 -0.30776516 -0.106754646 -0.020995433 -0.11445473
0.009512156 0.061758623 0.14890707 0.022945516 0.047195338 0.12918954 0.15953742 0.12435437
0.18985038 -0.03442522 0.014765642 0.03396887 -0.09077244 0.04875264 -0.03069562 0.04788291
0.012270205 0.091670714 0.04665373 0.15043536 0.02139254 -0.09177315 0.0488028 0.025477903
-0.027285846 0.31574094 -0.065123826 0.257546 -0.18170872 0.08525116 -0.10858393 -0.056552723
-0.2221732 -0.028747503 0.018241286 0.0042701666 0.28900585 -0.007409557 -0.02070353 0.09128495
-0.094490774 -0.029281208 -0.11616087 -0.026865257 0.1115772 0.045263894 0.12225572 -0.030001367
-0.04978805 -0.002833555 0.05348736 -0.08156787 0.052686892 0.26705837 -0.19172618 0.102769
0.06026295 -0.07655247 -0.07647954 0.03219662 -0.05188666 0.07594089 -0.030764101 -0.030143801
-0.020922238 -0.00078970386 -0.042128418 -0.0560627 0.017620252 0.0044247396 0.039178517 -0.034203902
-0.011735167 -0.27931675 -0.048551552 0.051996622 -0.06659346 0.047976382 0.001338426 -0.03026367
0.11980969 0.0102256 0.059585743 -0.08322555 -0.19686203 0.06358603 -0.0013540792 0.0011352261
0.0058997385 -0.0881474 -0.045295715 -0.051669076 -0.073852494 0.024229107 0.009674902 -0.19202444
0.00399158 0.5925226 -0.0067913174 0.2073453 -0.0024451893 -0.121446796 0.014495912 -0.2619458
-0.13201095 0.10569943 -0.034125134 -0.19002336 0.022103503 0.002015767 -0.058357455 0.1027573
-0.025268083 0.0077007553 -0.0831114 0.24214512 1.0142491 -0.030405719 -0.22599207 0.07073768
0.07957832 -0.25999898 -0.032023855 0.0315629 0.08148852 0.16590558 -0.14856449 -0.016862512
0.030617788 -0.09670556 -0.1534761 -0.082555674 -0.45800713 0.041683577 0.20598823 -0.12564899
0.15909667 0.009441579 0.038110375 0.014694573 0.05012541 -0.17624104 -0.063749634 0.07754705
-0.09028225 0.0005635607 -0.19100738 -0.3810105 -0.16841927 -0.1973878 -0.07735884 0.20389774
-0.30915838 -0.015987003 -0.057073373 -0.10540629 -0.026682043 0.0055725505 0.11753903 0.092179835
00000000: 742c 73bd ca14 f13c 6ddc 9c3d 4006 0dbe
00000010: 3beb 1cbe 8484 7f3e b8f6 a93d d1b1 31be
00000020: 39d3 e53d b07b 733e 45be 0ebc 748c dbbc
00000030: ab30 833d 9a99 81bd 580b 86bd e81b 543d
00000040: 8519 14be dcae 52bc b44e 913c 7057 a43c
00000050: df01 c83b 79d3 b5bd 267b 20bb 0d36 28be
00000060: 985b eb3c 5129 d3bd 9108 043e a914 a1be
00000070: 82f5 3ebe 5e8e 583e dee8 2e3e 437e ddbc
00000080: 2867 993d 09ab 25be 5743 6f3d 452b 79bc
00000090: 2ad7 f73d cef7 303d ae53 56be a4e4 59be
000000a0: e177 913d 7465 b2bc 2917 74bd 6f85 a1bd
000000b0: 5648 723c 3cf7 18be 1c1d f6bd be01 283e
000000c0: 7754 5abd ba77 963d 9032 a6bd fcf4 f6bd
000000d0: a966 51bd 438c 9cbd c288 803d e532 febc
000000e0: 2880 ca3c db3f 62bd 485e ddbd 13bf 46bd
000000f0: b056 293d 5c83 f03d 0045 12be 7f07 36be
00000100: d17a 623d ea30 b23c e022 89bd c351 f9bc
00000110: 30be 1cbc 849e 13bc 18e7 c13a 0ec9 64be
00000120: b6f3 1bbd 33b7 883d 4476 47bd 9032 823d
00000130: 93a3 32be b624 053e 9335 dc3d 4b13 713d
00000140: 4188 50bd 3301 543d d033 883a ecf4 0cbc
00000150: c5c8 ccbd 5594 413d f205 59bb d3c0 473d
00000160: f3b7 b03d 94b1 4dbd 2cb8 0fbd 32de 11bd
00000170: 6593 9dbe 2ea2 dabd 9dfe abbc 3e67 eabd
00000180: e0d8 1b3c 9cf6 7c3d 187b 183e 3cf8 bb3c
00000190: e64f 413d 434a 043e c75d 233e 81ad fe3d
000001a0: 2368 423e 7601 0dbd 97eb 713c f122 0b3d
000001b0: e7e6 b9bd d9b0 473d 6275 fbbc df20 443d
000001c0: f808 493c dbbd bb3d fb17 3f3d ba0b 1a3e
000001d0: 683f af3c 90f3 bbbd 72e5 473d 09b7 d03c
000001e0: 9186 dfbc cca8 a13e a45f 85bd 12dd 833e
000001f0: da11 3abe 2998 ae3d 4061 debd d4a3 67bd
00000200: 5f81 63be e27f ebbc c06e 953c c1ec 8b3b
00000210: 93f8 933e decb f2bb 739a a9bc 9bf3 ba3d
00000220: 6184 c1bd 25df efbc c0e5 edbd 8714 dcbc
00000230: 9682 e43d a266 393d 3561 fa3d 6dc5 f5bc
00000240: 8eee 4bbd 2ab3 39bb 9015 5b3d 0e0d a7bd
00000250: 36ce 573d e0bb 883e de53 44be 8e78 d23d
00000260: 48d6 763d 8bc7 9cbd 4ea1 9cbd 9ae0 033d
00000270: 1b87 54bd e686 9b3d ff04 fcbc 22f0 f6bc
00000280: 1d65 abbc 2104 4fba d98e 2cbd 00a2 65bd
00000290: 5958 903c 68fd 903b a779 203d 6419 0cbd
000002a0: dc44 40bc 9b02 8fbe fedd 46bd 69fa 543d
000002b0: 2762 88bd e282 443d 206e af3a 84eb f7bc
000002c0: c85e f53d 4689 273c 2e10 743d 2872 aabd
000002d0: 3396 49be 6439 823d 5c7b b1ba decb 943a
000002e0: 9852 c13b a086 b4bd 0088 39bd f4a2 53bd
000002f0: fa3f 97bd 1f7c c63c 7b83 1e3c 0ea2 44be
00000300: cdcb 823b 90af 173f b389 debb 5452 543e
00000310: 783f 20bb 19b9 f8bd 4380 6d3c c31d 86be
00000320: e12d 07be f178 d83d ccc6 0bbd 7c95 42be
00000330: 6812 b53c f51a 043b 3a08 6fbd 6b72 d23d
00000340: 03ff cebc 9e56 fc3b 4f36 aabd e4f4 773e
00000350: ead2 813f 6a15 f9bc 776a 67be ebde 903d
00000360: f5f9 a23d 961e 85be 722b 03bd 1948 013d
00000370: 74e3 a63d 27e3 293e 4a21 18be 4023 8abc
00000380: 28d2 fa3c 910d c6bd d728 1dbe f312 a9bd
00000390: e97f eabe 66bc 2a3d 94ee 523e 21aa 00be
000003a0: 3dea 223e dab0 1a3c a019 1c3d 82c1 703c
000003b0: 4d50 4d3d 8878 34be 2b8f 82bd fdd0 9e3d
000003c0: e6e5 b8bd ebbb 133a 7097 43be cf13 c3be
000003d0: 1a76 2cbe 0720 4abe 506e 9ebd 92ca 503e
000003e0: 024a 9ebe 2df7 82bc c5c5 69bd 41df d7bd
000003f0: 4d94 dabc f199 b63b 4eb8 f03d c8c8 bc3d

fc2.bias f4 [105]
0.08301887 0.009706607 0.06846215 0.021514354 0.043030914 0.0040039094 0.113269664 0.06452565
0.10759965 0.21380621 0.069693945 0.4444074 0.07808119 -0.19950728 0.23559593 0.084355086
0.09998768 0.056529306 0.01160431 -0.07506781 0.06792309 0.13141854 0.10959156 -0.057165094
-0.116882846 0.03455594 0.049016144 0.1041462 0.12326218 -0.105163865 0.039247606 -0.0039411336
-0.028579466 0.3691502 -0.017621888 0.20230551 -0.118824616 0.08026709 -0.011362701 0.01664602
-0.38215256 0.043626133 0.17294633 -0.030180775 -0.49848318 -0.1750253 0.02780902 0.08916578
-0.018310895 0.3786853 -0.16466513 0.18457061 0.109229796 0.064472586 -0.012236324 0.011523929
0.063341014 0.15757528 0.05384612 0.034867205 -0.0047531496 -0.21054517 0.13708074 0.1869478
-0.047656894 0.10888608 -0.1041943 -0.068285435 -0.13905746 -0.2668286 -0.008004537 -0.15553585
-0.022840464 -0.11874129 0.021369278 -0.30779508 -0.10147518 -0.14157668 -0.2251937 -0.01127915
0.15575443 -0.13094369 -0.0014123206 -0.06405743 0.0973024 0.08132354 -0.02373957 -0.15190332
-0.0233051 0.13720056 0.20905377 0.043812487 0.19564794 -0.023375351 -0.41054657 0.024345811
-0.008503313 -0.768614 0.19410697 -0.04385878 0.15460524 0.04473102 0.068390265 0.22909568
0.012799233
00000000: cc05 aa3d 7608 1f3c e235 8c3d df3e b03c
00000010: 2f41 303d 3a33 833b edf9 e73d 0626 843d
00000020: 355d dc3d 04f0 5a3e b3bb 8e3d 5e89 e33e
00000030: 08e9 9f3d a34b 4cbe 0f40 713e 5cc2 ac3d
00000040: 57c6 cc3d 468b 673d 0120 3e3c 27bd 99bd
00000050: 431b 8b3d 9592 063e 8a71 e03d f225 6abd
00000060: 4660 efbd 888a 0d3d 27c5 483d 9a4a d53d
00000070: e270 fc3d 2760 d7bd 19c2 203d a024 81bb
00000080: 7c1f eabc 4101 bd3e c75b 90bc 2d29 4f3e
00000090: 525a f3bd 1263 a43d 9f2a 3abc 3c5d 883c
000000a0: 80a9 c3be 51b1 323d d818 313e ac3d f7bc
000000b0: 3039 ffbe d539 33be becf e33c 8c9c b63d
000000c0: bb00 96bc 0ae3 c13e fa9d 28be 1400 3d3e
000000d0: dfb3 df3d 340a 843d dd7a 48bc ddce 3c3c
000000e0: efb8 813d 6a5b 213e c08d 5c3d ead0 0e3d
000000f0: 4fc0 9bbb 2799 57be e55e 0c3e 3e6f 3f3e
00000100: e033 43bd aaff de3d d263 d5bd 3cd9 8bbd
00000110: 1465 0ebe c29d 88be 7625 03bc ca44 1fbe
00000120: ed1b bbbc a22e f3bd a00e af3c 5197 9dbe
00000130: 38d2 cfbd 7af9 10be 2d99 66be 2fcc 38bc
00000140: 177e 1f3e 1a16 06be 9e1d b9ba 8b30 83bd
00000150: 7b46 c73d f58c a63d 7d79 c2bc 8b8c 1bbe
00000160: 56ea bebc 4e7e 0c3e 3112 563e b974 333d
00000170: ef57 483e aa7d bfbc 2933 d2be de70 c73c
00000180: 7b51 0bbc e3c3 44bf fac3 463e 44a5 33bd
00000190: d650 1e3e e037 373d 3210 8c3d 0f98 6a3e
000001a0: e0b3 513c

fc8.weight f4 [2, 105]
0.07456194 -0.09515587 -0.3382288 0.08162066 -0.03825598 0.14119053 -0.0848452 -0.066594675
-0.008809882 0.18794006 -0.1960755 0.18494968 0.06287544 -0.033667844 0.011520005 -0.15251167
0.07834786 0.07030356 0.14036667 -0.10750398 0.041437306 0.21985224 -0.01870002 -0.16962665
-0.16478595 0.1032945 0.3118869 0.08149084 0.054859128 -0.12174652 -0.19638623 -0.079930596
-0.09040035 0.4036011 -0.09320058 -0.038862865 -0.22277679 -0.05181422 -0.020630183 -0.031468537
0.014821594 -0.14404638 0.105346575 0.09872787 -0.11388713 -0.030104967 -0.030746136 -0.03521425
0.024744643 0.024081055 -0.05120342 -0.55122584 0.022071728 -0.28176305 -0.04080707 -0.10798986
-0.15444107 0.2051792 0.0028086512 0.01025587 0.023989573 -0.1437767 0.004560505 -0.4326934
0.13508649 0.1355409 -0.10039371 -0.12282471 0.3015656 -0.13757358 0.07373797 0.36023948
-0.0313005 0.12070226 -0.058413174 -0.1676468 0.15380044 -0.25323328 -0.056429755 -0.015024152
0.0656095 -0.061955944 -0.06502431 0.22068971 0.06840413 0.2968966 0.07485858 -0.0153837
-0.014735341 0.08984132 0.054403376 0.034358855 0.018609755 -0.052250292 -0.050792973 0.047193073
-0.09941649 -0.13300116 0.03219577 0.13164258 -0.057982493 -0.06354318 -0.086351 0.008089613
-0.073594145 -0.08992417 0.099391125 0.29006994 0.08489285 -0.105812855 -0.039939746 0.23742001
-0.09551785 -0.0057235155 -0.15619776 0.06847676 -0.20115024 -0.019211235 0.14859042 -0.0293419
0.106011376 -0.0060713906 -0.05938589 -0.17583978 0.10159418 0.041861344 -0.14459275 -0.021947946
0.16714905 0.16166714 -0.015226155 -0.20953031 -0.0031333305 -0.18455616 -0.021434356 0.20305797
0.11369424 0.038720112 -0.469248 0.07158234 -0.097498685 0.16205573 -0.108826175 0.0340463
-0.06777338 0.09382457 -0.018196257 -0.036902077 -0.00831535 0.12586857 0.0574621 -0.030430166
-0.058856037 0.025040103 -0.1052691 0.10744126 0.5616501 -0.17643149 0.19807383 -0.033134416
-0.016733214 0.08766915 -0.1527813 0.0055540446 -0.13199894 -0.10905737 0.028586186 -0.08537492
0.39079377 -0.034521032 -0.037201744 0.13266523 -0.012826283 -0.35392618 0.06233483 -0.09090987
-0.32734492 0.047655515 -0.102415845 -0.061859153 0.14337221 -0.14854455 0.2608504 0.15962036
0.14701995 -0.13211766 0.054012198 -0.06844726 -0.042849448 -0.04086012 -0.2714999 0.070171095
0.07912445 -0.010275224 -0.026234807 -0.11672611 -0.070478305 -0.13975658 -0.017401151 0.11441408
-0.09453253 -0.024344748 0.22892082 -0.09099038 -0.021683132 -0.11875828 0.054944187 0.1853417
-0.09863264 0.09807475
00000000: eeb3 983d 15e1 c2bd 532c adbe bc28 a73d
00000010: 4db2 1cbd 4094 103e 52c3 adbd ca62 88bd
00000020: 5357 10bc 5c73 403e 04c8 48be 7363 3d3e
00000030: d7c4 803d 4be7 09bd 67be 3c3c 052c 1cbe
00000040: d874 a03d 50fb 8f3d 48bc 0f3e 0c2b dcbd
00000050: 2aba 293d f220 613e c930 99bc 9cb2 2dbe
00000060: a6bd 28be 118c d33d a4af 9f3e abe4 a63d
00000070: f7b3 603d 3d56 f9bd 7919 49be a7b2 a3bd
00000080: d223 b9bd cea4 ce3e f2df bebd ab2e 1fbd
00000090: 991f 64be 263b 54bd a100 a9bc 27e5 00bd
000000a0: 45d6 723c e580 13be f2bf d73d d631 ca3d
000000b0: a83d e9bd b19e f6bc 52df fbbc d13c 10bd
000000c0: 47b5 ca3c a245 c53c adba 51bd 231d 0dbf
000000d0: c5cf b43c 3f43 90be 5025 27bd ca29 ddbd
000000e0: cd25 1ebe 7f1a 523e 5911 383b 3d08 283c
000000f0: c885 c43c 333a 13be 4a70 953b fd89 ddbe
00000100: 1d54 0a3e 3ccb 0a3e 389b cdbd 868b fbbd
00000110: ce66 9a3e 17e0 0cbe ef03 973d 4f71 b83e
00000120: f434 00bd bf32 f73d a742 6fbd 9aab 2bbe
00000130: dd7d 1d3e cba7 81be e322 67bd dc27 76bc
00000140: 465e 863d 84c5 7dbd 772b 85bd 7cfc 613e
00000150: 7717 8c3d d502 983e 754f 993d ea0b 7cbc
00000160: 806c 71bc bafe b73d 13d6 5e3d dfbb 0c3d
00000170: 7c73 983c 6704 56bd 4b0c 50bd 864d 413d
00000180: df9a cbbd 7531 08be b6df 033d 50cd 063e
00000190: 0d7f 6dbd ed22 82bd cbd8 b0bd 4c8a 043c
000001a0: 87b8 96bd 2a2a b8bd 938d cb3d 0c84 943e
000001b0: 4ddc ad3d 69b4 d8bd dc97 23bd 3b1e 733e
000001c0: dd9e c3bd 548c bbbb 4ef2 1fbe 8b3d 8c3d
000001d0: 54fa 4dbe e160 9dbc 1628 183e 6d5e f0bc
000001e0: 7e1c d93d 84f2 c6bb 9e3e 73bd 580f 34be
000001f0: 9c10 d03d cd76 2b3d 1f10 14be 2ecc b3bc
00000200: 1f29 2b3e 128c 253e 1f77 79bc 1d8f 56be
00000210: 9058 4dbb 4afc 3cbe 1a97 afbc 6eee 4f3e
00000220: 87d8 e83d fb98 1e3d 4641 f0be c399 923d
00000230: 64ad c7bd f0f1 253e 42e0 debd 2274 0b3d
00000240: c5cc 8abd 1927 c03d 5110 95bc a226 17bd
00000250: 1b3d 08bc b1e3 003e 615d 6b3d af48 f9bc
00000260: 0713 71bd e720 cd3c 5397 d7bd 2a0a dc3d
00000270: 4dc8 0f3f 75aa 34be ded3 4a3e f4b7 07bd
00000280: 1814 89bc e28b b33d b372 1cbe b4fe b53b
00000290: bb2a 07be 7859 dfbd 942d ea3c 0cd9 aebd
000002a0: 1f16 c83e ed65 0dbd db60 18bd 65d9 073e
000002b0: 5525 52bc d035 b5be cf52 7f3d f42e babd
000002c0: c199 a7be 6e32 433d 66bf d1bd 0660 7dbd
000002d0: 2ad0 123e 101c 18be 2f8e 853e 8573 233e
000002e0: 668c 163e da49 07be e53b 5d3d 142e 8cbd
000002f0: e782 2fbd f15c 27bd 0902 8bbe ddb5 8f3d
00000300: 000c a23d 6a59 28bc 61ea d6bc 190e efbd
00000310: ee56 90bd 591c 0fbe dc8c 8ebc ee51 ea3d
00000320: 459a c1bd a36e c7bc 386a 6a3e 2a59 babd
00000330: d3a0 b1bc 8b37 f3bd 280d 613d 37ca 3d3e
00000340: e9ff c9bd 6adb c83d

fc8.bias f4 [2]
0.14587565 -0.17145321
00000000: 6d60 153e 6e91 2fbe

exp_avg f4 [105, 8]
-0.00087495666 1.6666267e-05 -0.00014279323 0.00016118996 -0.00038371282 5.5767177e-05 0.001204048 0.002095497
-0.0032452643 -0.007153148 -0.00075722684 -0.0022891443 -0.0048474297 -0.005437676 -0.0142397955 -0.0056910454
0.000665371 0.0037431414 -0.00057993736 -0.000835151 0.0026835683 0.0041968348 -0.0060608163 -0.007047656
0.00010674298 5.587677e-05 0.00012734074 -0.00019261299 0.00012841793 0.00062581344 0.00039220217 0.00015456487
0.0023119396 -0.0015683653 -8.238692e-06 0.00086608663 -0.001025876 -0.0021602318 0.0067576207 -0.0028074235
-0.0030611223 -0.0055955756 -0.00027212425 -0.001889031 -0.0032371953 -0.0049315947 -0.02205398 -0.022824947
-0.0052500926 -0.0027352865 0.00021807518 -0.0015563823 -0.0018636156 -0.0019191712 -0.011739537 0.013074152
-0.00061362964 -0.0020655105 2.5780308e-05 -0.00037934445 -0.00075747207 -0.0013884571 -0.0053424663 -0.0013712118
-0.0015866096 0.000109218345 0.0004066659 -5.1229963e-05 -0.002062728 0.0002747816 -0.0041346913 0.010198853
-0.0025952219 -0.004195978 -0.00038850718 -0.000999241 -0.0036274681 -0.003915087 -0.010853749 -0.022142215
0.0012248564 0.001915881 0.00019694242 0.00058840285 0.00058790034 -0.00082522846 0.0022764702 0.007494175
0.0021994554 0.001896759 1.5189621e-05 0.00039462475 0.00079968077 0.00016981557 0.0037571776 0.0035037028
0.00031011843 0.00019445282 0.00012396609 0.0003341232 0.0003708923 0.00045129372 0.004492546 0.0012112755
6.340008e-07 2.207213e-07 4.1841933e-05 -0.00025247972 4.1666983e-05 7.0335074e-07 -3.0340962e-06 1.6546666e-05
0.0023393142 0.0018060784 -4.8995294e-05 -0.0015223635 0.00023614998 -0.0012145562 -0.010747847 -0.002517929
-0.00019424879 0.0019796563 -0.00015223639 0.00060686184 -0.0005546691 0.00022530409 0.0013671274 0.012060952
0.000498496 0.002058156 0.00024178598 0.0009768825 0.0015728195 0.0029419041 0.010626955 0.018160153
-0.0019471971 -0.004323845 0.0004601386 -0.0004358488 -0.001421016 0.003795318 -0.008056103 -0.00024358371
-0.0017589624 -0.0036239573 7.4273295e-05 -0.00043775522 -0.0014862929 -5.001927e-05 -0.0008928489 0.0013032965
-0.0029320456 -0.0036777842 9.845859e-05 -0.0010141972 -0.0016303251 -0.0025939667 -0.009704609 -0.009083662
0.0008659706 0.0008698881 0.00016851464 4.130372e-05 0.0006897856 0.00048813102 0.0011429163 0.0012366123
-0.001158023 -0.0022909276 -0.00010042841 -0.0004315821 -0.0010134268 -0.0021106629 -0.005962659 -0.006452609
0.0009128101 0.0026751796 -0.0003620891 7.955423e-05 0.0011255658 -0.0010401682 0.00085541746 9.97607e-05
0.0030498253 0.0002669215 5.5253535e-05 0.0014670637 -0.000785186 0.0013008068 0.016548444 0.017658498
0.001103011 -0.0006681467 -0.0002377729 -0.00013218516 -0.000982899 -0.0017396725 -0.0012303339 -0.0087888865
0.0011734753 0.002454268 2.7629445e-05 0.0010825243 0.0008018666 -0.00043505293 0.0020560753 0.011095961
-0.0007749272 -0.00021628618 -1.2942949e-05 -0.00042017776 -0.00030223452 -9.166188e-05 -0.0018023397 0.004686559
0.00013623599 0.0015841791 0.00015884833 0.0010428957 0.0023243034 0.003923162 0.021143058 0.03123154
0.00013297799 0.0006488576 1.3024792e-05 0.00055033545 0.000505707 0.00035563146 0.002538959 0.0032550276
-0.0008529891 -0.0029144858 4.8100745e-05 -0.00027293604 -0.0022788516 -0.0026594428 -0.004030738 -0.0068666777
0.0011988404 -3.15615e-05 -0.00034405323 0.0005570666 -0.001249365 -0.0017009891 0.0010572475 -0.0032560017
2.6978803e-06 -0.0010374965 -0.00016381055 0.00026237871 -0.0021069094 -0.0035245253 0.0010082956 -0.017254902
00000000: 595d 65ba 89ce 8b37 c4ba 15b9 1a05 2939
00000010: 102d c9b9 8de7 6938 26d1 9d3a 9b54 093b
00000020: 80ae 54bb f464 eabb a280 46ba 7805 16bb
00000030: 30d7 9ebb 882e b2bb 084e 69bc f37b babb
00000040: 4b6c 2e3a 7e4f 753b f006 18ba 09ee 5aba
00000050: cede 2f3b 9a85 893b d099 c6bb 06f0 e6bb
00000060: 33db df38 3a5d 6a38 c586 0539 28f8 49b9
00000070: eda7 0639 a10d 243a 7ca0 cd39 b112 2239
00000080: e983 173b 9b91 cdba ea38 0ab7 170a 633a
00000090: b076 86ba ad92 0dbb 086f dd3b c0fc 37bb
000000a0: 1c9d 48bb 175b b7bb e6ab 8eb9 5d99 f7ba
000000b0: 2027 54bb 3799 a1bb 8caa b4bc 62fb babc
000000c0: f808 acbb 7e42 33bb 1cab 6439 86ff cbba
000000d0: 9044 f4ba b38c fbba 3057 40bc f834 563c
000000e0: fddb 20ba 845d 07bb ca42 d837 c0e2 c6b9
000000f0: 1791 46ba e4fc b5ba db0f afbb 3cba b3ba
00000100: c9f5 cfba 270c e538 c635 d539 c1df 56b8
00000110: d52e 07bb 9010 9039 4e7c 87bb 1719 273c
00000120: 9914 2abb 6a7e 89bb 8db0 cbb9 f7f8 82ba
00000130: d1ba 6dbb 214a 80bb ecd3 31bc 9763 b5bc
00000140: 5c8b a03a 4c1e fb3a 5482 4e39 0c3f 1a3a
00000150: 531d 1a3a 2554 58ba d530 153b b291 f53b
00000160: bd24 103b ac9c f83a edd6 7e37 a3e5 ce39
00000170: aba1 513a 8510 3239 fb3a 763b 619e 653b
00000180: 6497 a239 08e6 4b39 e5fc 0139 422d af39
00000190: 5274 c239 9e9b ec39 3536 933b a9c3 9e3a
000001a0: 3430 2a35 69ff 6c34 6f7f 2f38 415f 84b9
000001b0: 95c3 2e38 e5cd 3c35 609d 4bb6 b2cd 8a37
000001c0: 2e4f 193b efb9 ec3a 4c80 4db8 0b8a c7ba
000001d0: 079f 7739 be31 9fba bd17 30bc d703 25bb
000001e0: 43af 4bb9 1fbd 013b a5a1 1fb9 cf15 1f3a
000001f0: 3767 11ba 9b3f 6c39 2f31 b33a 4d9b 453c
00000200: 80ad 023a 21e2 063b ee87 7d39 bd0a 803a
00000210: 1127 ce3a f6cc 403b ae1c 2e3c 9ac4 943c
00000220: 1839 ffba 0aaf 8dbb c23e f139 a382 e4b9
00000230: 6241 baba dfba 783b bffd 03bc 816a 7fb9
00000240: fc8c e6ba ea7f 6dbb 2cc3 9b38 8382 e5b9
00000250: b7cf c2ba c8cb 51b8 130e 6aba 60d3 aa3a
00000260: 9027 40bb fb06 71bb 8e7b ce38 d0ee 84ba
00000270: a2b0 d5ba 8aff 29bb 1500 1fbc a4d3 14bc
00000280: 4e02 633a 3409 643a 4eb3 3039 883d 2d38
00000290: bad2 343a d6eb ff39 e8cd 953a d315 a23a
000002a0: cec8 97ba 6323 16bb 189d d2b8 f845 e2b9
000002b0: f6d4 84ba 0c53 0abb 6962 c3bb 6870 d3bb
000002c0: a649 6f3a 1152 2f3b c7d6 bdb9 5ad6 a638
000002d0: b987 933a 4156 88ba 183e 603a 9e36 d138
000002e0: 94df 473b 99f1 8b39 08c0 6738 7d4a c03a
000002f0: f1d4 4dba d57f aa3a 9a90 873c 8ea8 903c
00000300: e892 903a 9126 2fba ad52 79b9 2f9b 0ab9
00000310: 9ed4 80ba b905 e4ba 2843 a1ba 43ff 0fbc
00000320: 4ccf 993a c9d7 203b c8c5 e737 7de3 8d3a
00000330: 5b34 523a d117 e4b9 38bf 063b d5cb 353c
00000340: 7c24 4bba e1ca 62b9 8b25 59b7 4e4b dcb9
00000350: 3b75 9eb9 993a c0b8 7c3c ecba b591 993b
00000360: 92da 0e39 3ba4 cf3a 8690 2639 c6b1 883a
00000370: 5753 183b de8d 803b 3534 ad3c 49d9 ff3c
00000380: 0270 0b39 1918 2a3a 0e85 5a37 6344 103a
00000390: 6c91 043a 0c74 ba39 aa64 263b 4d52 553b
000003a0: 219b 5fba f500 3fbb c8bf 4938 db18 8fb9
000003b0: c958 15bb 0c4a 2ebb 4814 84bb de01 e1bb
000003c0: 6922 9d3a e760 04b8 0b62 b4b9 1b08 123a
000003d0: bcc1 a3ba b9f3 deba 5793 8a3a a562 55bb
000003e0: 3b0d 3536 9bfc 87ba 8fc4 2bb9 e08f 8939
000003f0: 1314 0abb b9fb 66bb c928 843a 275a 8dbc

exp_avg_sq f4 [105, 8]
0.00058701617 0.00058140786 5.4052e-05 8.1671904e-05 0.00021557271 0.001264593 0.0001543446 0.010985222
0.0005543054 0.0017311745 0.0002026663 0.00017740262 0.0004867285 0.0013942904 0.00899927 0.0018836292
0.0014466714 0.0011619838 3.25384e-05 9.2784096e-05 0.0002707092 0.00075859326 0.007064177 0.011059331
2.2084669e-06 5.1485754e-06 3.017443e-06 1.8566242e-06 2.1979056e-06 2.8727687e-05 2.7374308e-05 4.934978e-06
0.001711988 0.0008842939 1.2080095e-05 8.458894e-05 0.00017121606 0.00067029294 0.005599636 0.013800307
0.0003748191 0.00033331916 1.8436429e-05 3.5937024e-05 0.000121833895 0.0005621175 0.003407327 0.0036544674
0.0014143379 0.0012444786 4.26051e-05 8.831612e-05 0.00023149088 0.0012295127 0.0053923214 0.013659409
0.00037255537 0.00024678188 4.8105762e-06 1.9457008e-05 4.3947282e-05 7.1088165e-05 0.0017491266 0.002814202
0.0012447945 0.0012091479 5.0282513e-05 7.534828e-05 0.00020345076 0.00089477154 0.005144638 0.010554231
0.0003458775 0.00033551708 1.4919065e-05 5.3546806e-05 0.00016073551 0.00038519938 0.00468269 0.0051819514
4.996396e-05 5.7964386e-05 2.4392903e-06 9.288035e-06 2.748212e-05 0.00012926967 0.000755805 0.0015043936
8.665547e-05 0.00010190073 1.301917e-06 6.429302e-06 1.8453004e-05 7.732418e-05 0.00053278403 0.00073800737
0.00011911933 0.0003398579 1.4638601e-05 2.4693409e-05 8.2880695e-05 0.00026211588 0.0021708482 0.0003752933
4.420641e-10 5.038064e-10 1.074587e-06 7.095722e-07 1.8640057e-08 1.152133e-12 2.701931e-07 1.1118201e-06
0.00011368713 0.00020002962 2.7615088e-06 2.3599781e-05 5.9062255e-05 0.00025135823 0.0027055838 9.385336e-05
0.0006129852 0.00047618183 8.225866e-06 5.2421252e-05 0.00016064357 0.0008504112 0.00017549345 0.0076655485
0.00018633374 0.00024130724 5.580461e-06 2.5268106e-05 8.1422324e-05 0.00037435233 0.0023920336 0.0029534095
0.00023628751 0.0006388471 2.0358928e-05 4.5352816e-05 0.00016688187 0.00040632804 0.0033078 0.00063928956
0.00042140268 0.00048819566 1.0015043e-05 4.013605e-05 0.00011304944 0.00034843513 0.003378308 0.004739079
0.0002388855 0.00024317182 3.6337412e-06 1.3737446e-05 4.625708e-05 0.0001975037 0.0016258233 0.0026113538
5.4909506e-05 5.311235e-05 1.5426082e-06 6.35532e-06 1.7911272e-05 9.703744e-05 0.00046680274 0.00092228875
0.00020125783 0.00016056145 1.7775042e-06 1.591615e-05 5.4767203e-05 0.00021397525 0.0017173009 0.0031300385
0.00013994594 0.0003770699 2.4586607e-05 2.5020296e-05 8.367286e-05 0.00022867268 0.0019032162 0.0004741253
0.0005606974 0.00060276466 1.7060012e-05 6.583682e-05 0.000215206 0.0005744791 0.0061316416 0.006710484
0.00016392012 0.00027810657 1.6060567e-05 2.1280857e-05 5.574899e-05 0.00023502884 0.0010699086 0.0019077207
0.0002838177 0.00037644856 1.1980585e-05 2.0729547e-05 6.3554384e-05 0.00028469818 0.0017357552 0.0021604493
0.00021904058 0.00010360676 2.4586561e-06 1.077214e-05 1.7918783e-05 2.8832439e-05 0.00061692065 0.0021127209
0.00072031893 0.00078690524 2.605456e-05 8.306109e-05 0.00025674072 0.001122554 0.010222409 0.01357819
0.00030658452 0.00016940932 1.8770551e-06 1.2629164e-05 2.9086403e-05 0.00010638279 0.00071965804 0.0027628543
0.0017869422 0.0012677361 4.2157997e-05 0.00010514799 0.00024778774 0.0012115055 0.0057756896 0.018025115
0.00025329858 0.0002622022 1.0474618e-05 3.028627e-05 8.62155e-05 0.00026657112 0.0019959789 0.00054820563
0.0007938626 0.00065954233 7.078349e-06 4.965558e-05 0.0001479559 0.0005104454 0.0057920674 0.008961544
00000000: fde1 193a 9f69 183a e5b5 6238 4547 ab38
00000010: 5c0b 6239 b3c0 a53a 90d7 2139 5cfb 333c
00000020: ce4e 113a 94e8 e23a d282 5439 2705 3a39
00000030: 982f ff39 9fc0 b63a ad71 133c 1ce4 f63a
00000040: 3d9e bd3a b54d 983a d779 0838 1595 c238
00000050: f9ed 8d39 55dc 463a 9d7a e73b 3232 353c
00000060: 2c35 1436 edc1 ac36 477f 4a36 1f31 f935
00000070: bb7f 1336 3dfc f037 e1a1 e537 2397 a536
00000080: c964 e03a f6cf 673a 9dab 4a37 5765 b138
00000090: 7688 3339 99b6 2f3a 277d b73b af1a 623c
000000a0: 5e83 c439 57c1 ae39 eea7 9a37 16bb 1638
000000b0: 1381 ff38 115b 133a 764d 5f3b ca7f 6f3b
000000c0: 4e61 b93a c61d a33a e1b2 3238 5b36 b938
000000d0: 5cbc 7239 9a27 a13a 12b2 b03b b7cb 5f3c
000000e0: 8953 c339 8162 8139 896a a136 9b37 a337
000000f0: 0954 3838 2b15 9538 f342 e53a 7a6e 383b
00000100: 5f28 a33a 457c 9e3a 70e6 5238 4d04 9e38
00000110: 6655 5539 1a8f 6a3a 5a94 a83b a7eb 2c3c
00000120: e456 b539 57e8 af39 e54c 7a37 7297 6038
00000130: 1c8b 2839 96f4 c939 4071 993b 5ccd a93b
00000140: 6590 5138 c91e 7338 b0b2 2336 ced3 1b37
00000150: 6789 e637 908c 0739 3721 463a 132f c53a
00000160: cdba b538 8ab3 d538 87bd ae35 49bb d736
00000170: 86cb 9a37 1a29 a238 88aa 0b3a d676 413a
00000180: b4cf f938 f52e b239 5098 7537 b124 cf37
00000190: 3cd0 ad38 996c 8939 ca44 0e3b 04c3 c439
000001a0: fe06 f32f 397c 0a30 873a 9035 6e79 3e35
000001b0: eb1d a032 f725 a22b 0f0f 9134 d939 9535
000001c0: 506b ee38 0bbf 5139 5c52 3936 25f8 c537
000001d0: 9db9 7738 bbc8 8339 2a50 313b 24d3 c438
000001e0: beb0 203a 0ba8 f939 d301 0a37 e4de 5b38
000001f0: 6e72 2839 21ee 5e3a aa04 3839 482f fb3b
00000200: 9562 4339 6b07 7d39 cc3f bb36 d8f6 d337
00000210: 47c1 aa38 b844 c439 aac3 1c3b fd8d 413b
00000220: f2c3 7739 4e78 273a 77c8 aa37 3739 3e38
00000230: 03fd 2e39 6d08 d539 adc7 583b ff95 273a
00000240: b6ef dc39 83f4 ff39 4806 2837 c157 2838
00000250: f514 ed38 2cae b639 9a66 5d3b 474a 9b3b
00000260: 577d 7a39 f0fb 7e39 33db 7336 e279 6637
00000270: 2904 4238 ff18 4f39 9419 d53a 3f23 2b3b
00000280: a24e 6638 f4c4 5e38 9d0b cf35 c83f d536
00000290: 2a40 9637 9480 cb38 34bd f439 c0c5 713a
000002a0: bd08 5339 635c 2839 9492 ee35 ac83 8537
000002b0: d6b5 6538 8b5e 6039 0e17 e13a 5521 4d3b
000002c0: 74be 1239 77b1 c539 563f ce37 ade2 d137
000002d0: 8679 af38 dbc7 6f39 5775 f93a 0594 f839
000002e0: c4fb 123a da02 1e3a 191c 8f37 e011 8a38
000002f0: eca8 6139 a498 163a f0eb c83b 9fe3 db3b
00000300: f9e1 2b39 d5ce 9139 ceb9 8637 4b84 b237
00000310: 06d4 6938 1372 7639 2d3c 8c3a 7c0c fa3a
00000320: 5ecd 9439 125e c539 3900 4937 5de4 ad37
00000330: 8048 8538 8b43 9539 4882 e33a 5396 0d3b
00000340: 42ae 6539 7547 d938 64ff 2436 fdb9 3437
00000350: 4b50 9637 31dd f137 d8b8 213a 9375 0a3b
00000360: c9d3 3c3a 5148 4e3a be8f da37 1531 ae38
00000370: 289b 8639 a922 933a e47b 273c 0e77 5e3c
00000380: 14bd a039 78a3 3139 1fef fb35 d9e1 5337
00000390: 93fe f337 d319 df38 6fa7 3c3a 0111 353b
000003a0: d537 ea3a 2a2a a63a ced2 3038 e682 dc38
000003b0: 82e9 8139 61cb 9e3a ff41 bd3b 68a9 933c
000003c0: 29cd 8439 2f78 8939 24bc 2f37 450f fe37
000003d0: 98ce b438 92c2 8b39 f8ce 023b 75b5 0f3a
000003e0: 381b 503a 23e5 2c3a 8e82 ed36 4645 5038
000003f0: 9c24 1b39 69cf 053a 62cb bd3b 71d3 123c

exp_avg f4 [105]
0.0009483247 -0.004348146 -0.0005003492 -0.0003917221 0.0013115455 -0.004598642 -0.0028609096 -0.0010202059
0.0001856718 -0.0040033925 0.0013564046 0.0013009682 0.0009553571 -0.00065718364 -0.0010720806 0.0012700759
0.0030097864 -0.0021744852 -0.0007028808 -0.0026853238 0.00027637996 -0.0015968807 0.0012708394 0.004142031
-0.00024149688 0.0025027862 -0.0002690391 0.0045429957 0.00077589345 -0.0015193669 0.00030593245 -0.00066204334
0.0013527205 8.676197e-05 0.0018013625 -0.00054230704 -4.619575e-05 0.00041600972 0.0028005366 0.0006076575
0.0036649413 -0.000669338 -0.0020314956 -0.0014127087 0.0005645328 0.001222737 -4.0624334e-05 -0.0027683212
-0.00054723787 -0.002264575 -0.00013995568 0.0027645438 0.00016204274 -0.0016749129 -0.0019115632 -9.099034e-05
-0.0028981648 -0.0016215055 0.00027988545 -0.00020719992 -0.0012654274 0.0004184405 -0.001095019 -0.0003704309
-0.0015078416 -0.0015889199 0.0028593545 -0.00018615671 0.0011935161 -8.474338e-05 0.0014846327 0.0012695296
-0.0019148631 -0.0027049955 0.0013926172 -0.0015696984 0.0013484447 -0.0014841782 0.0037510619 -0.00079426845
-0.0018551995 5.5340965e-06 -0.0009963443 -0.0024451178 0.0032738193 -0.0001753181 0.0013865727 -0.0018071184
0.0052296636 0.0016449722 0.0033171086 -0.000488763 0.01682552 0.00049199583 -0.0072029647 0.0008171238
0.0010365506 0.001492862 -0.003423749 -4.5457227e-06 -0.0041104387 0.00015068996 0.0007375119 -0.0011362998
0.0050667943
00000000: fe98 783a e47a 8ebb de29 03ba 0d60 cdb9
00000010: 2ae8 ab3a 34b0 96bb 197e 3bbb 6eb8 85ba
00000020: e5b0 4239 e42e 83bb 63c9 b13a 4085 aa3a
00000030: ee70 7a3a d946 2cba 0e85 8cba ad78 a63a
00000040: d63f 453b cf81 0ebb 8841 38ba 42fc 2fbb
00000050: 17e7 9039 6d4e d1ba 4b92 a63a e0b9 873b
00000060: 533a 7db9 c905 243b d10d 8db9 69dd 943b
00000070: 5465 4b3a 7e25 c7ba 8f65 a039 fa8c 2dba
00000080: c54d b13a faf3 b538 b21b ec3a 9c29 0eba
00000090: 4fc2 41b8 e11b da39 3589 373b 344b 1f3a
000000a0: 832f 703b 8376 2fba d722 05bb a32a b9ba
000000b0: 28fd 133a 3f44 a03a 0c64 2ab8 b96c 35bb
000000c0: 8374 0fba 4469 14bb 11c1 12b9 592d 353b
000000d0: 04ea 2939 c088 dbba 6b8d faba 11d2 beb8
000000e0: 23ef 3dbb b288 d4ba 97bd 9239 ce43 59b9
000000f0: b3dc a5ba 2262 db39 be86 8fba 6536 c2b9
00000100: c5a2 c5ba 4e43 d0ba 0264 3b3b 1033 43b9
00000110: c16f 9c3a 41b8 b1b8 0298 c23a 5866 a63a
00000120: 25fc faba 4b46 31bb 7b88 b63a 57be cdba
00000130: 4cbe b03a c288 c2ba 60d4 753b 7436 50ba
00000140: 2a2a f3ba 87b1 b936 c497 82ba 453e 20bb
00000150: 938d 563b 98d5 37b9 a9bd b53a d5dc ecba
00000160: 995d ab3b 1c9c d73a d963 593b 5420 00ba
00000170: acd5 893c 48f9 003a d906 ecbb 4034 563a
00000180: dedc 873a 23ac c33a fa60 60bb 7687 98b6
00000190: dcb0 86bb 8702 1e39 9655 413a e5ef 94ba
000001a0: 5a07 a63b

exp_avg_sq f4 [105]
0.00031402518 0.0007347327 0.0004813708 8.217218e-06 0.00041213236 0.00022331743 0.00045836295 0.000110238376
0.00039104294 0.00029829502 5.4584856e-05 3.995823e-05 0.00013137222 3.2219434e-06 0.00015503299 0.00029315878
0.00015093017 0.0002278321 0.0002248748 9.0243775e-05 3.708255e-05 9.894086e-05 0.00012179706 0.00038541382
0.000102013495 0.00012493231 5.364224e-05 0.00053184974 6.8839734e-05 0.0005126306 0.00016268398 0.00032093714
0.00022790536 9.2629394e-05 0.00016553447 5.4696386e-05 0.00061198376 7.2535244e-05 0.00014643592 0.00021248811
0.00011473682 4.8401056e-05 0.00015648112 4.9688813e-05 0.00023151038 5.6301466e-05 0.0007491612 0.0002561703
0.00069262675 0.0003655438 9.388695e-05 0.00021869279 7.887504e-05 5.639219e-05 5.2139694e-05 2.4810117e-05
0.00016277187 0.00011074708 4.2688676e-05 1.8095345e-05 8.041185e-05 0.00044092373 7.530108e-05 0.0005835378
0.00018997626 0.00026724435 9.0099886e-05 4.228948e-06 7.4062606e-05 4.553915e-05 1.3832799e-05 8.588254e-05
0.00036311173 8.624388e-05 0.00012447857 0.0008281314 0.00012864235 0.000111204165 8.680243e-05 1.25479255e-05
0.00023941246 5.819868e-05 3.7018395e-05 0.00014902983 0.00046474944 4.0291376e-05 0.0001278279 9.9775825e-05
0.000863956 0.00011119741 0.00036930054 8.9278416e-05 0.002321587 0.00014700253 0.00075072836 0.00018860292
0.00012555733 5.8756144e-05 0.00026658122 3.7288007e-07 0.0002106271 8.5227155e-05 6.262981e-05 5.327863e-05
0.0021421802
00000000: bfa3 a439 149b 403a 7f60 fc39 afdc 0937
00000010: 7813 d839 512a 6a39 6f50 f039 c72f e738
00000020: e504 cd39 7b64 9c39 0bf2 6438 d398 2738
00000030: f6c0 0939 9138 5836 5a90 2239 1bb3 9939
00000040: 0243 1e39 37e6 6e39 5fcc 6b39 4241 bd38
00000050: 1689 1b38 787e cf38 4c6d ff38 5e11 ca39
00000060: 14f0 d538 4300 0339 ebfd 6038 d56b 0b3a
00000070: 0d5e 9038 0f62 063a 2696 2a39 7443 a839
00000080: e1f9 6e39 0742 c238 5293 2d39 cc69 6538
00000090: 896d 203a 101e 9838 988c 1939 58cf 5e39
000000a0: dc9e f038 3d02 4b38 1515 2439 f568 5038
000000b0: 98c1 7239 3d25 6c38 5b63 443a 984e 8639
000000c0: 6591 353a 75a6 bf39 2ce5 c438 e650 6539
000000d0: b769 a538 a786 6c38 92b0 5a38 521f d037
000000e0: bead 2a39 e340 e838 9e0c 3338 75cb 9737
000000f0: c9a2 a838 c82b e739 f6ea 9d38 8ff8 183a
00000100: 5d34 4739 ee1c 8c39 02f4 bc38 63e6 8d36
00000110: 0f52 9b38 4a01 3f38 6b13 6837 d61b b438
00000120: 0860 be39 d5dd b438 7686 0239 f516 593a
00000130: 2be4 0639 4836 e938 b309 b638 ee84 5237
00000140: cb0a 7b39 5b1a 7438 3344 1b38 e444 1c39
00000150: 9da9 f339 89fe 2838 8a09 0639 bd3e d138
00000160: 1b7b 623a a832 e938 ae9e c139 fc3a bb38
00000170: c425 183b b124 1a39 87cc 443a b6c3 4539
00000180: 0aa8 0339 ee70 7638 edc3 8b39 3f30 c834
00000190: c8db 5c39 fbbb b238 2058 8338 7e77 5f38
000001a0: d263 0c3b

exp_avg f4 [105, 105]
0.0005107725 0.0028672076 0.0024985876 0.0029995455 -0.00015560802 0.0002571351 0.00045726058 -0.0011576032
0.0017040379 -4.163259e-05 0.0002929958 0.00010148887 -0.002382125 -8.35791e-06 0.0025499428 0.0007707159
-0.0013271185 -0.002985737 -0.00049976323 0.0010987141 0.00089431636 -0.0014395145 0.0008838175 -0.0004805544
-0.00069370965 0.0017251087 0.00086268224 -0.00019415104 -0.0014056182 3.7579623e-05 -0.0024809332 -0.0006513448
-0.004820569 -0.001497484 -0.0013492289 -0.0011489368 -0.0005308065 0.0022424937 0.000247452 0.00047213223
0.00012523051 0.0018730651 0.0026807683 0.0014418255 0.00035583827 0.0014059023 -0.00020414933 -0.000118233285
-0.001025029 0.0011656793 0.0018393212 -0.0012661979 0.0014709092 0.0013384811 0.0002772539 0.0028423856
-0.0010639466 0.0021116128 -0.0023328946 0.0015936558 -0.0026385197 0.0002738556 0.00096774235 -0.0004467154
0.00015845323 0.0023090604 -1.5310621e-05 0.0022574486 -0.00012473561 -0.0016563633 -0.00091544073 -0.0011667616
0.0012553167 0.0026069041 -0.0005935203 0.0008038791 -0.00022974002 -0.00052078924 0.0026735873 0.00056688784
0.0020835097 0.003216474 -0.0015998696 0.0017268708 -0.001505084 0.0012810233 0.0019282995 -0.0015655464
-0.0007170038 -0.0011623908 -0.0005955088 0.0020468675 -0.00027328613 -0.00013720778 -0.00025007772 0.00014400916
4.9856702e-05 -0.0014421096 0.00075252564 0.0011030094 0.001041802 -0.0017195198 -0.0019178222 -0.0005090583
9.2320945e-05 0.00023842703 -0.0013601185 -0.00020587759 -0.002087749 0.00013925468 -0.0011838197 -0.0012136556
-0.00040694783 -0.0028625214 -2.137989e-06 0.00034954 0.0028986374 0.00034845824 0.0022866507 -0.0031077021
-0.0007635668 0.0006382449 0.00062348734 0.00032673584 -0.0008975266 -0.00033161909 0.0007150088 0.002306405
0.00020636723 0.0022155198 -0.0021970847 0.00049788755 0.00024769912 0.0016456489 -0.0005467826 0.0020909158
0.00064138253 0.0037085977 -0.0015695854 -0.0021500522 -6.798258e-05 -0.00010365315 -0.0018784342 0.0011162484
0.0003812353 -0.00021013225 -0.0011553417 -0.0033835405 -0.0008320209 0.00018973897 -0.0012870714 0.0004399602
-0.0021195118 0.0033271755 -0.0015851641 0.0017181237 0.0012204688 -0.0032443856 0.0015866142 0.00082029816
-0.001465206 0.0025646333 -0.0025598211 0.00068550516 -0.002019314 -0.0022370948 -0.00027606226 0.0028444564
0.00073234446 -0.0025927997 -0.0016380566 -0.00026864436 0.0011746925 -0.0010212085 0.0013626143 9.390606e-06
0.0009819947 0.0010732742 -0.0025890681 0.00059112464 -0.00027296005 0.0008045275 0.00083728065 -0.004226742
0.0031961766 -0.0013520764 -0.0021812802 0.0019395751 0.0010803252 0.0034493937 -0.000314044 -0.0013850777
0.0023191131 0.00015971057 0.0015571888 -5.2499057e-05 -0.0007834212 0.0006173922 -0.000458059 0.0015691782
-0.0006315248 0.00039506168 -0.0016408745 0.00010204834 -0.0015976937 -0.0011340586 0.0010127772 0.0010514061
-0.0024518752 -0.0009670748 -0.0043553296 -0.0004046688 -6.2914114e-05 -0.0015039868 6.551521e-05 -0.0004497076
-0.0014219484 0.0033275625 -0.0021496962 -0.0012125056 -0.0020094304 0.0014415799 -0.00053542876 -0.00016140104
-0.0022013015 -0.0015626907 -0.0013533417 0.0020684341 0.00027960536 0.0025734804 0.0014978574 0.0019803897
0.00041525284 0.0018209914 0.0019755468 -0.0016746793 -0.00077768264 -0.001844938 0.0010083584 0.0017732444
0.0007074426 0.0021386172 0.0021178522 -0.0009933761 0.0020691718 0.0019227057 -8.89798e-05 -0.0020912436
0.0026280843 0.0006366101 -0.0017811204 -0.001531712 -0.0034310077 -0.0036082775 0.00018956033 -0.00020018501
00000000: 5de5 053a c3e7 3b3b 58bf 233b 0694 443b
00000010: b62a 23b9 17d0 8639 7abc ef39 b8ba 97ba
00000020: 065a df3a a79e 2eb8 3b9d 9939 6cd6 d438
00000030: 6d1d 1cbb f338 0cb7 f11c 273b de09 4a3a
00000040: b5f2 adba 5bac 43bb 8b02 03ba ba02 903a
00000050: 8e70 6a3a 17ae bcba fdaf 673a ebf2 fbb9
00000060: 11da 35ba 0b1d e23a a025 623a 0695 4bb9
00000070: b83c b8ba d09e 1d38 2797 22bb 02bf 2aba
00000080: ddf5 9dbb 3a47 c4ba 9cd8 b0ba ec97 96ba
00000090: d225 0bba cdf6 123b 72bc 8139 8488 f739
000000a0: 4f50 0339 a381 f53a d4af 2f3b a3fb bc3a
000000b0: ce8f ba39 4146 b83a eb10 56b9 03f4 f7b8
000000c0: 445a 86ba b5c9 983a 6115 f13a 8df6 a5ba
000000d0: 86cb c03a f96f af3a 635c 9139 5147 3a3b
000000e0: 2074 8bba fc62 0a3b 7ae3 18bb 37e2 d03a
000000f0: 04eb 2cbb 4794 8f39 17b0 7d3a 2035 eab9
00000100: 7726 2639 9b53 173b 4f6f 80b7 b4f1 133b
00000110: 76cb 02b9 541a d9ba 30fa 6fba 06ee 98ba
00000120: 7089 a43a 98d8 2a3b 7996 1bba 6abb 523a
00000130: 5ee6 70b9 9385 08ba 5a37 2f3b 339b 143a
00000140: 7e8b 083b 7bcb 523b b7b2 d1ba 2b58 e23a
00000150: 3d46 c5ba 02e8 a73a ffbe fc3a 0533 cdba
00000160: 4ff5 3bba 5d5b 98ba eb1b 1cba bd24 063b
00000170: d847 8fb9 6fdf 0fb9 dd1c 83b9 2a01 1739
00000180: 3a1d 5138 2b05 bdba 2445 453a db92 903a
00000190: 138d 883a 8361 e1ba 6f5f fbba 5372 05ba
000001a0: 6e9c c138 4502 7a39 0146 b2ba d8e0 57b9
000001b0: 9ed2 08bb e504 1239 662a 9bba 8613 9fba
000001c0: 9d5b d5b9 2499 3bbb 5f7a 0fb6 7742 b739
000001d0: 11f7 3d3b 46b1 b639 a2db 153b 97aa 4bbb
000001e0: 1a2a 48ba e44f 273a 8771 233a be4d ab39
000001f0: fe47 6bba 29dd adb9 6e6f 3b3a 0e27 173b
00000200: 4864 5839 4132 113b f7fc 0fbb ab84 023a
00000210: 9ddd 8139 d0b2 d73a f655 0fba bf07 093b
00000220: 7422 283a f20b 733b 8cba cdba e4e7 0cbb
00000230: df91 8eb8 5c60 d9b8 cb35 f6ba 154f 923a
00000240: 89e0 c739 f256 5cb9 d66e 97ba 64be 5dbb
00000250: fa1b 5aba abf4 4639 f3b2 a8ba 75aa e639
00000260: 82e7 0abb be0c 5a3b 48c5 cfba aa32 e13a
00000270: 23f8 9f3a c29f 54bb f0f5 cf3a 4709 573a
00000280: 280c c0ba 6813 283b acc2 27bb 79b3 333a
00000290: 7856 04bb 399c 12bb 73bc 90b9 0f6a 3a3b
000002a0: cefa 3f3a f6eb 29bb 0fb4 d6ba d6d8 8cb9
000002b0: 24f8 993a 12da 85ba c099 b23a 588c 1d37
000002c0: 46b6 803a 1bad 8c3a 5bad 29bb b4f5 1a3a
000002d0: 141c 8fb9 ede6 523a f47c 5b3a 7b80 8abb
000002e0: f276 513b 2838 b1ba cff3 0ebb 5739 fe3a
000002f0: b399 8d3a 390f 623b 46a6 a4b9 7f8b b5ba
00000300: 43fc 173b fb77 2739 961a cc3a 6f32 5cb8
00000310: 825e 4dba 7dd8 213a a327 f0b9 e2ac cd3a
00000320: e98c 25ba 4820 cf39 9d12 d7ba c902 d638
00000330: b469 d1ba b1a4 94ba 2abf 843a 56cf 893a
00000340: a4af 20bb 4b83 7dba 27b7 8ebb ba29 d4b9
00000350: c2f0 83b8 6c21 c5ba 3665 8938 bbc6 ebb9
00000360: ac60 baba 3c13 5a3b ebe1 0cbb f0ec 9eba
00000370: a6b0 03bb 65f3 bc3a 045c 0cba c33d 29b9
00000380: b643 10bb 33d3 ccba 9d62 b1ba 918e 073b
00000390: ff97 9239 d6a7 283b c153 c43a 6dc9 013b
000003a0: 4bb6 d939 55ae ee3a 2d78 013b ea80 dbba
000003b0: 66dd 4bba d9d1 f1ba e52a 843a 356c e83a
000003c0: ab73 393a 0b28 0c3b aacb 0a3b 2c34 82ba
000003d0: f19a 073b 4c03 fc3a ab9a bab8 3f0d 09bb
000003e0: f03b 2c3b 2ee2 263a 7c74 e9ba bac3 c8ba
000003f0: c2da 60bb da78 6cbb b7c4 4639 c1e8 51b9
