save/new9.pt (torch_old, 109196 bytes, 18 tensors)

fc1.weight f4 [98, 40]
0	0x3d489b4e	0.048976235
1	0xbc72b5cc	-0.014813852
2	0xbdfd5e4d	-0.12371502
3	0x3e0e45a3	0.13893752
4	0xbe2a28f5	-0.16617186
5	0x3d2de841	0.042457823
6	0x3e088455	0.1333173
7	0x3e1373b5	0.14399607
8	0x3dc67cea	0.09691794
9	0x3decb277	0.11557477
10	0x3e0cb169	0.13739552
11	0x3e1acdc0	0.1511755
12	0x3d63e6bb	0.055639964
13	0x3d4109cb	0.04712848
14	0x3d22ec7f	0.03977632
15	0x3d27c5b4	0.04096003
16	0x3e053ed2	0.13012245
17	0xbc69fd6a	-0.01428161
18	0xbe431621	-0.1905141
19	0xbcdb5c29	-0.026777344
20	0xbd1702d4	-0.03686793
21	0x3cc67d6e	0.024229731
22	0xbdf5e5d8	-0.1200673
23	0x3dcc146d	0.099648334
24	0xbce76760	-0.028247535
25	0x3cc0ea04	0.023549087
26	0xbd40ab11	-0.04703814
27	0xbd89dc57	-0.067314796
28	0xbb463075	-0.0030241285
29	0xbd890675	-0.06690685
30	0x3d9b94b4	0.07596722
31	0xbdaa093a	-0.08302541
32	0x3de1d04a	0.11026056
33	0x3e2b5ab3	0.16733818
34	0xbdd2bb74	-0.1028966
35	0x3df0c177	0.117556505
36	0x3c402792	0.011728184
37	0x3d69f7be	0.05712103
38	0xbce31c80	-0.02772355
39	0x3d929ae6	0.07158451
40	0x3e0e4a69	0.13895573
41	0xbddba2be	-0.107244
42	0x3c31cbbe	0.010851799
43	0x3d9a160b	0.075237356
44	0x3d2feb83	0.04294921
45	0xbc90214b	-0.017594
46	0x3c8e0802	0.017337803
47	0xbdfa338e	-0.122168645
48	0x3cfbfc7a	0.030760039
49	0xbd4513d6	-0.04811462
50	0xbe1ff542	-0.15620902
51	0xbe036986	-0.12833223
52	0x3db8a7e1	0.09016395
53	0xbd3d5a47	-0.046228673
54	0x3dc207e2	0.0947416
55	0xbda1a5b3	-0.07892933
56	0x3de8537f	0.113440506
57	0x3cc3d5a6	0.023905586
58	0xbd89bda2	-0.06725623
59	0x3d29da0b	0.041467708
60	0x3da5dd0e	0.080988035
61	0xbd52a83e	-0.05142998
62	0xbe537a93	-0.20652227
63	0x3db765d7	0.08954971
64	0xbc583b9b	-0.013197805
65	0x3da79202	0.08182146
66	0xbde10a28	-0.10988265
67	0x3df9bfae	0.12194763
68	0xbc3dc7e0	-0.011583298
69	0xbd935c24	-0.07195309
70	0xbd85519f	-0.065097086
71	0xbe18fe61	-0.14940788
72	0x3dd7e148	0.10541016
73	0x3df7c1ff	0.12097549
74	0x3d02b984	0.031915203
75	0x3d592f4d	0.053023625
76	0x3d0fe209	0.035127673
77	0x3e0ea1fb	0.13928978
78	0x3e0fe491	0.14052035
79	0x3d810102	0.0629902
80	0x3e9237a5	0.28558078
81	0x3dd051d6	0.10171859
82	0xbda968dc	-0.082719535
83	0xbd75b91b	-0.059990983
84	0xbe0cdf4c	-0.13757056
85	0xbe0ad8cb	-0.13559262
86	0x3e118aef	0.14213155
87	0x3de838e6	0.113389775
88	0xbd639dee	-0.055570535
89	0x3dbe683c	0.09297225
90	0xbd9d7c6c	-0.07689747
91	0xbe533630	-0.2062614
92	0xbc32415f	-0.0108798435
93	0x3db5fc93	0.08886065
94	0xbd919988	-0.07109362
95	0xbca80753	-0.020511305
96	0xbc940f39	-0.018073665
97	0x3e2287e1	0.15872146
98	0xbc831a04	-0.016003616
99	0xbcd7328c	-0.02626922
100	0xbdd492b1	-0.10379542
101	0x3d398504	0.04529287
102	0xbe0e24e9	-0.13881268
103	0xbd94086b	-0.07228168
104	0x3e0b30e0	0.13592863
105	0x3e2f4b48	0.17118561
106	0x3dde3a80	0.10851002
107	0xbd5f5c2a	-0.054531254
108	0x3dded505	0.10880474
109	0x3e08cf58	0.13360345
110	0xbd399642	-0.045309313
111	0x3d893d4a	0.06701143
112	0x3da431c0	0.080173016
113	0x3e499784	0.19686705
114	0xbd73caeb	-0.05951969
115	0xbdd83a39	-0.1055798
116	0x3e10348c	0.14082545
117	0xbdcfa8d6	-0.10139625
118	0x3d778e63	0.060438525
119	0x3e49f6a0	0.19722986
120	0xbde2f6fb	-0.11082264
121	0x3cb33e41	0.02188027
122	0x3da87bac	0.082267135
123	0xbd8e3293	-0.0694324
124	0x3bff19c0	0.007785052
125	0x3c91b179	0.01778482
126	0xbe10c7fb	-0.14138786
127	0xbd8ad5c7	-0.06779056
128	0xbd5fc2bf	-0.054629084
129	0xbde494bb	-0.111611806
130	0xbd62e0db	-0.05539022
131	0xbd0023af	-0.03128403
132	0x3df09f7d	0.1174917
133	0x3dd95f78	0.10613912
134	0x3d74902e	0.059707813
135	0xbd133c49	-0.035946164
136	0x3e28e2f6	0.16492829
137	0x3e361ce5	0.1778446
138	0xbe031a02	-0.1280289
139	0xbd804d22	-0.06264712
140	0xbd97ff6b	-0.07421764
141	0x3d72860b	0.059209865
142	0x3aed11fd	0.0018087026
143	0x3e1c89ef	0.15286992
144	0x3c14e595	0.00908794
145	0xbe2c69c6	-0.16837224
146	0xbcb96f35	-0.022636035
147	0xbd3e5559	-0.046468113
148	0xbc8fa758	-0.01753585
149	0xbd956b71	-0.072958834
150	0xbdef8b30	-0.1169647
151	0x3e153516	0.14571032
152	0xbd1df93f	-0.038567778
153	0x3db70895	0.08937184
154	0x3dadb9bf	0.08482694
155	0x3b870755	0.004120747
156	0xbdce638c	-0.10077581
157	0xbde084b3	-0.1096281
158	0x3db0ec49	0.08638818
159	0xbd9adbbc	-0.07561442
160	0xbcc7b5e6	-0.024378728
161	0xbbaa8fbf	-0.005205124
162	0xbe0b6114	-0.13611251
163	0x3c12fbb3	0.008971143
164	0xbdd149c1	-0.102191456
165	0xbd502b3d	-0.050822485
166	0xbda5235c	-0.08063385
167	0x3d30af35	0.04313584
168	0x3d4d4029	0.050110016
169	0x3e1603b7	0.14649855
170	0x3d36d935	0.04464074
171	0x3e0bd02d	0.13653632
172	0xbce3a1a8	-0.027787045
173	0x3d585f3e	0.052825205
174	0x3d2e0f93	0.04249532
175	0x3e2f01e1	0.1709056
176	0xbdcbc501	-0.09949685
177	0xbdc7dbed	-0.097587444
178	0x3cd71605	0.026255617
179	0x3c7db7c7	0.01548571
180	0x3e163e70	0.14672256
181	0xbe365756	-0.17806754
182	0x3cf70b26	0.030156683
183	0xbe614c4d	-0.22001763
184	0x3d8adb53	0.06780114
185	0x3e398928	0.18118727
186	0x3d4f9bab	0.050685566
187	0xbd21a130	-0.03946036
188	0x3e2eac2f	0.1705787
189	0xbd825c3c	-0.063652486
190	0x3bfa1c8e	0.0076327985
191	0xbded0b2c	-0.115743965
192	0x3e1b2f76	0.15154824
193	0x3d589430	0.052875698
194	0xbc6bbf4f	-0.014388873
195	0xbd0f9204	-0.03505136
196	0x3df486bf	0.11939763
197	0x3de7e7ea	0.11323531
198	0x3df278b7	0.11839431
199	0x3d88db36	0.06682436
200	0x3e2fc993	0.17166738
201	0x3dc0f3e0	0.094215155
202	0xbdfbacaa	-0.122887924
203	0xbd220bd5	-0.039562065
204	0x3de4634a	0.111517504
205	0xbdd0010a	-0.10156448
206	0x3e0a7659	0.13521709
207	0x3e3564a8	0.17714179
208	0x3b25d528	0.0025304053
209	0x3d36732d	0.044543434
210	0xbcb21515	-0.021738568
211	0xbe06aeaa	-0.13152567
212	0xba3fafdc	-0.0007312277
213	0xbd1979e2	-0.037469752
214	0x3c897d6c	0.016783439
215	0x3e0448d3	0.12918405
216	0x3e134dd7	0.14385162
217	0xbe522ea7	-0.20525609
218	0xbde4ab13	-0.11165442
219	0x3e008390	0.12550187
220	0x3d320dd5	0.043470223
221	0xbdbc77d7	-0.09202545
222	0x3de93777	0.11387532
223	0x3d46a9a5	0.04850163
224	0x3c22de01	0.009940625
225	0x3dd10110	0.10205281
226	0xbd790db1	-0.060804073
227	0x3dcc99af	0.0999025
228	0x3b76db40	0.0037667304
229	0x3e105a60	0.14096975
230	0xbdcf8aa8	-0.101338685
231	0x3d2fb75b	0.04289947
232	0xbd41dbac	-0.047328636
233	0xbda7e6db	-0.08198329
234	0x3e410be4	0.18852192
235	0xbe121995	-0.14267571
236	0x3b8d64b3	0.004314983
237	0x3d8b31f7	0.067966394
238	0xbb48dd1e	-0.0030649374
239	0xbcc1cbc9	-0.023656743
240	0x3ce8435e	0.028352436
241	0xbae077de	-0.0017125567
242	0xbda4edbd	-0.080531575
243	0x3e008298	0.12549818
244	0xbdeabd5c	-0.11461899
245	0x3cb83f73	0.022491192
246	0xbd26871d	-0.040656198
247	0x3e408b5d	0.18803163
248	0xbdb20b88	-0.08693606
249	0x3d4bcba1	0.049754743
250	0x3da62a53	0.081135415
251	0x3da45290	0.0802356
252	0x3d7cc13d	0.061707724
253	0x3e031a6b	0.12803046
254	0x3d17a0d3	0.03701861
255	0x3d9da805	0.07698063

fc1.bias f4 [98]
0	0xbd52c217	-0.05145463
1	0x3dd7f73b	0.10545202
2	0xbd82edbc	-0.063930005
3	0x3d875200	0.06607437
4	0x3da75d1c	0.08172056
5	0x3e119eb0	0.1422069
6	0x3e0fcf9d	0.14044042
7	0xbca6a0a4	-0.020340271
8	0xbd2fd302	-0.042925842
9	0xbd876605	-0.066112556
10	0x3db81fb3	0.08990421
11	0x3d945f50	0.07244742
12	0xbd2ba8bf	-0.041908976
13	0xbc9e7ac9	-0.019345658
14	0xbcc1b087	-0.023643745
15	0x3d1713f6	0.03688427
16	0x3ce9a421	0.028520646
17	0xbca5ac93	-0.020223891
18	0x3d7a9db5	0.061185557
19	0xbd65b8ad	-0.056084324
20	0xbdc4205d	-0.09576485
21	0x3e1afa0e	0.15134451
22	0x3d94347e	0.072365746
23	0xbd4fcb31	-0.050730888
24	0xbd338738	-0.043830127
25	0xbd6b3538	-0.0574238
26	0xbc061209	-0.008183011
27	0x3e171686	0.14754686
28	0x3e111b18	0.14170492
29	0xbda4927e	-0.08035754
30	0x3e3485bb	0.17629139
31	0xbcad67e7	-0.021167709
32	0x3c632f6f	0.0138662895
33	0x3cb6d96d	0.022320474
34	0x3ce155ed	0.027506793
35	0x3d94d70d	0.0726758
36	0xbd3572e6	-0.04429903
37	0xbd5ac969	-0.053414736
38	0x3d01917e	0.031632893
39	0x3d77dc21	0.060512666
40	0xbbb87bb6	-0.005629982
41	0x3dbdb9b7	0.09263938
42	0x3cf553b8	0.029947147
43	0x3e16d0b3	0.1472805
44	0x3cc94628	0.024569586
45	0x3d87d2e0	0.06632018
46	0x3e096d7b	0.1342067
47	0x3a8603f4	0.0010224567
48	0x3d2de6fc	0.042456612
49	0x3dc44604	0.09583667
50	0x3e115d1d	0.14195676
51	0x3d8c37df	0.06846594
52	0x3d78e767	0.060767557
53	0x3bc76e29	0.00608613
54	0x3e281326	0.16413555
55	0xbcf22dbd	-0.029562825
56	0xbdbf1b07	-0.09331327
57	0x3d134fce	0.03596478
58	0x3e2b6144	0.16736323
59	0xbc6c30f1	-0.014415965
60	0xbe1f7a26	-0.1557394
61	0xbd3f562e	-0.046713047
62	0xbdf19850	-0.117966294
63	0x3ddaae69	0.10677797
64	0xbc705a51	-0.014669971
65	0x3cc44250	0.023957402
66	0xbe019b5c	-0.12656921
67	0xbdfef5bb	-0.12449213
68	0xbc5bdacf	-0.013418867
69	0x3d0057a7	0.03133359
70	0x3dfcce86	0.12344079
71	0x3c7c561c	0.015401389
72	0x3deafe1b	0.11474248
73	0xbd1e5579	-0.03865573
74	0xbded20e7	-0.11578541
75	0x3d59fb0c	0.053217933
76	0x3d979a4a	0.07402475
77	0xbddffff8	-0.10937494
78	0xbd8f3a2f	-0.069935195
79	0xbd77a808	-0.06046298
80	0xbda527ef	-0.08064257
81	0x3e16478c	0.1467573
82	0x3d918997	0.07106321
83	0xbd8d7b3c	-0.06908271
84	0xbd7372a2	-0.059435494
85	0x3c1a18b0	0.0094053
86	0xbc885f49	-0.016646998
87	0x3c1cae50	0.009563044
88	0x3e18050d	0.14845677
89	0x3d9a1595	0.07523648
90	0xbdcd692e	-0.10029827
91	0xbdb93790	-0.09043801
92	0x3d2b788f	0.04186302
93	0x3d40855f	0.047002193
94	0xbb1c1bbd	-0.0023820244
95	0x3cfa5bb2	0.030561302
96	0x3cb29d80	0.021803617
97	0xbde0836c	-0.10962567

fc2.weight f4 [48, 98]
0	0xbd2e7654	-0.042593315
1	0x3d9cc36c	0.07654461
2	0xbdf607c0	-0.12013197
3	0x3db23f9a	0.08703537
4	0xbd1cd3a6	-0.03828778
5	0xbdc96b29	-0.09834892
6	0x3cb2c096	0.021820348
7	0xbd91336c	-0.07089886
8	0xbc087014	-0.008327503
9	0xbcf40576	-0.02978776
10	0x3cecafb2	0.028892372
11	0x3daeb3ab	0.08530363
12	0x3e2c7778	0.16842449
13	0xbd8bfc9b	-0.0683529
14	0x3e0c253e	0.13686082
15	0x3c700897	0.0146504855
16	0x3d5b1f7a	0.053496815
17	0x3cf85dff	0.030318258
18	0x3e20efea	0.1571652
19	0xbda62c62	-0.08113934
20	0x3c642665	0.01392517
21	0x3d56e628	0.052465588
22	0xbdaaddf4	-0.083431154
23	0x3d918aee	0.07106577
24	0x3a96df16	0.0011510577
25	0x3d1f4b45	0.038890142
26	0xbe176a03	-0.14786534
27	0x3d595543	0.053059828
28	0x3e04dbb6	0.12974438
29	0xbda03543	-0.07822659
30	0xbd7859df	-0.060632583
31	0x3aa38b90	0.0012477506
32	0x3c7b81ea	0.015350798
33	0x3bbac095	0.005699227
34	0xbc10d268	-0.008839227
35	0xbd693be4	-0.05694188
36	0xbda2bf3d	-0.07946632
37	0x3d7d97cc	0.061912343
38	0xbce9dccc	-0.028547667
39	0xbdba63d3	-0.09101071
40	0x3d1e5ca3	0.038662564
41	0xbd8005d5	-0.06251112
42	0x3dbbc0f2	0.09167661
43	0x3d39f6ee	0.045401506
44	0x3d16da65	0.03682937
45	0x3c411e26	0.011786973
46	0x3db61a71	0.08891762
47	0x3cf12c99	0.029440211
48	0x3d33a7d6	0.043861233
49	0x3bf104e0	0.0073553175
50	0xbd20f89a	-0.039299585
51	0xbca66d3b	-0.020315757
52	0x3d3073ab	0.04307906
53	0xbc68afce	-0.014202071
54	0xbd229fa8	-0.03970304
55	0x3d1fc93f	0.039010283
56	0x3dbfba95	0.093617596
57	0x3d1b8179	0.03796527
58	0x3def9182	0.11697675
59	0xbe082bc8	-0.13297951
60	0xbd07ae3b	-0.033125143
61	0xbdca827d	-0.0988817
62	0xbd106457	-0.03525194
63	0x3d0d8506	0.03455069
64	0xbdabae2b	-0.08382829
65	0xbd84f9f1	-0.06492985
66	0x3d2d7b96	0.04235419
67	0x3de39dc8	0.11114079
68	0xbb7d6c28	-0.0038669202
69	0x3dc5150e	0.096231565
70	0x3d61bd4b	0.055112164
71	0x3d4488a5	0.047981877
72	0x3d1b61ef	0.037935194
73	0x3cef619d	0.02922135
74	0x3d1ea7e3	0.038734328
75	0x3d939a82	0.072072044
76	0xbd9d057b	-0.07667061
77	0x3d794a97	0.06086215
78	0x3d9468c1	0.07246543
79	0x3d376a2f	0.044779
80	0xbd4980df	-0.049195167
81	0xbcd503d8	-0.02600281
82	0xbd2d1d11	-0.042264048
83	0xbdacd858	-0.08439702
84	0xbd386603	-0.04501916
85	0x3d41e6f0	0.04733938
86	0xbbd42dd5	-0.00647519
87	0xbdaa99b8	-0.08330101
88	0x3d2404c8	0.040043622
89	0x3ced124d	0.02893939
90	0x3d1ca77e	0.03824567
91	0xbdf45b12	-0.11931433
92	0xbd126938	-0.035744876
93	0xbd3e4872	-0.046455808
94	0xbe373d6d	-0.17894526
95	0xbd084b76	-0.03327509
96	0xbe17e369	-0.14832844
97	0x3df63145	0.12021116
98	0xbd4bb504	-0.049733177
99	0x3d96f7f8	0.07371515
100	0x3e28930c	0.16462344
101	0x3d2a1628	0.041525036
102	0x3db33316	0.08749978
103	0x3c8ff22d	0.017571533
104	0x3dd84023	0.10559108
105	0xbd02d057	-0.03193697
106	0x3dd3a83d	0.10334823
107	0x3e2e91aa	0.17047754
108	0x3d7a445a	0.06110034
109	0xbbe3b46c	-0.006948998
110	0xbd1a300d	-0.03764348
111	0x3e0a02eb	0.13477676
112	0xbd810eb7	-0.06301635
113	0x3e350b33	0.17680053
114	0xbd717d78	-0.058957547
115	0x3e0d7100	0.13812637
116	0x3d85b020	0.06527734
117	0x3e00d3a5	0.12580736
118	0x3dd76fa5	0.105193414
119	0x3d357385	0.04429962
120	0x3d3e6594	0.04648359
121	0x3dad2ab4	0.084554106
122	0xbd86fea3	-0.06591537
123	0x3d683473	0.056690644
124	0x3dbd6b63	0.09248998
125	0xbd9b482a	-0.075821236
126	0xbd96d40a	-0.07364662
127	0x3d6d466c	0.057928488
128	0x3e1159e3	0.14194445
129	0xbd5653b8	-0.052325934
130	0x3cd203c0	0.025636554
131	0x3b087170	0.0020819567
132	0xbdc94d61	-0.09829212
133	0x3d87fb70	0.06639755
134	0x3db22f16	0.08700387
135	0xbcfcfb27	-0.030881478
136	0xbd1d24fb	-0.038365345
137	0x3d6b60a7	0.05746522
138	0x3d93cba3	0.07216575
139	0x3def53fe	0.11685942
140	0x3d950b81	0.07277585
141	0xbd1782ac	-0.036989853
142	0xbca89370	-0.020578116
143	0x3cf671bd	0.030083532
144	0x3d264ac0	0.04059863
145	0x3de25b25	0.11052541
146	0x3c5b5eee	0.013389332
147	0xbd174dc9	-0.036939416
148	0xbcbf76ae	-0.02337202
149	0x3df31833	0.1186985
150	0x3d853eb5	0.06506101
151	0xbcb03742	-0.021510724
152	0x3e016456	0.12635931
153	0x3db1f3ac	0.08689055
154	0xbda3f474	-0.0800561
155	0xbc18656a	-0.009301523
156	0x3baa802f	0.005203269
157	0x3d97629d	0.07391856
158	0xbd256d29	-0.040387306
159	0x3d2c7905	0.0421076
160	0x3d86fb70	0.06590927
161	0x3cebb746	0.028773915
162	0x3ddd1f13	0.107969426
163	0xbce6d4ac	-0.028177582
164	0x3d51c721	0.051215295
165	0xbd948eef	-0.07253825
166	0x3cc7601e	0.024337824
167	0x3d42d44d	0.047565747
168	0x3c6d7aeb	0.014494638
169	0x3dee793b	0.116442166
170	0xbd133af6	-0.0359449
171	0x3e27b8d5	0.16379102
172	0xbd32d531	-0.043660346
173	0xbe15f63d	-0.14644714
174	0xbd5304d3	-0.051518273
175	0x3c9a8098	0.018860146
176	0xbdc492d5	-0.095983185
177	0xbd112502	-0.035435684
178	0x3dc0cbf1	0.09413899
179	0xbbca3a11	-0.006171473
180	0xbcde9e97	-0.02717523
181	0x3e0a650a	0.13515106
182	0x3df7df52	0.12103142
183	0x3b2a14a5	0.0025952247
184	0x3df13887	0.1177836
185	0x3cc8637a	0.024461497
186	0x3def2602	0.11677171
187	0x3b75c892	0.0037503582
188	0xbdd312c4	-0.10306314
189	0xbd367865	-0.04454841
190	0x3dbc5a42	0.09196903
191	0x3d186072	0.037201352
192	0x3d4bcd77	0.049756493
193	0x3b982d7d	0.0046440945
194	0x3e156c02	0.14591983
195	0x3c4a9823	0.012365374
196	0xbcc8067c	-0.024417154
197	0xbc3aa369	-0.011391499
198	0xbce4cec5	-0.027930627
199	0x3d947bca	0.072501734
200	0xbd08aa93	-0.033365797
201	0x3ca04e96	0.019568723
202	0xbd0a6662	-0.033789046
203	0xbc3b8e86	-0.011447554
204	0x3c4243e4	0.011857007
205	0x3d42b2b3	0.047533702
206	0x3d7a0d80	0.06104803
207	0xbcbf77aa	-0.02337249
208	0xbc905333	-0.017617797
209	0x3d2437b7	0.040092196
210	0x3b7c3f12	0.0038489741
211	0xbd082366	-0.033236884
212	0xbd8cb5c2	-0.06870605
213	0xbdd0d524	-0.10196903
214	0x3d940f9e	0.07229541
215	0x3d6a6f16	0.057234846
216	0x3c8bb585	0.017054329
217	0xbdb47f5c	-0.088133544
218	0xbce05f0a	-0.027389068
219	0xbd3b8dbb	-0.04578946
220	0xbdb50087	-0.08837991
221	0xbc54d6e7	-0.01299069
222	0xbc88ae28	-0.016684607
223	0xbd423c19	-0.047420595
224	0xbd4101bb	-0.04712079
225	0xbdcca145	-0.09991697
226	0xbd251574	-0.040303662
227	0xbdb3ce57	-0.087795906
228	0x3cb1781a	0.021663714
229	0x3d5994bb	0.053120356
230	0x3d1e82ae	0.038698845
231	0x3d5568b5	0.05210181
232	0xbdb33ef8	-0.08752245
233	0xbcb7a703	-0.022418505
234	0xbd8032f8	-0.062597215
235	0xbcc37580	-0.02385974
236	0x3cb4b945	0.022061
237	0x3d845052	0.064606324
238	0xbda24763	-0.07923772
239	0xbb3d67ab	-0.0028900902
240	0x3d6e97e7	0.058250334
241	0x3d8112e8	0.06302434
242	0xbcc1d232	-0.0236598
243	0x3d309632	0.043111987
244	0xbd071021	-0.032974366
245	0xbcd3a183	-0.02583385
246	0xbdab2dad	-0.08358321
247	0x3d6a6e62	0.057234176
248	0xbdb95e93	-0.09051242
249	0xbda4918f	-0.080355756
250	0x3da5ba1e	0.0809214
251	0x3bdaf97c	0.006682573
252	0xbdc9a35e	-0.09845613
253	0x3d6e680b	0.05820469
254	0xbd45dbcc	-0.048305318
255	0x3c2d74fc	0.010586973

fc2.bias f4 [48]
0	0x3d42f7b3	0.047599506
1	0x3c0edb42	0.008719267
2	0xbdd73594	-0.10508266
3	0xbc478ce9	-0.012179592
4	0xbd9d0033	-0.076660536
5	0x3dba5ff2	0.09100331
6	0x3d53acf4	0.051678613
7	0x3dbf4f02	0.093412414
8	0x3c240330	0.010010526
9	0xbdb5efbd	-0.08883617
10	0x3aec0bf8	0.0018008938
11	0xba70b62f	-0.0009182421
12	0x3d9542cd	0.07288132
13	0xbd56bd0a	-0.052426375
14	0xbd15dfc1	-0.03659034
15	0xbc429e58	-0.011878572
16	0x3ddee4fa	0.108835176
17	0xbdcb2b59	-0.09920377
18	0x3d44e133	0.04806633
19	0x3cabc867	0.020969583
20	0xbd1bdb7f	-0.038051125
21	0x3cbe0c19	0.023199128
22	0x3da3b3cc	0.07993278
23	0x3ae4e108	0.0017462084
24	0x3d081abf	0.033228632
25	0xbdd72e83	-0.10506918
26	0xbd5f38fe	-0.05449771
27	0x3cb11637	0.021617038
28	0xbc319524	-0.010838781
29	0x3de3c315	0.11121193
30	0xbd097d73	-0.033566903
31	0x3d2248bf	0.039620157
32	0xbd0e2e18	-0.034711927
33	0xbd9c3062	-0.07626416
34	0x3d50c241	0.050966505
35	0x3dcbc38d	0.09949408
36	0x3d2b9f8b	0.0419002
37	0xbd005ff3	-0.031341504
38	0x3d2e9773	0.042624902
39	0x3d9eff6d	0.07763562
40	0x3dc14ee5	0.09438876
41	0xbd1e1f94	-0.038604334
42	0x3d57db94	0.05269964
43	0xbc893422	-0.016748492
44	0x3da8ff6a	0.08251841
45	0x3deb401f	0.114868395
46	0x3c7a0a67	0.015261269
47	0x3db95361	0.090491064

fc8.weight f4 [2, 48]
0	0xbe49bb13	-0.1970027
1	0x3e35e6d9	0.17763843
2	0xbd98fbf0	-0.07469928
3	0xbcab08a2	-0.02087814
4	0x3e54273a	0.20718089
5	0xbe6ddb3e	-0.23228166
6	0xbd985307	-0.07437711
7	0xbe3790a3	-0.17926268
8	0xbe0ca4c0	-0.13734722
9	0x3e2cfdfa	0.1689376
10	0x3e553575	0.20821173
11	0xbdcb2b3c	-0.09920356
12	0xbe1b4ffe	-0.15167233
13	0xbd971676	-0.07377331
14	0xbdb52f58	-0.08846921
15	0x3e4554cf	0.19270633
16	0xbdd65892	-0.10466112
17	0x3e01d58a	0.12679115
18	0xbc990a01	-0.018681528
19	0xbe5ab6dc	-0.21358818
20	0x3e3af678	0.18258083
21	0xbd2ffe40	-0.04296708
22	0x3dead711	0.11466802
23	0x3e4de54d	0.20107003
24	0x3dd65516	0.104654476
25	0xbe051ccf	-0.12999271
26	0x3d3da3fd	0.04629897
27	0x3e4d1058	0.20025766
28	0x3e0e502f	0.13897775
29	0xbe270019	-0.16308631
30	0xbb32701f	-0.0027227474
31	0x3e03caaf	0.12870286
32	0xbd6b27f9	-0.057411168
33	0x3d74116e	0.059586935
34	0xbe3df669	-0.1855103
35	0x3de0595d	0.10954545
36	0xbe1ed61f	-0.15511368
37	0x3e3b5ff6	0.18298325
38	0xbda7b050	-0.08187926
39	0x3d0fb3ad	0.03508346
40	0x3e3bb4f2	0.18330744
41	0x3d87bf63	0.06628301
42	0x3c4bf0d0	0.012447551
43	0x3be26a56	0.006909649
44	0x3ce22937	0.027607543
45	0xbe3c3555	-0.1837972
46	0x3ce08ad6	0.027409952
47	0xbe68f5f9	-0.22750081
48	0xbc6c6536	-0.014428427
49	0x3d3ed2d0	0.046587765
50	0x3e041f33	0.12902527
51	0xbe601bab	-0.21885554
52	0xbd4ad567	-0.049519923
53	0x3e77ac34	0.24186784
54	0x3d443e92	0.047911234
55	0x3d2a875a	0.041632988
56	0x3e388158	0.1801809
57	0x3ca1bad6	0.01974241
58	0xbcb72671	-0.022357197
59	0xbd0a5ba6	-0.03377881
60	0x3e430711	0.19045664
61	0x3e56bfad	0.20971556
62	0x3e4a1778	0.19735515
63	0xbe384ac5	-0.17997272
64	0x3e07850b	0.13234346
65	0x3d0aef66	0.033919714
66	0xbe1fed2b	-0.15617816
67	0x3d919550	0.07108557
68	0xbd934425	-0.07190732
69	0xbe3ab69e	-0.18233725
70	0xbdb0a331	-0.08624876
71	0xbe03dd6c	-0.12877434
72	0xbe2d4909	-0.16922392
73	0xbcc89f75	-0.024490098
74	0xbdedbd0c	-0.116083235
75	0xbe36e1d3	-0.17859583
76	0xbe41ffae	-0.1894519
77	0x3e5a892e	0.21341392
78	0x3e2a714a	0.16644779
79	0xbd8361db	-0.06415149
80	0xbd5aa6f3	-0.05338187
81	0xbdd8b1af	-0.105807655
82	0x3d44f296	0.04808291
83	0xbdc4baeb	-0.09605964
84	0x3d244edb	0.040114265
85	0xbd4de3a9	-0.05026594
86	0x3dfff80b	0.12498482
87	0xbe19ed77	-0.15031992
88	0xbd0956a7	-0.033529904
89	0xbe27af24	-0.16375405
90	0xbe0fdebd	-0.14049812
91	0xbe4cca7e	-0.1999912
92	0x3e18e0dc	0.14929527
93	0x3e3f8270	0.18702102
94	0xbe271df9	-0.16320027
95	0x3d83b172	0.064303294

fc8.bias f4 [2]
0	0x3d6eb621	0.05827916
1	0xbe043250	-0.12909818

exp_avg f4 [98, 40]
0	0xb8b2029a	-8.488186e-05
1	0xb97ce90c	-0.0002411941
2	0xb9b81f8e	-0.00035118725
3	0xb9d3bb19	-0.00040384455
4	0x389a88d4	7.3687785e-05
5	0xba6b1b48	-0.0008968604
6	0xb810a805	-3.4488756e-05
7	0xb7045f66	-7.890025e-06
8	0xba6b1b48	-0.0008968604
9	0xb810a805	-3.4488756e-05
10	0x3889fce7	6.579776e-05
11	0xba4295a6	-0.0007422812
12	0xb9014217	-0.00012327019
13	0xb8e9d8ac	-0.00011150664
14	0x30700030	8.731176e-10
15	0xba3634be	-0.0006950608
16	0xb920fc4e	-0.0001535278
17	0x370155fc	7.709019e-06
18	0x38b61aa3	8.683398e-05
19	0xb59020b8	-1.0738358e-06
20	0xb9f68feb	-0.00047028004
21	0xb6b36e7c	-5.347478e-06
22	0x37a60361	1.9790315e-05
23	0xb5018f01	-4.8264343e-07
24	0xb9adb690	-0.0003313315
25	0xb6a6db62	-4.972725e-06
26	0xb81a72c4	-3.6823345e-05
27	0xb7e9e051	-2.788022e-05
28	0xb6efe988	-7.1499417e-06
29	0xb8888416	-6.509588e-05
30	0xb1d80479	-6.286936e-09
31	0xba30be27	-0.0006742202
32	0xb89d39c3	-7.497102e-05
33	0xb856fdeb	-5.1258055e-05
34	0xb8708f17	-5.735372e-05
35	0xba00cd6c	-0.0004913423
36	0xb6b8eaf7	-5.510981e-06
37	0x37032169	7.815987e-06
38	0xb75b110f	-1.3057389e-05
39	0xb9a07c72	-0.00030610297
40	0xb9db9a08	-0.00041885697
41	0xba70e6ae	-0.00091896474
42	0xbb0215d1	-0.001984943
43	0xbb8555e1	-0.0040690755
44	0xbb01c497	-0.0019801015
45	0xbb09d452	-0.0021031094
46	0x399a054a	0.0002937711
47	0xba8899a8	-0.001042177
48	0xbb09d452	-0.0021031094
49	0x399a054a	0.0002937711
50	0xbb46116b	-0.0030222784
51	0xbaaf54b3	-0.0013376683
52	0xbb64fabb	-0.0034939486
53	0xb96148cb	-0.0002148479
54	0xb390c8d9	-6.7420565e-08
55	0xbb96363c	-0.004584102
56	0x389de95d	7.529811e-05
57	0x395e4e7a	0.00021200805
58	0xb9a7b90d	-0.00031990596
59	0xb57c870e	-9.4073846e-07
60	0xba26de3e	-0.0006365514
61	0x37b02cfe	2.1001786e-05
62	0xb96960b6	-0.00022256639
63	0xb782fe20	-1.5615544e-05
64	0xbaed6362	-0.0018111283
65	0xb7cca065	-2.4393385e-05
66	0xb81f8ded	-3.8040733e-05
67	0xba1c54b2	-0.00059635483
68	0xbac58773	-0.0015070274
69	0x38ae9118	8.3239924e-05
70	0x00000000	0.0
71	0xb9e7dbe6	-0.0004422359
72	0xbb1ca996	-0.0023904792
73	0xbb08748c	-0.002082142
74	0xba6fd86d	-0.00091493764
75	0xbb6c5e38	-0.00360669
76	0xb7f2ab59	-2.8928438e-05
77	0x3a79ba45	0.00095263525
78	0xb7eb005d	-2.8014352e-05
79	0xba9e07fb	-0.0012056822
80	0xbaa8f9f1	-0.0012891871
81	0xbac9924e	-0.0015378685
82	0xba0db98a	-0.00054063706
83	0xbbdcb6ec	-0.006735673
84	0xba8c7d67	-0.0010718525
85	0xba65fcc0	-0.00087733194
86	0x3b150e49	0.002274411
87	0xbbaf4a42	-0.0053494284
88	0xba65fcc0	-0.00087733194
89	0x3b150e49	0.002274411
90	0xbbd2699c	-0.006421281
91	0xbb53dc00	-0.0032327175
92	0xbaead03e	-0.0017914844
93	0xba5a4ede	-0.0008327792
94	0xb497d6c4	-2.8282204e-07
95	0xbb936b51	-0.004498877
96	0x3b1ac106	0.0023613586
97	0x3abe2591	0.0014507045
98	0xbb65a8d7	-0.0035043263
99	0xb6c12166	-5.7557363e-06
100	0xb62164a6	-2.4049455e-06
101	0xaa24cb6f	-1.4636706e-13
102	0x3af74b3c	0.0018867026
103	0xb84e88fd	-4.9241808e-05
104	0xba593504	-0.0008285793
105	0xb8d842ff	-0.000103121616
106	0xbb519384	-0.0031978795
107	0xba60bf66	-0.00085734425
108	0xbaf4a7f6	-0.0018665779
109	0x3a0bd742	0.0005334505
110	0x00000000	0.0
111	0xbb37938f	-0.0028011536
112	0xba99d19c	-0.0011735442
113	0xbacf7b1e	-0.0015829538
114	0xb7e89401	-2.7725475e-05
115	0x3b2f9fe3	0.002679818
116	0xb7befaaf	-2.2766499e-05
117	0xb7377119	-1.0933983e-05
118	0xbb99a4c8	-0.004688833
119	0xbb4193e3	-0.002953761
120	0x39ae2133	0.00033212602
121	0x3ac7d527	0.001524602
122	0x3b19c4ec	0.0023463322
123	0x3b2f0f79	0.0026712103
124	0x3b294be8	0.0025832597
125	0x3b9df104	0.004819991
126	0xbb3b2c38	-0.0028560292
127	0x3a08b439	0.00052148435
128	0x3b9df104	0.004819991
129	0xbb3b2c38	-0.0028560292
130	0x3b4b78f5	0.0031047438
131	0x3b261da9	0.0025347269
132	0x3b26111a	0.0025339783
133	0x3a02c1ff	0.0004988014
134	0xad8c91ce	-1.5980908e-11
135	0x3c002137	0.007820419
136	0x35009c5a	4.791124e-07
137	0xbb11f472	-0.0022270945
138	0xba86345d	-0.0010238994
139	0x36dd4b98	6.5951135e-06
140	0x3b015f50	0.0019740649
141	0xb9e0ef78	-0.00042903027
142	0xba44ac82	-0.00075025123
143	0x37ba91ec	2.2240878e-05
144	0x3b45c953	0.0030179813
145	0x366e10ed	3.5474616e-06
146	0xba8f5714	-0.0010935985
147	0x3a5a870a	0.00083361624
148	0x3ac27354	0.0014835396
149	0xba9dcd6a	-0.0012039368
150	0x0cf2ae05	3.7390738e-31
151	0x3b463a6e	0.003024723
152	0x3a9ac66f	0.0011808405
153	0x3b0777d2	0.0020670784
154	0x3ab9bfbb	0.001417152
155	0x3bac91f1	0.005266421
156	0x37238498	9.746429e-06
157	0xbade7beb	-0.0016974186
158	0xba9d8a8b	-0.0012019438
159	0x3aa71577	0.0012747486
160	0xba1c4915	-0.0005961818
161	0xbac3ee61	-0.0014948362
162	0xbb331d81	-0.0027330818
163	0xbb9ccf47	-0.0047854516
164	0xba9fecc5	-0.00122013
165	0xbb8e007d	-0.0043335543
166	0x38f66cca	0.000117504576
167	0xbacaaa49	-0.0015462126
168	0xbb8e007d	-0.0043335543
169	0x38f66cca	0.000117504576
170	0xbb354b85	-0.0027663421
171	0xbb594d50	-0.0033157654
172	0xbb704bc9	-0.0036666265
173	0xb9aefb76	-0.0003337522
174	0xb39c144a	-7.2680066e-08
175	0xbbf38b19	-0.007432353
176	0x39e4af9d	0.0004361839
177	0xb9095900	-0.00013098493
178	0x39faeacb	0.0004785865
179	0xb633b231	-2.67768e-06
180	0xbab5e8e6	-0.0013878613
181	0x2de30891	2.5810716e-11
182	0xb9e5bc47	-0.0004381856
183	0xb6796e94	-3.7168256e-06
184	0xbb073ec8	-0.0020636786
185	0xb7ef17ee	-2.8502163e-05
186	0xb720e857	-9.590839e-06
187	0xba82181b	-0.0009925397
188	0xbb06b7e6	-0.002055639
189	0xba301222	-0.0006716569
190	0xb397f84b	-7.07665e-08
191	0xbb052f8b	-0.0020322527
192	0xbb1b978b	-0.002374145
193	0xbaf9989a	-0.0019042671
194	0xba9a81b8	-0.0011787927
195	0xbbae00a2	-0.005310134
196	0xb81b1eaf	-3.6983456e-05
197	0x3a8f36a3	0.0010926317
198	0xb9b8133c	-0.00035109546
199	0xba9d06cc	-0.0011980175
200	0xba8f14a9	-0.0010916191
201	0xbb2e0db7	-0.0026558468
202	0xbb933044	-0.0044918377
203	0xbc00842d	-0.007844013
204	0xbbb5c54f	-0.0055472027
205	0xbba14680	-0.0049217343
206	0x3aa7a026	0.0012788817
207	0xbb28f313	-0.002577965
208	0xbba14680	-0.0049217343
209	0x3aa7a026	0.0012788817
210	0xbc051f6d	-0.008125168
211	0xbba87d6d	-0.005141905
212	0xbbd91fe3	-0.0066261156
213	0xb9a422d8	-0.00031306478
214	0xb40d23b5	-1.3144638e-07
215	0xbc59eedb	-0.0133015765
216	0x3a9febf0	0.0012201052
217	0x3a40ad14	0.00073500094
218	0xb8e33c1f	-0.00010835402
219	0xb7112494	-8.65119e-06
220	0xbb5683e2	-0.0032732417
221	0x39c6e0e2	0.00037933054
222	0x39bf929d	0.00036539594
223	0xb7dadff7	-2.6091917e-05
224	0xbb9a9705	-0.00471771
225	0xb870f20e	-5.744589e-05
226	0x3a37b96b	0.00070085254
227	0xb9e4d4a6	-0.00043645984
228	0xbb99d01e	-0.004693999
229	0x395af476	0.00020881169
230	0xb4176736	-1.4100519e-07
231	0xbbc78a08	-0.0060894527
232	0xbb59da0e	-0.0033241543
233	0xbb27f96f	-0.0025630852
234	0xbaf6ab1d	-0.0018819306
235	0xbbd86bd6	-0.006604652
236	0xb8a6b493	-7.9491314e-05
237	0x3b11fb16	0.0022274903
238	0xba7ce69a	-0.00096473994
239	0xbb924c98	-0.004464697
240	0xba2036b7	-0.0006111669
241	0xbace00b6	-0.0015716765
242	0xbb297318	-0.0025855955
243	0xbb803828	-0.0039129443
244	0xba97f877	-0.0011594434
245	0xbb8dac25	-0.0043234997
246	0x38811361	6.154809e-05
247	0xba8fe8bd	-0.0010979396
248	0xbb8dac25	-0.0043234997
249	0x38811361	6.154809e-05
250	0xbb13f09a	-0.002257383
251	0xbb653d29	-0.0034979081
252	0xbb46031d	-0.0030214258
253	0xb9eeea9b	-0.00045569692
254	0xb3671a4f	-5.3807806e-08
255	0xbbd239ac	-0.0064155664

exp_avg_sq f4 [98, 40]
0	0x349dee8d	2.9417097e-07
1	0x34c2076a	3.614071e-07
2	0x358bbbc3	1.0410953e-06
3	0x36713288	3.5941212e-06
4	0x350c1cbc	5.219588e-07
5	0x36b2f19c	5.3329404e-06
6	0x34fde208	4.7289382e-07
7	0x349987d9	2.8597313e-07
8	0x36b2f19c	5.3329404e-06
9	0x34fde208	4.7289382e-07
10	0x355aca85	8.1506033e-07
11	0x36b3d39b	5.35925e-06
12	0x35960d9e	1.1179834e-06
13	0x350ad450	5.171796e-07
14	0x318c85a9	4.0897317e-09
15	0x3683402c	3.911575e-06
16	0x35c916c5	1.4982294e-06
17	0x348f420b	2.6683878e-07
18	0x337832e2	5.7788277e-08
19	0x32ba773b	2.170747e-08
20	0x36385451	2.7467215e-06
21	0x33b3f854	8.380508e-08
22	0x3445931c	1.8400573e-07
23	0x32c557e3	2.2973785e-08
24	0x35d2668d	1.5676065e-06
25	0x344f032f	1.9279535e-07
26	0x34afb518	3.2728053e-07
27	0x34d5ffa2	3.986034e-07
28	0x358084be	9.575376e-07
29	0x34d622bc	3.988588e-07
30	0x2d9cc55c	1.7822792e-11
31	0x36b1c0a1	5.297436e-06
32	0x354578e7	7.3564155e-07
33	0x34af294a	3.2626332e-07
34	0x34939678	2.7490364e-07
35	0x365fe2d0	3.3361612e-06
36	0x327c9c2e	1.4703842e-08
37	0x331beb70	3.630288e-08
38	0x33a0c483	7.486326e-08
39	0x3630def3	2.6355817e-06
40	0x373df06e	1.1321257e-05
41	0x36b7f5b4	5.4824286e-06
42	0x3806d87e	3.2149714e-05
43	0x38de196e	0.000105905216
44	0x38866195	6.407794e-05
45	0x385e224f	5.2960877e-05
46	0x387c32a2	6.0128637e-05
47	0x36921b1e	4.354296e-06
48	0x385e224f	5.2960877e-05
49	0x387c32a2	6.0128637e-05
50	0x388e5bca	6.788185e-05
51	0x38a6ddef	7.956835e-05
52	0x38d53446	0.00010166368
53	0x37826ec1	1.5548781e-05
54	0x3506bfdb	5.0198076e-07
55	0x389154a7	6.9299065e-05
56	0x3877f448	5.9116894e-05
57	0x37ac18d3	2.0515557e-05
58	0x3740dcae	1.1495473e-05
59	0x3474a0ab	2.2782721e-07
60	0x381cc1de	3.737385e-05
61	0x36150245	2.2204051e-06
62	0x36d8da5c	6.462722e-06
63	0x3672e44a	3.6193692e-06
64	0x3815706c	3.562907e-05
65	0x36095582	2.0464363e-06
66	0x3717bcaf	9.044233e-06
67	0x37f74f4f	2.9481625e-05
68	0x387bda47	6.004635e-05
69	0x3742e486	1.1616508e-05
70	0x00000000	0.0
71	0x382ce39f	4.1219984e-05
72	0x38c5fc23	9.440656e-05
73	0x38025252	3.1071082e-05
74	0x37b23cd3	2.1247577e-05
75	0x38f28fb1	0.00011566224
76	0x35ae3512	1.2979456e-06
77	0x36c2dd52	5.8074156e-06
78	0x36ab369e	5.1025554e-06
79	0x3809876e	3.2789474e-05
80	0x38e0a819	0.00010712463
81	0x3848ad8a	4.7845337e-05
82	0x396f5613	0.00022824881
83	0x3a67ad4d	0.00088377745
84	0x3923a4d1	0.0001560629
85	0x3923675b	0.00015583394
86	0x3a921d0b	0.0011147571
87	0x392fd743	0.00016769492
88	0x3923675b	0.00015583394
89	0x3a921d0b	0.0011147571
90	0x39b26966	0.00034029334
91	0x3a190e3c	0.0005838608
92	0x3a85fc85	0.0010222351
93	0x38b58c77	8.656916e-05
94	0x34e1337b	4.1946973e-07
95	0x3a3868c6	0.00070346554
96	0x39872b65	0.00025781538
97	0x39c59b8e	0.00037690665
98	0x38bee759	9.102998e-05
99	0x33fd84e7	1.18054054e-07
100	0x344f5721	1.9310075e-07
101	0x3723d86c	9.765947e-06
102	0x38b99298	8.848793e-05
103	0x37a095df	1.9143275e-05
104	0x39bd8be2	0.0003615311
105	0x38614e51	5.3717118e-05
106	0x38f65816	0.000117466014
107	0x38d5d71d	0.000101966994
108	0x3a52c66d	0.0008040432
109	0x394ea53e	0.00019707248
110	0x00000000	0.0
111	0x39ce0abd	0.00039299382
112	0x3a6cec59	0.0009037904
113	0x38a9031b	8.0591264e-05
114	0x37e3fe39	2.717889e-05
115	0x3a654009	0.0008745199
116	0x3761b05f	1.345211e-05
117	0x38177aca	3.611556e-05
118	0x38b84d5e	8.7882145e-05
119	0x3a0bdebe	0.00053356204
120	0x37c682b2	2.3664299e-05
121	0x381310c5	3.506315e-05
122	0x390de98c	0.00013533811
123	0x39a235af	0.00030939045
124	0x39b24afb	0.0003400667
125	0x39a6c768	0.00031810557
126	0x37d7cf6d	2.5726587e-05
127	0x38126df2	3.4911507e-05
128	0x39a6c768	0.00031810557
129	0x37d7cf6d	2.5726587e-05
130	0x39bfe643	0.00036601917
131	0x39b736d6	0.00034945336
132	0x39b00600	0.00033573806
133	0x38a1e4f2	7.7197226e-05
134	0x35f44649	1.8199872e-06
135	0x398dcaf3	0.00027044825
136	0x398e5866	0.00027150213
137	0x3846a877	4.7363774e-05
138	0x37caf1d0	2.419288e-05
139	0x359bf89d	1.1620756e-06
140	0x393c8dbb	0.00017981876
141	0x37bd2495	2.254759e-05
142	0x383f590e	4.5620887e-05
143	0x37335165	1.0688183e-05
144	0x392339e9	0.00015566465
145	0x359afc21	1.1547273e-06
146	0x38425867	4.6335535e-05
147	0x38910dd5	6.916715e-05
148	0x3924f657	0.00015732028
149	0x37a47e08	1.9609011e-05
150	0x3033e464	6.5444383e-10
151	0x39fe1d40	0.00048468448
152	0x3900f746	0.00012299148
153	0x389804e3	7.248835e-05
154	0x387ff90d	6.1028684e-05
155	0x39f7a0aa	0.00047231215
156	0x3533059a	6.669085e-07
157	0x3721a2e7	9.6342765e-06
158	0x374728d5	1.1870831e-05
159	0x3910eb8f	0.00013820663
160	0x375b6520	1.3076962e-05
161	0x37730239	1.4484446e-05
162	0x3876f6e4	5.8880905e-05
163	0x3936acaf	0.00017421202
164	0x39003a14	0.00012228667
165	0x39063a39	0.00012800925
166	0x3884a6a6	6.325291e-05
167	0x37a31542	1.9441013e-05
168	0x39063a39	0.00012800925
169	0x3884a6a6	6.325291e-05
170	0x390e450f	0.00013567902
171	0x395b611d	0.00020921645
172	0x38fe7d09	0.000121349534
173	0x37e8fb1c	2.7773487e-05
174	0x35113458	5.409288e-07
175	0x3934dc4a	0.00017248202
176	0x389793e0	7.227785e-05
177	0x37d65c8d	2.5553885e-05
178	0x37e1f7f4	2.6937552e-05
179	0x3561cb60	8.411498e-07
180	0x38c316dd	9.302583e-05
181	0x360abca9	2.0673417e-06
182	0x37ad7017	2.0675403e-05
183	0x3627595b	2.493695e-06
184	0x3885d252	6.3811094e-05
185	0x366e55e0	3.551475e-06
186	0x37aeae8d	2.0823698e-05
187	0x37edab93	2.8332497e-05
188	0x38b975b5	8.843412e-05
189	0x37bd07ae	2.2534132e-05
190	0x31eaf006	6.837584e-09
191	0x3930e06b	0.0001686827
192	0x38e665ad	0.00010986193
193	0x38151fdf	3.555405e-05
194	0x37ef18f4	2.850264e-05
195	0x394f63de	0.00019778262
196	0x35f4bbcd	1.8234074e-06
197	0x372ae08d	1.0185072e-05
198	0x3725c574	9.8807395e-06
199	0x38a09f83	7.659106e-05
200	0x3877ab37	5.9048845e-05
201	0x3871fdc1	5.7695204e-05
202	0x395cb730	0.00021049078
203	0x3a3bfada	0.00071708637
204	0x3a25ca0a	0.00063243567
205	0x39a51e01	0.00031493607
206	0x399602f6	0.00028612436
207	0x38ad6126	8.267378e-05
208	0x39a51e01	0.00031493607
209	0x399602f6	0.00028612436
210	0x3a395815	0.0007070315
211	0x3a1a915b	0.00058962934
212	0x3a3904bb	0.0007057895
213	0x383734dc	4.367983e-05
214	0x353283d7	6.650202e-07
215	0x3a1e428f	0.00060371397
216	0x3a017bc0	0.00049393997
217	0x385eb530	5.309767e-05
218	0x38991f97	7.3014926e-05
219	0x369cc6ac	4.6722907e-06
220	0x3996a729	0.00028734774
221	0x37a94850	2.0180043e-05
222	0x390b9b40	0.00013313908
223	0x378a911c	1.6518454e-05
224	0x397772d4	0.00023598532
225	0x377244e5	1.4440365e-05
226	0x38850f06	6.3447325e-05
227	0x391eb4ed	0.00015135454
228	0x39b99bd6	0.00035402057
229	0x38f0a091	0.000114739996
230	0x32242024	9.553364e-09
231	0x3a397a1d	0.0007075386
232	0x39dea0d0	0.00042462954
233	0x386b7cde	5.6144658e-05
234	0x390f3473	0.00013657082
235	0x3a373e8d	0.0006990217
236	0x36cf4fbf	6.1783644e-06
237	0x38306bee	4.2062187e-05
238	0x381579b6	3.563772e-05
239	0x39bc659a	0.00035933853
240	0x375d88bc	1.3204462e-05
241	0x37472c01	1.187157e-05
242	0x383a5de3	4.4433295e-05
243	0x3916fd58	0.00014399493
244	0x38a86941	8.030469e-05
245	0x38f14bd4	0.000115058996
246	0x38365cd9	4.3478653e-05
247	0x378307b1	1.5619999e-05
248	0x38f14bd4	0.000115058996
249	0x38365cd9	4.3478653e-05
250	0x38cb2ece	9.6885124e-05
251	0x39208652	0.00015308827
252	0x38ca11e5	9.635444e-05
253	0x37c0974e	2.295864e-05
254	0x34d8fd83	4.041759e-07
255	0x3909c6a1	0.00013139333

exp_avg f4 [98]
0	0xba62e62d	-0.00086555147
1	0xbb9e528b	-0.004831617
2	0xbba4a210	-0.005024202
3	0x3ba61762	0.0050687054
4	0xbbe4cc8c	-0.0069823917
5	0xbc40cea8	-0.011768021
6	0xbbd5a024	-0.0065193344
7	0xbacae8ff	-0.0015480815
8	0x3b58ab81	0.0033061209
9	0xbc23f796	-0.01000776
10	0xbc13c8b1	-0.0090200165
11	0xbb2d521e	-0.002644665
12	0x3c86f251	0.016472967
13	0xbc2cbffd	-0.01054382
14	0x3a55a345	0.0008149634
15	0xbc372a4d	-0.011179519
16	0x3befea7a	0.007321653
17	0xbbdd9c7b	-0.0067630387
18	0x3bfba866	0.007679987
19	0xbb8b1b3f	-0.0042451913
20	0x3a8842eb	0.001039592
21	0xbbcd2fa2	-0.006261782
22	0xbb29257b	-0.0025809694
23	0x3b5c6edd	0.0033635416
24	0x3b8b640d	0.0042538703
25	0x3b481c54	0.0030534463
26	0xbba917d6	-0.005160312
27	0x3a603dd7	0.0008554137
28	0x3b744fc8	0.0037278999
29	0xbba49a23	-0.0050232573
30	0xbbd7d233	-0.006586337
31	0x3bf00df6	0.007325883
32	0x3c06be2f	0.008224054
33	0xba9cc838	-0.0011961525
34	0xbb3874ce	-0.0028145793
35	0xbb8447a8	-0.0040368624
36	0xbc34a70a	-0.011026153
37	0xbb85dfcd	-0.004085517
38	0x388ce68d	6.718664e-05
39	0xbbb96a9e	-0.0056584617
40	0x3b46572a	0.0030264356
41	0xbc5c6f28	-0.013454236
42	0xbc009800	-0.00784874
43	0xbb910672	-0.004425817
44	0x3b79112f	0.0038004627
45	0xbc13d92e	-0.009023948
46	0xbb41df46	-0.0029582544
47	0xbbff2938	-0.007786896
48	0x39dd147c	0.00042167667
49	0x3b5936e4	0.003314429
50	0xbb1ed9f3	-0.0024238795
51	0xbb1b6a52	-0.0023714495
52	0xb9f70ba5	-0.00047120187
53	0xbc3f8aef	-0.011690839
54	0xbc17476e	-0.009233339
55	0xbbbb6fcc	-0.0057201143
56	0x3babbcc4	0.0052410085
57	0xbb64870d	-0.0034870536
58	0xbb121c79	-0.0022294803
59	0xbbe41e4c	-0.0069616195
60	0x3a821986	0.000992582
61	0xbc478fcb	-0.012180279
62	0xbc507cdc	-0.012725081
63	0xb9ae433c	-0.0003323796
64	0xbc8a3172	-0.01686928
65	0xbc40625c	-0.011742201
66	0x3b28e45c	0.0025770878
67	0x3c493786	0.012281304
68	0x3b270c3f	0.0025489477
69	0xbb95891c	-0.004563464
70	0xbbc66ece	-0.0060556894
71	0xbbfa8dde	-0.0076463064
72	0xbb5c6144	-0.003362731
73	0xb9d53711	-0.00040667554
74	0x3bb0e850	0.0053987876
75	0x3c655081	0.013996244
76	0xbbaad467	-0.0052133086
77	0xba4d3155	-0.00078274804
78	0x3b78c425	0.0037958708
79	0xbbb71222	-0.0055868784
80	0xb966cf86	-0.00022011818
81	0x3a4d6e15	0.0007836533
82	0xbb673d1b	-0.0035284224
83	0xbb0c67ba	-0.002142413
84	0xbba50366	-0.0050358055
85	0x3c48d656	0.012258133
86	0xbc02fbc4	-0.007994596
87	0xbc1442ed	-0.0090491595
88	0xbba7446a	-0.005104591
89	0xbc14b37f	-0.009075998
90	0x3b7a6cd9	0.003821185
91	0xbb8a7632	-0.0042255158
92	0xbb703bb0	-0.003665667
93	0xbca81066	-0.020515632
94	0xbbcd8ab1	-0.006272637
95	0x3bbdf300	0.00579679
96	0xbbca5f4d	-0.0061759115
97	0x3bfb9097	0.0076771486

exp_avg_sq f4 [98]
0	0x36deb88d	6.6376e-06
1	0x39356a87	0.0001730119
2	0x3ad21b72	0.0016029908
3	0x3a310cf6	0.00067539455
4	0x39a8ac17	0.00032171674
5	0x3aa0766e	0.0012242326
6	0x398328a7	0.00025016555
7	0x37856d0a	1.590561e-05
8	0x3909cd09	0.0001314172
9	0x3a3153c9	0.0006764499
10	0x3a5cf327	0.00084285665
11	0x38b8c5ea	8.810668e-05
12	0x3aca6117	0.0015440312
13	0x3a48647f	0.00076443696
14	0x3938fd56	0.00017641982
15	0x3ac72d46	0.0015195988
16	0x3a89d18c	0.001051472
17	0x399c8982	0.0002985709
18	0x3a496535	0.00076826225
19	0x3938230c	0.00017560663
20	0x38dafe0b	0.00010442369
21	0x39751acd	0.00023375005
22	0x3a997389	0.0011707406
23	0x3909cbcd	0.0001314126
24	0x38ed11ec	0.00011304379
25	0x3822c776	3.8809572e-05
26	0x3b08e026	0.0020885556
27	0x37167140	8.967065e-06
28	0x393f4dd7	0.00018244177
29	0x399bf99b	0.00029749874
30	0x39af310d	0.00033415147
31	0x3ac9dae4	0.0015400317
32	0x3a284d7e	0.00064202386
33	0x372cebf0	1.0306932e-05
34	0x3a70219c	0.00091602816
35	0x39065d59	0.0001281401
36	0x3a48e734	0.00076638465
37	0x38d7fed1	0.00010299462
38	0x361cb36f	2.3350256e-06
39	0x396c87a2	0.00022557241
40	0x39b95555	0.00035349527
41	0x3a516314	0.0007987481
42	0x3a4138db	0.0007370838
43	0x38e05f51	0.000106989064
44	0x398b4fb9	0.00026571544
45	0x3a051f18	0.00050781807
46	0x393f307e	0.00018233244
47	0x39f1501d	0.0004602679
48	0x36c78c58	5.9470003e-06
49	0x391bd192	0.00014860023
50	0x37d2e4c4	2.5140478e-05
51	0x38d014f1	9.9221135e-05
52	0x36be82e2	5.677678e-06
53	0x3a868b8c	0.0010264977
54	0x39f6f6b3	0.00047104582
55	0x39be1518	0.0003625534
56	0x3a7bab82	0.0009600447
57	0x38f9d2de	0.00011912522
58	0x38a6cc36	7.953534e-05
59	0x39fa3c9f	0.00047728882
60	0x37433410	1.16350275e-05
61	0x3a856ad2	0.001017893
62	0x3a37d8e9	0.0007013218
63	0x36db2051	6.5304707e-06
64	0x3aa382b2	0.0012474863
65	0x3a5a25aa	0.00083216524
66	0x3a144eb2	0.00056574785
67	0x3a5bac19	0.00083798316
68	0x38cbbd27	9.715027e-05
69	0x38ee7c0c	0.0001137183
70	0x394815e7	0.00019081646
71	0x3a0a9a23	0.00052872504
72	0x38874679	6.450428e-05
73	0x39cff109	0.00039661702
74	0x3903195a	0.00012502578
75	0x3afe22ae	0.0019388997
76	0x3990f4ee	0.00027648307
77	0x37d2de16	2.5137368e-05
78	0x3abeb0d5	0.001454855
79	0x3934a9f4	0.0001722945
80	0x380f2ab2	3.413362e-05
81	0x381cfe19	3.7429945e-05
82	0x391cbdc1	0.00014948008
83	0x39c6d019	0.00037920548
84	0x39164d4b	0.00014333909
85	0x3ac7d0fa	0.0015244775
86	0x3af09565	0.001835507
87	0x3a1a76b0	0.00058923196
88	0x39cb8d37	0.0003882439
89	0x3a1cad0e	0.0005976715
90	0x3a16ad3e	0.0005747861
91	0x39d609c4	0.00040824537
92	0x38f2718b	0.00011560608
93	0x3b3f75b1	0.0029214437
94	0x3ac25e67	0.001482916
95	0x394e0918	0.00019649079
96	0x3aaee991	0.0013344755
97	0x3a268d7b	0.00063534797

exp_avg f4 [48, 98]
0	0x3ae55ef2	0.0017499609
1	0x3a09653d	0.0005241221
2	0x3893bf30	7.045118e-05
3	0x39d7329b	0.000410457
4	0x3aee95cd	0.0018202603
5	0x3a061e33	0.00051161944
6	0x3ad3f35c	0.0016170549
7	0x3a5c0dcc	0.000839439
8	0x39e0d1f3	0.00042881034
9	0x3aa3d111	0.001249822
10	0x39a97380	0.00032320246
11	0x3a388bc8	0.0007039872
12	0x3ab03964	0.0013444838
13	0x3ade69a7	0.0016968743
14	0xb7a29414	-1.938086e-05
15	0x39e1dbc9	0.00043079097
16	0x3a2190f7	0.0006163264
17	0x39e66ff0	0.00043952418
18	0x3993ece6	0.00028214528
19	0x3a6cdd20	0.0009035636
20	0x379fedc6	1.9064999e-05
21	0x3a843dd5	0.0010089228
22	0xb96754b2	-0.00022061428
23	0x3b0f6ee9	0.0021886176
24	0x3a7ee879	0.0009723972
25	0x3a1efbc9	0.00060647406
26	0x3a0f52d1	0.00054673577
27	0x3a68bcc6	0.0008878227
28	0x3a4910bc	0.0007670035
29	0x3ab1ac24	0.001355533
30	0x3adc33f7	0.0016800155
31	0xb9944438	-0.00028279587
32	0x3a6a5b32	0.0008939981
33	0x3b1c48f9	0.0023847206
34	0xba01c58f	-0.0004950398
35	0x3ac7b638	0.00152368
36	0x3abbe07e	0.0014333872
37	0x3aac045a	0.0013123855
38	0x3a12cec6	0.00056002697
39	0x3ab73ea4	0.001398046
40	0xb952bfe8	-0.00020098651
41	0x3a6ae510	0.00089605246
42	0x3a982df4	0.0011610375
43	0x3b1b6c4f	0.002371568
44	0x3a135f23	0.00056217815
45	0x3a909a50	0.0011032317
46	0x39cfbaf0	0.00039621396
47	0x39c60a9c	0.00037773408
48	0x3b21f240	0.0024711043
49	0x3a7a8965	0.00095572165
50	0x3aa849f6	0.0012839425
51	0x3b153f1c	0.0022773212
52	0x3a86e043	0.0010290224
53	0x3a1aefc6	0.0005910363
54	0x3a098afc	0.00052468455
55	0x3aed0819	0.0018084078
56	0x38816dda	6.171661e-05
57	0x3b3d0a10	0.002884511
58	0x3ae9d75e	0.0017840674
59	0x3a529502	0.0008033068
60	0x38921a21	6.9666894e-05
61	0x3a855a8f	0.0010174083
62	0x3b210ce9	0.0024574345
63	0x3ad06e4f	0.0015902015
64	0x3ab4c83a	0.0013792582
65	0x3a5f735b	0.0008523964
66	0xba121a13	-0.00055733434
67	0x3a8da229	0.0010805774
68	0x39dc3701	0.0004200265
69	0x3a30bdde	0.00067421596
70	0x3afd09a0	0.0019305237
71	0x3b548c83	0.0032432384
72	0x3b123da8	0.0022314582
73	0x38efc31b	0.00011432749
74	0x3a777515	0.0009439749
75	0x3a22d108	0.00062109577
76	0x39c80713	0.00038152243
77	0xb702fffb	-7.808204e-06
78	0xb9b7b69c	-0.00035040535
79	0x3ad235c7	0.0016037755
80	0x38453a07	4.7022502e-05
81	0x3a97f960	0.0011594705
82	0x38babbc5	8.904146e-05
83	0x39d8697a	0.00041277317
84	0x3ad4985e	0.0016219725
85	0xb949fe34	-0.00019263552
86	0x3978d20a	0.00023729369
87	0x3abddf2d	0.0014486067
88	0x3a014ea2	0.00049326767
89	0x3aae6849	0.0013306226
90	0x38ea62dc	0.000111764035
91	0x399e7064	0.00030219846
92	0x3a7e8648	0.00097093405
93	0x3a870297	0.0010300454
94	0x38857a74	6.364743e-05
95	0x3aaf1303	0.0013357106
96	0x392fa8e5	0.00016752219
97	0x3a9c0430	0.0011903103
98	0xbaaa2bda	-0.001298304
99	0xb9c67af9	-0.00037857125
100	0xb8a33d2e	-7.783841e-05
101	0xb9e919d1	-0.00044460458
102	0xbab5323c	-0.0013824175
103	0xb9d57016	-0.00040710036
104	0xbaa4c48c	-0.0012570783
105	0xba26b993	-0.000636005
106	0xb9c0c3be	-0.00036766933
107	0xba773034	-0.0009429485
108	0xb992ec24	-0.00028023229
109	0xba040cea	-0.0005037325
110	0xba9dded7	-0.0012044561
111	0xbaa443fb	-0.0012532467
112	0xb81021ca	-3.4363744e-05
113	0xb9b1eb75	-0.000339355
114	0xba304cfc	-0.0006725339
115	0xb9bb178d	-0.00035684966
116	0xb98f3c76	-0.00027320132
117	0xba31df2f	-0.0006785271
118	0xb806249b	-3.198218e-05
119	0xba5c0d16	-0.0008394284
120	0x39049570	0.00012644171
121	0xbade8ee8	-0.0016979845
122	0xba5c1a94	-0.00083962944
123	0xb9ff14ea	-0.00048652972
124	0xb9e3f265	-0.00043477412
125	0xba3dbdce	-0.0007238061
126	0xba4effae	-0.00078963756
127	0xba8222fc	-0.0009928639
128	0xbaa69484	-0.0012709056
129	0xb906279f	-0.00012793996
130	0xba346eb0	-0.0006882949
131	0xbafac3f2	-0.0019131883
132	0x3982ad9f	0.0002492489
133	0xba9342c8	-0.0011235112
134	0xba87f4bd	-0.001037262
135	0xba801b8a	-0.0009773832
136	0xba0e3c01	-0.00054258114
137	0xba8b221a	-0.0010615021
138	0x38e3dfe0	0.000108659035
139	0xba381cec	-0.00070233527
140	0xba6d40c9	-0.0009050486
141	0xbae75040	-0.0017647818
142	0xb9ebcfad	-0.00044977423
143	0xba598c7d	-0.00082988275
144	0xb9b1dc86	-0.00033924374
145	0xb9bf008c	-0.00036430766
146	0xbb000175	-0.0019532118
147	0xba64934f	-0.00087194605
148	0xba8dff5c	-0.0010833549
149	0xbadfed32	-0.001708424
150	0xba4f5749	-0.000790943
151	0xba08275e	-0.00051938544
152	0xb9c9db58	-0.0003850113
153	0xbab1b7b9	-0.0013558782
154	0xb9889291	-0.00026049142
155	0xbb1ced13	-0.0023945018
156	0xbaba6112	-0.0014219603
157	0xba2a0aae	-0.0006486577
158	0xb8824a3f	-6.2127125e-05
159	0xba398e69	-0.00070784107
160	0xbaef32a3	-0.0018249344
161	0xbaa55954	-0.0012615123
162	0xba91f454	-0.0011135438
163	0xba2fa110	-0.00066997204
164	0x390b0ce4	0.00013260875
165	0xba6b04f0	-0.00089652743
166	0xb9c4dd6c	-0.00037549005
167	0xba0c961a	-0.0005362943
168	0xbac02206	-0.0014658577
169	0xbb1a9391	-0.0023586492
170	0xbafbfe1e	-0.0019225513
171	0xb8b5b993	-8.6653185e-05
172	0xba393bc3	-0.0007066095
173	0xba50bd8e	-0.0007962816
174	0xb996c5b8	-0.0002875754
175	0x35e44a3b	1.7008928e-06
176	0x390d9b7d	0.00013504732
177	0xbaa36e99	-0.0012468874
178	0xb8278d3c	-3.9947437e-05
179	0xbaa0a824	-0.0012257141
180	0xb8c7c9db	-9.526658e-05
181	0xb99a2a32	-0.00029404607
182	0xba9bc1fa	-0.0011883371
183	0xb96ade79	-0.00022398857
184	0xb947a4e6	-0.00019039548
185	0xba8a194a	-0.0010536101
186	0xb9d80171	-0.00041199804
187	0xba8a9071	-0.0010571611
188	0xb974a4be	-0.00023331025
189	0xb974b54b	-0.0002333719
190	0xba524188	-0.0008020629
191	0xba4985d8	-0.0007687486
192	0xb8821261	-6.2023064e-05
193	0xba90bb84	-0.0011042212
194	0xb926b97d	-0.00015900093
195	0xba957ba5	-0.0011404647
196	0x00000004	6e-45
197	0x00000004	6e-45
198	0x00000004	6e-45
199	0x00000004	6e-45
200	0x00000004	6e-45
201	0x00000004	6e-45
202	0x00000004	6e-45
203	0x00000004	6e-45
204	0x00000004	6e-45
205	0x00000004	6e-45
206	0x00000004	6e-45
207	0x00000004	6e-45
208	0x00000004	6e-45
209	0x00000004	6e-45
210	0x00000004	6e-45
211	0x80000004	-6e-45
212	0x00000004	6e-45
213	0x00000004	6e-45
214	0x00000004	6e-45
215	0x00000004	6e-45
216	0x00000004	6e-45
217	0x00000004	6e-45
218	0x80000004	-6e-45
219	0x00000004	6e-45
220	0x00000004	6e-45
221	0x00000004	6e-45
222	0x80000004	-6e-45
223	0x00000004	6e-45
224	0x00000004	6e-45
225	0x00000004	6e-45
226	0x00000004	6e-45
227	0x00000000	0.0
228	0x00000004	6e-45
229	0x00000004	6e-45
230	0x00000004	6e-45
231	0x00000004	6e-45
232	0x00000004	6e-45
233	0x00000004	6e-45
234	0x80000004	-6e-45
235	0x00000004	6e-45
236	0x00000004	6e-45
237	0x00000004	6e-45
238	0x00000004	6e-45
239	0x00000004	6e-45
240	0x00000004	6e-45
241	0x00000004	6e-45
242	0x00000004	6e-45
243	0x00000004	6e-45
244	0x00000004	6e-45
245	0x00000004	6e-45
246	0x00000004	6e-45
247	0x00000004	6e-45
248	0x00000004	6e-45
249	0x00000004	6e-45
250	0x00000004	6e-45
251	0x00000004	6e-45
252	0x00000004	6e-45
253	0x00000004	6e-45
254	0x00000004	6e-45
255	0x00000004	6e-45
